name: "VGG_KITTI_RRC_2560x768_kitti_car_train"
layer {
  name: "data"
  type: "AnnotatedData"
  top: "data"
  top: "label"
  include {
    phase: TRAIN
  }
  transform_param {
    mirror: true
    mean_value: 104.0
    mean_value: 117.0
    mean_value: 123.0
    resize_param {
      prob: 1.0
      resize_mode: WARP
      height: 768
      width: 2560
      interp_mode: LINEAR
      interp_mode: AREA
      interp_mode: NEAREST
      interp_mode: CUBIC
      interp_mode: LANCZOS4
    }
    emit_constraint {
      emit_type: CENTER
    }
    hsv: true
    gaussianblur: true
  }
  data_param {
    source: "data/KITTI-car/lmdb/KITTI-car_training_lmdb"
    batch_size: 1
    backend: LMDB
  }
  annotated_data_param {
    batch_sampler {
      max_sample: 1
      max_trials: 1
    }
    batch_sampler {
      sampler {
        min_scale: 0.30000001192092896
        max_scale: 1.0
        min_aspect_ratio: 0.5
        max_aspect_ratio: 2.0
      }
      sample_constraint {
        min_jaccard_overlap: 0.10000000149011612
      }
      max_sample: 1
      max_trials: 50
    }
    batch_sampler {
      sampler {
        min_scale: 0.30000001192092896
        max_scale: 1.0
        min_aspect_ratio: 0.5
        max_aspect_ratio: 2.0
      }
      sample_constraint {
        min_jaccard_overlap: 0.30000001192092896
      }
      max_sample: 1
      max_trials: 50
    }
    batch_sampler {
      sampler {
        min_scale: 0.30000001192092896
        max_scale: 1.0
        min_aspect_ratio: 0.5
        max_aspect_ratio: 2.0
      }
      sample_constraint {
        min_jaccard_overlap: 0.5
      }
      max_sample: 1
      max_trials: 50
    }
    batch_sampler {
      sampler {
        min_scale: 0.30000001192092896
        max_scale: 1.0
        min_aspect_ratio: 0.5
        max_aspect_ratio: 2.0
      }
      sample_constraint {
        min_jaccard_overlap: 0.699999988079071
      }
      max_sample: 1
      max_trials: 50
    }
    batch_sampler {
      sampler {
        min_scale: 0.30000001192092896
        max_scale: 1.0
        min_aspect_ratio: 0.5
        max_aspect_ratio: 2.0
      }
      sample_constraint {
        min_jaccard_overlap: 0.8999999761581421
      }
      max_sample: 1
      max_trials: 50
    }
    batch_sampler {
      sampler {
        min_scale: 0.30000001192092896
        max_scale: 1.0
        min_aspect_ratio: 0.5
        max_aspect_ratio: 2.0
      }
      sample_constraint {
        max_jaccard_overlap: 1.0
      }
      max_sample: 1
      max_trials: 50
    }
    label_map_file: "data/KITTI-car/labelmap_voc.prototxt"
  }
}
layer {
  name: "conv1_1"
  type: "Convolution"
  bottom: "data"
  top: "conv1_1"
  param {
    lr_mult: 1.0
    decay_mult: 1.0
  }
  param {
    lr_mult: 2.0
    decay_mult: 0.0
  }
  convolution_param {
    num_output: 64
    pad: 1
    kernel_size: 3
    weight_filler {
      type: "xavier"
    }
    bias_filler {
      type: "constant"
      value: 0.0
    }
  }
}
layer {
  name: "relu1_1"
  type: "ReLU"
  bottom: "conv1_1"
  top: "conv1_1"
}
layer {
  name: "conv1_2"
  type: "Convolution"
  bottom: "conv1_1"
  top: "conv1_2"
  param {
    lr_mult: 1.0
    decay_mult: 1.0
  }
  param {
    lr_mult: 2.0
    decay_mult: 0.0
  }
  convolution_param {
    num_output: 64
    pad: 1
    kernel_size: 3
    weight_filler {
      type: "xavier"
    }
    bias_filler {
      type: "constant"
      value: 0.0
    }
  }
}
layer {
  name: "relu1_2"
  type: "ReLU"
  bottom: "conv1_2"
  top: "conv1_2"
}
layer {
  name: "pool1"
  type: "Pooling"
  bottom: "conv1_2"
  top: "pool1"
  pooling_param {
    pool: MAX
    kernel_size: 2
    stride: 2
  }
}
layer {
  name: "conv2_1"
  type: "Convolution"
  bottom: "pool1"
  top: "conv2_1"
  param {
    lr_mult: 1.0
    decay_mult: 1.0
  }
  param {
    lr_mult: 2.0
    decay_mult: 0.0
  }
  convolution_param {
    num_output: 128
    pad: 1
    kernel_size: 3
    weight_filler {
      type: "xavier"
    }
    bias_filler {
      type: "constant"
      value: 0.0
    }
  }
}
layer {
  name: "relu2_1"
  type: "ReLU"
  bottom: "conv2_1"
  top: "conv2_1"
}
layer {
  name: "conv2_2"
  type: "Convolution"
  bottom: "conv2_1"
  top: "conv2_2"
  param {
    lr_mult: 1.0
    decay_mult: 1.0
  }
  param {
    lr_mult: 2.0
    decay_mult: 0.0
  }
  convolution_param {
    num_output: 128
    pad: 1
    kernel_size: 3
    weight_filler {
      type: "xavier"
    }
    bias_filler {
      type: "constant"
      value: 0.0
    }
  }
}
layer {
  name: "relu2_2"
  type: "ReLU"
  bottom: "conv2_2"
  top: "conv2_2"
}
layer {
  name: "pool2"
  type: "Pooling"
  bottom: "conv2_2"
  top: "pool2"
  pooling_param {
    pool: MAX
    kernel_size: 2
    stride: 2
  }
}
layer {
  name: "conv3_1"
  type: "Convolution"
  bottom: "pool2"
  top: "conv3_1"
  param {
    lr_mult: 1.0
    decay_mult: 1.0
  }
  param {
    lr_mult: 2.0
    decay_mult: 0.0
  }
  convolution_param {
    num_output: 256
    pad: 1
    kernel_size: 3
    weight_filler {
      type: "xavier"
    }
    bias_filler {
      type: "constant"
      value: 0.0
    }
  }
}
layer {
  name: "relu3_1"
  type: "ReLU"
  bottom: "conv3_1"
  top: "conv3_1"
}
layer {
  name: "conv3_2"
  type: "Convolution"
  bottom: "conv3_1"
  top: "conv3_2"
  param {
    lr_mult: 1.0
    decay_mult: 1.0
  }
  param {
    lr_mult: 2.0
    decay_mult: 0.0
  }
  convolution_param {
    num_output: 256
    pad: 1
    kernel_size: 3
    weight_filler {
      type: "xavier"
    }
    bias_filler {
      type: "constant"
      value: 0.0
    }
  }
}
layer {
  name: "relu3_2"
  type: "ReLU"
  bottom: "conv3_2"
  top: "conv3_2"
}
layer {
  name: "conv3_3"
  type: "Convolution"
  bottom: "conv3_2"
  top: "conv3_3"
  param {
    lr_mult: 1.0
    decay_mult: 1.0
  }
  param {
    lr_mult: 2.0
    decay_mult: 0.0
  }
  convolution_param {
    num_output: 256
    pad: 1
    kernel_size: 3
    weight_filler {
      type: "xavier"
    }
    bias_filler {
      type: "constant"
      value: 0.0
    }
  }
}
layer {
  name: "relu3_3"
  type: "ReLU"
  bottom: "conv3_3"
  top: "conv3_3"
}
layer {
  name: "pool3"
  type: "Pooling"
  bottom: "conv3_3"
  top: "pool3"
  pooling_param {
    pool: MAX
    kernel_size: 2
    stride: 2
  }
}
layer {
  name: "conv4_1"
  type: "Convolution"
  bottom: "pool3"
  top: "conv4_1"
  param {
    lr_mult: 1.0
    decay_mult: 1.0
  }
  param {
    lr_mult: 2.0
    decay_mult: 0.0
  }
  convolution_param {
    num_output: 512
    pad: 1
    kernel_size: 3
    weight_filler {
      type: "xavier"
    }
    bias_filler {
      type: "constant"
      value: 0.0
    }
  }
}
layer {
  name: "relu4_1"
  type: "ReLU"
  bottom: "conv4_1"
  top: "conv4_1"
}
layer {
  name: "conv4_2"
  type: "Convolution"
  bottom: "conv4_1"
  top: "conv4_2"
  param {
    lr_mult: 1.0
    decay_mult: 1.0
  }
  param {
    lr_mult: 2.0
    decay_mult: 0.0
  }
  convolution_param {
    num_output: 512
    pad: 1
    kernel_size: 3
    weight_filler {
      type: "xavier"
    }
    bias_filler {
      type: "constant"
      value: 0.0
    }
  }
}
layer {
  name: "relu4_2"
  type: "ReLU"
  bottom: "conv4_2"
  top: "conv4_2"
}
layer {
  name: "conv4_3"
  type: "Convolution"
  bottom: "conv4_2"
  top: "conv4_3"
  param {
    lr_mult: 1.0
    decay_mult: 1.0
  }
  param {
    lr_mult: 2.0
    decay_mult: 0.0
  }
  convolution_param {
    num_output: 512
    pad: 1
    kernel_size: 3
    weight_filler {
      type: "xavier"
    }
    bias_filler {
      type: "constant"
      value: 0.0
    }
  }
}
layer {
  name: "relu4_3"
  type: "ReLU"
  bottom: "conv4_3"
  top: "conv4_3"
}
layer {
  name: "pool4"
  type: "Pooling"
  bottom: "conv4_3"
  top: "pool4"
  pooling_param {
    pool: MAX
    kernel_size: 2
    stride: 2
  }
}
layer {
  name: "conv5_1"
  type: "Convolution"
  bottom: "pool4"
  top: "conv5_1"
  param {
    lr_mult: 1.0
    decay_mult: 1.0
  }
  param {
    lr_mult: 2.0
    decay_mult: 0.0
  }
  convolution_param {
    num_output: 512
    pad: 1
    kernel_size: 3
    weight_filler {
      type: "xavier"
    }
    bias_filler {
      type: "constant"
      value: 0.0
    }
  }
}
layer {
  name: "relu5_1"
  type: "ReLU"
  bottom: "conv5_1"
  top: "conv5_1"
}
layer {
  name: "conv5_2"
  type: "Convolution"
  bottom: "conv5_1"
  top: "conv5_2"
  param {
    lr_mult: 1.0
    decay_mult: 1.0
  }
  param {
    lr_mult: 2.0
    decay_mult: 0.0
  }
  convolution_param {
    num_output: 512
    pad: 1
    kernel_size: 3
    weight_filler {
      type: "xavier"
    }
    bias_filler {
      type: "constant"
      value: 0.0
    }
  }
}
layer {
  name: "relu5_2"
  type: "ReLU"
  bottom: "conv5_2"
  top: "conv5_2"
}
layer {
  name: "conv5_3"
  type: "Convolution"
  bottom: "conv5_2"
  top: "conv5_3"
  param {
    lr_mult: 1.0
    decay_mult: 1.0
  }
  param {
    lr_mult: 2.0
    decay_mult: 0.0
  }
  convolution_param {
    num_output: 512
    pad: 1
    kernel_size: 3
    weight_filler {
      type: "xavier"
    }
    bias_filler {
      type: "constant"
      value: 0.0
    }
  }
}
layer {
  name: "relu5_3"
  type: "ReLU"
  bottom: "conv5_3"
  top: "conv5_3"
}
layer {
  name: "pool5"
  type: "Pooling"
  bottom: "conv5_3"
  top: "pool5"
  pooling_param {
    pool: MAX
    kernel_size: 3
    stride: 1
    pad: 1
  }
}
layer {
  name: "fc6"
  type: "Convolution"
  bottom: "pool5"
  top: "fc6"
  param {
    lr_mult: 1.0
    decay_mult: 1.0
  }
  param {
    lr_mult: 2.0
    decay_mult: 0.0
  }
  convolution_param {
    num_output: 1024
    pad: 6
    kernel_size: 3
    weight_filler {
      type: "xavier"
    }
    bias_filler {
      type: "constant"
      value: 0.0
    }
    dilation: 6
  }
}
layer {
  name: "relu6"
  type: "ReLU"
  bottom: "fc6"
  top: "fc6"
}
layer {
  name: "fc7"
  type: "Convolution"
  bottom: "fc6"
  top: "fc7"
  param {
    lr_mult: 1.0
    decay_mult: 1.0
  }
  param {
    lr_mult: 2.0
    decay_mult: 0.0
  }
  convolution_param {
    num_output: 1024
    kernel_size: 1
    weight_filler {
      type: "xavier"
    }
    bias_filler {
      type: "constant"
      value: 0.0
    }
  }
}
layer {
  name: "relu7"
  type: "ReLU"
  bottom: "fc7"
  top: "fc7"
}
layer {
  name: "conv4_3r"
  type: "Convolution"
  bottom: "conv4_3"
  top: "conv4_3r"
  param {
    lr_mult: 1.0
    decay_mult: 1.0
  }
  param {
    lr_mult: 2.0
    decay_mult: 0.0
  }
  convolution_param {
    num_output: 256
    pad: 1
    kernel_size: 3
    stride: 1
    weight_filler {
      type: "xavier"
    }
    bias_filler {
      type: "constant"
      value: 0.0
    }
  }
}
layer {
  name: "conv4_3r_relu"
  type: "ReLU"
  bottom: "conv4_3r"
  top: "conv4_3r"
}
layer {
  name: "fc7r"
  type: "Convolution"
  bottom: "fc7"
  top: "fc7r"
  param {
    lr_mult: 1.0
    decay_mult: 1.0
  }
  param {
    lr_mult: 2.0
    decay_mult: 0.0
  }
  convolution_param {
    num_output: 256
    pad: 1
    kernel_size: 3
    stride: 1
    weight_filler {
      type: "xavier"
    }
    bias_filler {
      type: "constant"
      value: 0.0
    }
  }
}
layer {
  name: "fc7r_relu"
  type: "ReLU"
  bottom: "fc7r"
  top: "fc7r"
}
layer {
  name: "conv6_1"
  type: "Convolution"
  bottom: "fc7"
  top: "conv6_1"
  param {
    lr_mult: 1.0
    decay_mult: 1.0
  }
  param {
    lr_mult: 2.0
    decay_mult: 0.0
  }
  convolution_param {
    num_output: 256
    pad: 0
    kernel_size: 1
    stride: 1
    weight_filler {
      type: "xavier"
    }
    bias_filler {
      type: "constant"
      value: 0.0
    }
  }
}
layer {
  name: "conv6_1_relu"
  type: "ReLU"
  bottom: "conv6_1"
  top: "conv6_1"
}
layer {
  name: "conv6_2"
  type: "Convolution"
  bottom: "conv6_1"
  top: "conv6_2"
  param {
    lr_mult: 1.0
    decay_mult: 1.0
  }
  param {
    lr_mult: 2.0
    decay_mult: 0.0
  }
  convolution_param {
    num_output: 256
    pad: 1
    kernel_size: 3
    stride: 2
    weight_filler {
      type: "xavier"
    }
    bias_filler {
      type: "constant"
      value: 0.0
    }
  }
}
layer {
  name: "conv6_2_relu"
  type: "ReLU"
  bottom: "conv6_2"
  top: "conv6_2"
}
layer {
  name: "conv7_1"
  type: "Convolution"
  bottom: "conv6_2"
  top: "conv7_1"
  param {
    lr_mult: 1.0
    decay_mult: 1.0
  }
  param {
    lr_mult: 2.0
    decay_mult: 0.0
  }
  convolution_param {
    num_output: 128
    pad: 0
    kernel_size: 1
    stride: 1
    weight_filler {
      type: "xavier"
    }
    bias_filler {
      type: "constant"
      value: 0.0
    }
  }
}
layer {
  name: "conv7_1_relu"
  type: "ReLU"
  bottom: "conv7_1"
  top: "conv7_1"
}
layer {
  name: "conv7_2"
  type: "Convolution"
  bottom: "conv7_1"
  top: "conv7_2"
  param {
    lr_mult: 1.0
    decay_mult: 1.0
  }
  param {
    lr_mult: 2.0
    decay_mult: 0.0
  }
  convolution_param {
    num_output: 256
    pad: 1
    kernel_size: 3
    stride: 2
    weight_filler {
      type: "xavier"
    }
    bias_filler {
      type: "constant"
      value: 0.0
    }
  }
}
layer {
  name: "conv7_2_relu"
  type: "ReLU"
  bottom: "conv7_2"
  top: "conv7_2"
}
layer {
  name: "conv8_1"
  type: "Convolution"
  bottom: "conv7_2"
  top: "conv8_1"
  param {
    lr_mult: 1.0
    decay_mult: 1.0
  }
  param {
    lr_mult: 2.0
    decay_mult: 0.0
  }
  convolution_param {
    num_output: 128
    pad: 0
    kernel_size: 1
    stride: 1
    weight_filler {
      type: "xavier"
    }
    bias_filler {
      type: "constant"
      value: 0.0
    }
  }
}
layer {
  name: "conv8_1_relu"
  type: "ReLU"
  bottom: "conv8_1"
  top: "conv8_1"
}
layer {
  name: "conv8_2"
  type: "Convolution"
  bottom: "conv8_1"
  top: "conv8_2"
  param {
    lr_mult: 1.0
    decay_mult: 1.0
  }
  param {
    lr_mult: 2.0
    decay_mult: 0.0
  }
  convolution_param {
    num_output: 256
    pad: 1
    kernel_size: 3
    stride: 2
    weight_filler {
      type: "xavier"
    }
    bias_filler {
      type: "constant"
      value: 0.0
    }
  }
}
layer {
  name: "conv8_2_relu"
  type: "ReLU"
  bottom: "conv8_2"
  top: "conv8_2"
}
layer {
  name: "conv4_3r_norm"
  type: "Normalize"
  bottom: "conv4_3r"
  top: "conv4_3r_norm"
  norm_param {
    across_spatial: false
    scale_filler {
      type: "constant"
      value: 20.0
    }
    channel_shared: false
  }
}
layer {
  name: "conv4_3r_norm_mbox_loc0"
  type: "Convolution"
  bottom: "conv4_3r_norm"
  top: "conv4_3r_norm_mbox_loc0"
  param {
    name: "conv4_3r_loc0_w"
    lr_mult: 1.0
    decay_mult: 1.0
  }
  param {
    name: "conv4_3r_loc0_b"
    lr_mult: 2.0
    decay_mult: 0.0
  }
  convolution_param {
    num_output: 12
    pad: 1
    kernel_size: 3
    stride: 1
    weight_filler {
      type: "xavier"
    }
    bias_filler {
      type: "constant"
      value: 0.0
    }
  }
}
layer {
  name: "conv4_3r_norm_mbox_loc0_perm"
  type: "Permute"
  bottom: "conv4_3r_norm_mbox_loc0"
  top: "conv4_3r_norm_mbox_loc0_perm"
  permute_param {
    order: 0
    order: 2
    order: 3
    order: 1
  }
}
layer {
  name: "conv4_3r_norm_mbox_loc0_flat"
  type: "Flatten"
  bottom: "conv4_3r_norm_mbox_loc0_perm"
  top: "conv4_3r_norm_mbox_loc0_flat"
  flatten_param {
    axis: 1
  }
}
layer {
  name: "conv4_3r_norm_mbox_conf0"
  type: "Convolution"
  bottom: "conv4_3r_norm"
  top: "conv4_3r_norm_mbox_conf0"
  param {
    name: "conv4_3r_conf0_w"
    lr_mult: 1.0
    decay_mult: 1.0
  }
  param {
    name: "conv4_3r_conf0_b"
    lr_mult: 2.0
    decay_mult: 0.0
  }
  convolution_param {
    num_output: 6
    pad: 1
    kernel_size: 3
    stride: 1
    weight_filler {
      type: "xavier"
    }
    bias_filler {
      type: "constant"
      value: 0.0
    }
  }
}
layer {
  name: "conv4_3r_norm_mbox_conf0_perm"
  type: "Permute"
  bottom: "conv4_3r_norm_mbox_conf0"
  top: "conv4_3r_norm_mbox_conf0_perm"
  permute_param {
    order: 0
    order: 2
    order: 3
    order: 1
  }
}
layer {
  name: "conv4_3r_norm_mbox_conf0_flat"
  type: "Flatten"
  bottom: "conv4_3r_norm_mbox_conf0_perm"
  top: "conv4_3r_norm_mbox_conf0_flat"
  flatten_param {
    axis: 1
  }
}
layer {
  name: "conv4_3r_norm_mbox_priorbox0"
  type: "PriorBox"
  bottom: "conv4_3r_norm"
  bottom: "data"
  top: "conv4_3r_norm_mbox_priorbox0"
  prior_box_param {
    min_size: 51.45600128173828
    aspect_ratio: 2.0
    flip: true
    clip: true
    variance: 0.10000000149011612
    variance: 0.10000000149011612
    variance: 0.20000000298023224
    variance: 0.20000000298023224
  }
}
layer {
  name: "conv4_3r_norm_mbox_loc1"
  type: "Convolution"
  bottom: "conv4_3r_norm"
  top: "conv4_3r_norm_mbox_loc1"
  param {
    name: "conv4_3r_loc1_w"
    lr_mult: 1.0
    decay_mult: 1.0
  }
  param {
    name: "conv4_3r_loc1_b"
    lr_mult: 2.0
    decay_mult: 0.0
  }
  convolution_param {
    num_output: 12
    pad: 1
    kernel_size: 3
    stride: 1
    weight_filler {
      type: "xavier"
    }
    bias_filler {
      type: "constant"
      value: 0.0
    }
  }
}
layer {
  name: "conv4_3r_norm_mbox_loc1_perm"
  type: "Permute"
  bottom: "conv4_3r_norm_mbox_loc1"
  top: "conv4_3r_norm_mbox_loc1_perm"
  permute_param {
    order: 0
    order: 2
    order: 3
    order: 1
  }
}
layer {
  name: "conv4_3r_norm_mbox_loc1_flat"
  type: "Flatten"
  bottom: "conv4_3r_norm_mbox_loc1_perm"
  top: "conv4_3r_norm_mbox_loc1_flat"
  flatten_param {
    axis: 1
  }
}
layer {
  name: "conv4_3r_norm_mbox_conf1"
  type: "Convolution"
  bottom: "conv4_3r_norm"
  top: "conv4_3r_norm_mbox_conf1"
  param {
    name: "conv4_3r_conf1_w"
    lr_mult: 1.0
    decay_mult: 1.0
  }
  param {
    name: "conv4_3r_conf1_b"
    lr_mult: 2.0
    decay_mult: 0.0
  }
  convolution_param {
    num_output: 6
    pad: 1
    kernel_size: 3
    stride: 1
    weight_filler {
      type: "xavier"
    }
    bias_filler {
      type: "constant"
      value: 0.0
    }
  }
}
layer {
  name: "conv4_3r_norm_mbox_conf1_perm"
  type: "Permute"
  bottom: "conv4_3r_norm_mbox_conf1"
  top: "conv4_3r_norm_mbox_conf1_perm"
  permute_param {
    order: 0
    order: 2
    order: 3
    order: 1
  }
}
layer {
  name: "conv4_3r_norm_mbox_conf1_flat"
  type: "Flatten"
  bottom: "conv4_3r_norm_mbox_conf1_perm"
  top: "conv4_3r_norm_mbox_conf1_flat"
  flatten_param {
    axis: 1
  }
}
layer {
  name: "conv4_3r_norm_mbox_priorbox1"
  type: "PriorBox"
  bottom: "conv4_3r_norm"
  bottom: "data"
  top: "conv4_3r_norm_mbox_priorbox1"
  prior_box_param {
    min_size: 67.39199829101562
    aspect_ratio: 2.0
    flip: true
    clip: true
    variance: 0.10000000149011612
    variance: 0.10000000149011612
    variance: 0.20000000298023224
    variance: 0.20000000298023224
  }
}
layer {
  name: "conv4_3r_norm_mbox_loc2"
  type: "Convolution"
  bottom: "conv4_3r_norm"
  top: "conv4_3r_norm_mbox_loc2"
  param {
    name: "conv4_3r_loc2_w"
    lr_mult: 1.0
    decay_mult: 1.0
  }
  param {
    name: "conv4_3r_loc2_b"
    lr_mult: 2.0
    decay_mult: 0.0
  }
  convolution_param {
    num_output: 12
    pad: 1
    kernel_size: 3
    stride: 1
    weight_filler {
      type: "xavier"
    }
    bias_filler {
      type: "constant"
      value: 0.0
    }
  }
}
layer {
  name: "conv4_3r_norm_mbox_loc2_perm"
  type: "Permute"
  bottom: "conv4_3r_norm_mbox_loc2"
  top: "conv4_3r_norm_mbox_loc2_perm"
  permute_param {
    order: 0
    order: 2
    order: 3
    order: 1
  }
}
layer {
  name: "conv4_3r_norm_mbox_loc2_flat"
  type: "Flatten"
  bottom: "conv4_3r_norm_mbox_loc2_perm"
  top: "conv4_3r_norm_mbox_loc2_flat"
  flatten_param {
    axis: 1
  }
}
layer {
  name: "conv4_3r_norm_mbox_conf2"
  type: "Convolution"
  bottom: "conv4_3r_norm"
  top: "conv4_3r_norm_mbox_conf2"
  param {
    name: "conv4_3r_conf2_w"
    lr_mult: 1.0
    decay_mult: 1.0
  }
  param {
    name: "conv4_3r_conf2_b"
    lr_mult: 2.0
    decay_mult: 0.0
  }
  convolution_param {
    num_output: 6
    pad: 1
    kernel_size: 3
    stride: 1
    weight_filler {
      type: "xavier"
    }
    bias_filler {
      type: "constant"
      value: 0.0
    }
  }
}
layer {
  name: "conv4_3r_norm_mbox_conf2_perm"
  type: "Permute"
  bottom: "conv4_3r_norm_mbox_conf2"
  top: "conv4_3r_norm_mbox_conf2_perm"
  permute_param {
    order: 0
    order: 2
    order: 3
    order: 1
  }
}
layer {
  name: "conv4_3r_norm_mbox_conf2_flat"
  type: "Flatten"
  bottom: "conv4_3r_norm_mbox_conf2_perm"
  top: "conv4_3r_norm_mbox_conf2_flat"
  flatten_param {
    axis: 1
  }
}
layer {
  name: "conv4_3r_norm_mbox_priorbox2"
  type: "PriorBox"
  bottom: "conv4_3r_norm"
  bottom: "data"
  top: "conv4_3r_norm_mbox_priorbox2"
  prior_box_param {
    min_size: 83.3280029296875
    aspect_ratio: 2.0
    flip: true
    clip: true
    variance: 0.10000000149011612
    variance: 0.10000000149011612
    variance: 0.20000000298023224
    variance: 0.20000000298023224
  }
}
layer {
  name: "conv4_3r_norm_mbox_loc3"
  type: "Convolution"
  bottom: "conv4_3r_norm"
  top: "conv4_3r_norm_mbox_loc3"
  param {
    name: "conv4_3r_loc3_w"
    lr_mult: 1.0
    decay_mult: 1.0
  }
  param {
    name: "conv4_3r_loc3_b"
    lr_mult: 2.0
    decay_mult: 0.0
  }
  convolution_param {
    num_output: 12
    pad: 1
    kernel_size: 3
    stride: 1
    weight_filler {
      type: "xavier"
    }
    bias_filler {
      type: "constant"
      value: 0.0
    }
  }
}
layer {
  name: "conv4_3r_norm_mbox_loc3_perm"
  type: "Permute"
  bottom: "conv4_3r_norm_mbox_loc3"
  top: "conv4_3r_norm_mbox_loc3_perm"
  permute_param {
    order: 0
    order: 2
    order: 3
    order: 1
  }
}
layer {
  name: "conv4_3r_norm_mbox_loc3_flat"
  type: "Flatten"
  bottom: "conv4_3r_norm_mbox_loc3_perm"
  top: "conv4_3r_norm_mbox_loc3_flat"
  flatten_param {
    axis: 1
  }
}
layer {
  name: "conv4_3r_norm_mbox_conf3"
  type: "Convolution"
  bottom: "conv4_3r_norm"
  top: "conv4_3r_norm_mbox_conf3"
  param {
    name: "conv4_3r_conf3_w"
    lr_mult: 1.0
    decay_mult: 1.0
  }
  param {
    name: "conv4_3r_conf3_b"
    lr_mult: 2.0
    decay_mult: 0.0
  }
  convolution_param {
    num_output: 6
    pad: 1
    kernel_size: 3
    stride: 1
    weight_filler {
      type: "xavier"
    }
    bias_filler {
      type: "constant"
      value: 0.0
    }
  }
}
layer {
  name: "conv4_3r_norm_mbox_conf3_perm"
  type: "Permute"
  bottom: "conv4_3r_norm_mbox_conf3"
  top: "conv4_3r_norm_mbox_conf3_perm"
  permute_param {
    order: 0
    order: 2
    order: 3
    order: 1
  }
}
layer {
  name: "conv4_3r_norm_mbox_conf3_flat"
  type: "Flatten"
  bottom: "conv4_3r_norm_mbox_conf3_perm"
  top: "conv4_3r_norm_mbox_conf3_flat"
  flatten_param {
    axis: 1
  }
}
layer {
  name: "conv4_3r_norm_mbox_priorbox3"
  type: "PriorBox"
  bottom: "conv4_3r_norm"
  bottom: "data"
  top: "conv4_3r_norm_mbox_priorbox3"
  prior_box_param {
    min_size: 99.26399993896484
    aspect_ratio: 2.0
    flip: true
    clip: true
    variance: 0.10000000149011612
    variance: 0.10000000149011612
    variance: 0.20000000298023224
    variance: 0.20000000298023224
  }
}
layer {
  name: "fc7r_mbox_loc0"
  type: "Convolution"
  bottom: "fc7r"
  top: "fc7r_mbox_loc0"
  param {
    name: "fc7r_loc0_w"
    lr_mult: 1.0
    decay_mult: 1.0
  }
  param {
    name: "fc7r_loc0_b"
    lr_mult: 2.0
    decay_mult: 0.0
  }
  convolution_param {
    num_output: 24
    pad: 1
    kernel_size: 3
    stride: 1
    weight_filler {
      type: "xavier"
    }
    bias_filler {
      type: "constant"
      value: 0.0
    }
  }
}
layer {
  name: "fc7r_mbox_loc0_perm"
  type: "Permute"
  bottom: "fc7r_mbox_loc0"
  top: "fc7r_mbox_loc0_perm"
  permute_param {
    order: 0
    order: 2
    order: 3
    order: 1
  }
}
layer {
  name: "fc7r_mbox_loc0_flat"
  type: "Flatten"
  bottom: "fc7r_mbox_loc0_perm"
  top: "fc7r_mbox_loc0_flat"
  flatten_param {
    axis: 1
  }
}
layer {
  name: "fc7r_mbox_conf0"
  type: "Convolution"
  bottom: "fc7r"
  top: "fc7r_mbox_conf0"
  param {
    name: "fc7r_conf0_w"
    lr_mult: 1.0
    decay_mult: 1.0
  }
  param {
    name: "fc7r_conf0_b"
    lr_mult: 2.0
    decay_mult: 0.0
  }
  convolution_param {
    num_output: 12
    pad: 1
    kernel_size: 3
    stride: 1
    weight_filler {
      type: "xavier"
    }
    bias_filler {
      type: "constant"
      value: 0.0
    }
  }
}
layer {
  name: "fc7r_mbox_conf0_perm"
  type: "Permute"
  bottom: "fc7r_mbox_conf0"
  top: "fc7r_mbox_conf0_perm"
  permute_param {
    order: 0
    order: 2
    order: 3
    order: 1
  }
}
layer {
  name: "fc7r_mbox_conf0_flat"
  type: "Flatten"
  bottom: "fc7r_mbox_conf0_perm"
  top: "fc7r_mbox_conf0_flat"
  flatten_param {
    axis: 1
  }
}
layer {
  name: "fc7r_mbox_priorbox0"
  type: "PriorBox"
  bottom: "fc7r"
  bottom: "data"
  top: "fc7r_mbox_priorbox0"
  prior_box_param {
    min_size: 115.19999694824219
    max_size: 159.36000061035156
    aspect_ratio: 2.0
    aspect_ratio: 3.0
    flip: true
    clip: true
    variance: 0.10000000149011612
    variance: 0.10000000149011612
    variance: 0.20000000298023224
    variance: 0.20000000298023224
  }
}
layer {
  name: "fc7r_mbox_loc1"
  type: "Convolution"
  bottom: "fc7r"
  top: "fc7r_mbox_loc1"
  param {
    name: "fc7r_loc1_w"
    lr_mult: 1.0
    decay_mult: 1.0
  }
  param {
    name: "fc7r_loc1_b"
    lr_mult: 2.0
    decay_mult: 0.0
  }
  convolution_param {
    num_output: 24
    pad: 1
    kernel_size: 3
    stride: 1
    weight_filler {
      type: "xavier"
    }
    bias_filler {
      type: "constant"
      value: 0.0
    }
  }
}
layer {
  name: "fc7r_mbox_loc1_perm"
  type: "Permute"
  bottom: "fc7r_mbox_loc1"
  top: "fc7r_mbox_loc1_perm"
  permute_param {
    order: 0
    order: 2
    order: 3
    order: 1
  }
}
layer {
  name: "fc7r_mbox_loc1_flat"
  type: "Flatten"
  bottom: "fc7r_mbox_loc1_perm"
  top: "fc7r_mbox_loc1_flat"
  flatten_param {
    axis: 1
  }
}
layer {
  name: "fc7r_mbox_conf1"
  type: "Convolution"
  bottom: "fc7r"
  top: "fc7r_mbox_conf1"
  param {
    name: "fc7r_conf1_w"
    lr_mult: 1.0
    decay_mult: 1.0
  }
  param {
    name: "fc7r_conf1_b"
    lr_mult: 2.0
    decay_mult: 0.0
  }
  convolution_param {
    num_output: 12
    pad: 1
    kernel_size: 3
    stride: 1
    weight_filler {
      type: "xavier"
    }
    bias_filler {
      type: "constant"
      value: 0.0
    }
  }
}
layer {
  name: "fc7r_mbox_conf1_perm"
  type: "Permute"
  bottom: "fc7r_mbox_conf1"
  top: "fc7r_mbox_conf1_perm"
  permute_param {
    order: 0
    order: 2
    order: 3
    order: 1
  }
}
layer {
  name: "fc7r_mbox_conf1_flat"
  type: "Flatten"
  bottom: "fc7r_mbox_conf1_perm"
  top: "fc7r_mbox_conf1_flat"
  flatten_param {
    axis: 1
  }
}
layer {
  name: "fc7r_mbox_priorbox1"
  type: "PriorBox"
  bottom: "fc7r"
  bottom: "data"
  top: "fc7r_mbox_priorbox1"
  prior_box_param {
    min_size: 159.36000061035156
    max_size: 203.52000427246094
    aspect_ratio: 2.0
    aspect_ratio: 3.0
    flip: true
    clip: true
    variance: 0.10000000149011612
    variance: 0.10000000149011612
    variance: 0.20000000298023224
    variance: 0.20000000298023224
  }
}
layer {
  name: "fc7r_mbox_loc2"
  type: "Convolution"
  bottom: "fc7r"
  top: "fc7r_mbox_loc2"
  param {
    name: "fc7r_loc2_w"
    lr_mult: 1.0
    decay_mult: 1.0
  }
  param {
    name: "fc7r_loc2_b"
    lr_mult: 2.0
    decay_mult: 0.0
  }
  convolution_param {
    num_output: 24
    pad: 1
    kernel_size: 3
    stride: 1
    weight_filler {
      type: "xavier"
    }
    bias_filler {
      type: "constant"
      value: 0.0
    }
  }
}
layer {
  name: "fc7r_mbox_loc2_perm"
  type: "Permute"
  bottom: "fc7r_mbox_loc2"
  top: "fc7r_mbox_loc2_perm"
  permute_param {
    order: 0
    order: 2
    order: 3
    order: 1
  }
}
layer {
  name: "fc7r_mbox_loc2_flat"
  type: "Flatten"
  bottom: "fc7r_mbox_loc2_perm"
  top: "fc7r_mbox_loc2_flat"
  flatten_param {
    axis: 1
  }
}
layer {
  name: "fc7r_mbox_conf2"
  type: "Convolution"
  bottom: "fc7r"
  top: "fc7r_mbox_conf2"
  param {
    name: "fc7r_conf2_w"
    lr_mult: 1.0
    decay_mult: 1.0
  }
  param {
    name: "fc7r_conf2_b"
    lr_mult: 2.0
    decay_mult: 0.0
  }
  convolution_param {
    num_output: 12
    pad: 1
    kernel_size: 3
    stride: 1
    weight_filler {
      type: "xavier"
    }
    bias_filler {
      type: "constant"
      value: 0.0
    }
  }
}
layer {
  name: "fc7r_mbox_conf2_perm"
  type: "Permute"
  bottom: "fc7r_mbox_conf2"
  top: "fc7r_mbox_conf2_perm"
  permute_param {
    order: 0
    order: 2
    order: 3
    order: 1
  }
}
layer {
  name: "fc7r_mbox_conf2_flat"
  type: "Flatten"
  bottom: "fc7r_mbox_conf2_perm"
  top: "fc7r_mbox_conf2_flat"
  flatten_param {
    axis: 1
  }
}
layer {
  name: "fc7r_mbox_priorbox2"
  type: "PriorBox"
  bottom: "fc7r"
  bottom: "data"
  top: "fc7r_mbox_priorbox2"
  prior_box_param {
    min_size: 203.52000427246094
    max_size: 247.67999267578125
    aspect_ratio: 2.0
    aspect_ratio: 3.0
    flip: true
    clip: true
    variance: 0.10000000149011612
    variance: 0.10000000149011612
    variance: 0.20000000298023224
    variance: 0.20000000298023224
  }
}
layer {
  name: "fc7r_mbox_loc3"
  type: "Convolution"
  bottom: "fc7r"
  top: "fc7r_mbox_loc3"
  param {
    name: "fc7r_loc3_w"
    lr_mult: 1.0
    decay_mult: 1.0
  }
  param {
    name: "fc7r_loc3_b"
    lr_mult: 2.0
    decay_mult: 0.0
  }
  convolution_param {
    num_output: 24
    pad: 1
    kernel_size: 3
    stride: 1
    weight_filler {
      type: "xavier"
    }
    bias_filler {
      type: "constant"
      value: 0.0
    }
  }
}
layer {
  name: "fc7r_mbox_loc3_perm"
  type: "Permute"
  bottom: "fc7r_mbox_loc3"
  top: "fc7r_mbox_loc3_perm"
  permute_param {
    order: 0
    order: 2
    order: 3
    order: 1
  }
}
layer {
  name: "fc7r_mbox_loc3_flat"
  type: "Flatten"
  bottom: "fc7r_mbox_loc3_perm"
  top: "fc7r_mbox_loc3_flat"
  flatten_param {
    axis: 1
  }
}
layer {
  name: "fc7r_mbox_conf3"
  type: "Convolution"
  bottom: "fc7r"
  top: "fc7r_mbox_conf3"
  param {
    name: "fc7r_conf3_w"
    lr_mult: 1.0
    decay_mult: 1.0
  }
  param {
    name: "fc7r_conf3_b"
    lr_mult: 2.0
    decay_mult: 0.0
  }
  convolution_param {
    num_output: 12
    pad: 1
    kernel_size: 3
    stride: 1
    weight_filler {
      type: "xavier"
    }
    bias_filler {
      type: "constant"
      value: 0.0
    }
  }
}
layer {
  name: "fc7r_mbox_conf3_perm"
  type: "Permute"
  bottom: "fc7r_mbox_conf3"
  top: "fc7r_mbox_conf3_perm"
  permute_param {
    order: 0
    order: 2
    order: 3
    order: 1
  }
}
layer {
  name: "fc7r_mbox_conf3_flat"
  type: "Flatten"
  bottom: "fc7r_mbox_conf3_perm"
  top: "fc7r_mbox_conf3_flat"
  flatten_param {
    axis: 1
  }
}
layer {
  name: "fc7r_mbox_priorbox3"
  type: "PriorBox"
  bottom: "fc7r"
  bottom: "data"
  top: "fc7r_mbox_priorbox3"
  prior_box_param {
    min_size: 247.67999267578125
    max_size: 291.8399963378906
    aspect_ratio: 2.0
    aspect_ratio: 3.0
    flip: true
    clip: true
    variance: 0.10000000149011612
    variance: 0.10000000149011612
    variance: 0.20000000298023224
    variance: 0.20000000298023224
  }
}
layer {
  name: "conv6_2_mbox_loc0"
  type: "Convolution"
  bottom: "conv6_2"
  top: "conv6_2_mbox_loc0"
  param {
    name: "conv6_2_loc0_w"
    lr_mult: 1.0
    decay_mult: 1.0
  }
  param {
    name: "conv6_2_loc0_b"
    lr_mult: 2.0
    decay_mult: 0.0
  }
  convolution_param {
    num_output: 24
    pad: 1
    kernel_size: 3
    stride: 1
    weight_filler {
      type: "xavier"
    }
    bias_filler {
      type: "constant"
      value: 0.0
    }
  }
}
layer {
  name: "conv6_2_mbox_loc0_perm"
  type: "Permute"
  bottom: "conv6_2_mbox_loc0"
  top: "conv6_2_mbox_loc0_perm"
  permute_param {
    order: 0
    order: 2
    order: 3
    order: 1
  }
}
layer {
  name: "conv6_2_mbox_loc0_flat"
  type: "Flatten"
  bottom: "conv6_2_mbox_loc0_perm"
  top: "conv6_2_mbox_loc0_flat"
  flatten_param {
    axis: 1
  }
}
layer {
  name: "conv6_2_mbox_conf0"
  type: "Convolution"
  bottom: "conv6_2"
  top: "conv6_2_mbox_conf0"
  param {
    name: "conv6_2_conf0_w"
    lr_mult: 1.0
    decay_mult: 1.0
  }
  param {
    name: "conv6_2_conf0_b"
    lr_mult: 2.0
    decay_mult: 0.0
  }
  convolution_param {
    num_output: 12
    pad: 1
    kernel_size: 3
    stride: 1
    weight_filler {
      type: "xavier"
    }
    bias_filler {
      type: "constant"
      value: 0.0
    }
  }
}
layer {
  name: "conv6_2_mbox_conf0_perm"
  type: "Permute"
  bottom: "conv6_2_mbox_conf0"
  top: "conv6_2_mbox_conf0_perm"
  permute_param {
    order: 0
    order: 2
    order: 3
    order: 1
  }
}
layer {
  name: "conv6_2_mbox_conf0_flat"
  type: "Flatten"
  bottom: "conv6_2_mbox_conf0_perm"
  top: "conv6_2_mbox_conf0_flat"
  flatten_param {
    axis: 1
  }
}
layer {
  name: "conv6_2_mbox_priorbox0"
  type: "PriorBox"
  bottom: "conv6_2"
  bottom: "data"
  top: "conv6_2_mbox_priorbox0"
  prior_box_param {
    min_size: 291.8399963378906
    max_size: 336.0
    aspect_ratio: 2.0
    aspect_ratio: 3.0
    flip: true
    clip: true
    variance: 0.10000000149011612
    variance: 0.10000000149011612
    variance: 0.20000000298023224
    variance: 0.20000000298023224
  }
}
layer {
  name: "conv6_2_mbox_loc1"
  type: "Convolution"
  bottom: "conv6_2"
  top: "conv6_2_mbox_loc1"
  param {
    name: "conv6_2_loc1_w"
    lr_mult: 1.0
    decay_mult: 1.0
  }
  param {
    name: "conv6_2_loc1_b"
    lr_mult: 2.0
    decay_mult: 0.0
  }
  convolution_param {
    num_output: 24
    pad: 1
    kernel_size: 3
    stride: 1
    weight_filler {
      type: "xavier"
    }
    bias_filler {
      type: "constant"
      value: 0.0
    }
  }
}
layer {
  name: "conv6_2_mbox_loc1_perm"
  type: "Permute"
  bottom: "conv6_2_mbox_loc1"
  top: "conv6_2_mbox_loc1_perm"
  permute_param {
    order: 0
    order: 2
    order: 3
    order: 1
  }
}
layer {
  name: "conv6_2_mbox_loc1_flat"
  type: "Flatten"
  bottom: "conv6_2_mbox_loc1_perm"
  top: "conv6_2_mbox_loc1_flat"
  flatten_param {
    axis: 1
  }
}
layer {
  name: "conv6_2_mbox_conf1"
  type: "Convolution"
  bottom: "conv6_2"
  top: "conv6_2_mbox_conf1"
  param {
    name: "conv6_2_conf1_w"
    lr_mult: 1.0
    decay_mult: 1.0
  }
  param {
    name: "conv6_2_conf1_b"
    lr_mult: 2.0
    decay_mult: 0.0
  }
  convolution_param {
    num_output: 12
    pad: 1
    kernel_size: 3
    stride: 1
    weight_filler {
      type: "xavier"
    }
    bias_filler {
      type: "constant"
      value: 0.0
    }
  }
}
layer {
  name: "conv6_2_mbox_conf1_perm"
  type: "Permute"
  bottom: "conv6_2_mbox_conf1"
  top: "conv6_2_mbox_conf1_perm"
  permute_param {
    order: 0
    order: 2
    order: 3
    order: 1
  }
}
layer {
  name: "conv6_2_mbox_conf1_flat"
  type: "Flatten"
  bottom: "conv6_2_mbox_conf1_perm"
  top: "conv6_2_mbox_conf1_flat"
  flatten_param {
    axis: 1
  }
}
layer {
  name: "conv6_2_mbox_priorbox1"
  type: "PriorBox"
  bottom: "conv6_2"
  bottom: "data"
  top: "conv6_2_mbox_priorbox1"
  prior_box_param {
    min_size: 336.0
    max_size: 380.1600036621094
    aspect_ratio: 2.0
    aspect_ratio: 3.0
    flip: true
    clip: true
    variance: 0.10000000149011612
    variance: 0.10000000149011612
    variance: 0.20000000298023224
    variance: 0.20000000298023224
  }
}
layer {
  name: "conv6_2_mbox_loc2"
  type: "Convolution"
  bottom: "conv6_2"
  top: "conv6_2_mbox_loc2"
  param {
    name: "conv6_2_loc2_w"
    lr_mult: 1.0
    decay_mult: 1.0
  }
  param {
    name: "conv6_2_loc2_b"
    lr_mult: 2.0
    decay_mult: 0.0
  }
  convolution_param {
    num_output: 24
    pad: 1
    kernel_size: 3
    stride: 1
    weight_filler {
      type: "xavier"
    }
    bias_filler {
      type: "constant"
      value: 0.0
    }
  }
}
layer {
  name: "conv6_2_mbox_loc2_perm"
  type: "Permute"
  bottom: "conv6_2_mbox_loc2"
  top: "conv6_2_mbox_loc2_perm"
  permute_param {
    order: 0
    order: 2
    order: 3
    order: 1
  }
}
layer {
  name: "conv6_2_mbox_loc2_flat"
  type: "Flatten"
  bottom: "conv6_2_mbox_loc2_perm"
  top: "conv6_2_mbox_loc2_flat"
  flatten_param {
    axis: 1
  }
}
layer {
  name: "conv6_2_mbox_conf2"
  type: "Convolution"
  bottom: "conv6_2"
  top: "conv6_2_mbox_conf2"
  param {
    name: "conv6_2_conf2_w"
    lr_mult: 1.0
    decay_mult: 1.0
  }
  param {
    name: "conv6_2_conf2_b"
    lr_mult: 2.0
    decay_mult: 0.0
  }
  convolution_param {
    num_output: 12
    pad: 1
    kernel_size: 3
    stride: 1
    weight_filler {
      type: "xavier"
    }
    bias_filler {
      type: "constant"
      value: 0.0
    }
  }
}
layer {
  name: "conv6_2_mbox_conf2_perm"
  type: "Permute"
  bottom: "conv6_2_mbox_conf2"
  top: "conv6_2_mbox_conf2_perm"
  permute_param {
    order: 0
    order: 2
    order: 3
    order: 1
  }
}
layer {
  name: "conv6_2_mbox_conf2_flat"
  type: "Flatten"
  bottom: "conv6_2_mbox_conf2_perm"
  top: "conv6_2_mbox_conf2_flat"
  flatten_param {
    axis: 1
  }
}
layer {
  name: "conv6_2_mbox_priorbox2"
  type: "PriorBox"
  bottom: "conv6_2"
  bottom: "data"
  top: "conv6_2_mbox_priorbox2"
  prior_box_param {
    min_size: 380.1600036621094
    max_size: 424.32000732421875
    aspect_ratio: 2.0
    aspect_ratio: 3.0
    flip: true
    clip: true
    variance: 0.10000000149011612
    variance: 0.10000000149011612
    variance: 0.20000000298023224
    variance: 0.20000000298023224
  }
}
layer {
  name: "conv6_2_mbox_loc3"
  type: "Convolution"
  bottom: "conv6_2"
  top: "conv6_2_mbox_loc3"
  param {
    name: "conv6_2_loc3_w"
    lr_mult: 1.0
    decay_mult: 1.0
  }
  param {
    name: "conv6_2_loc3_b"
    lr_mult: 2.0
    decay_mult: 0.0
  }
  convolution_param {
    num_output: 24
    pad: 1
    kernel_size: 3
    stride: 1
    weight_filler {
      type: "xavier"
    }
    bias_filler {
      type: "constant"
      value: 0.0
    }
  }
}
layer {
  name: "conv6_2_mbox_loc3_perm"
  type: "Permute"
  bottom: "conv6_2_mbox_loc3"
  top: "conv6_2_mbox_loc3_perm"
  permute_param {
    order: 0
    order: 2
    order: 3
    order: 1
  }
}
layer {
  name: "conv6_2_mbox_loc3_flat"
  type: "Flatten"
  bottom: "conv6_2_mbox_loc3_perm"
  top: "conv6_2_mbox_loc3_flat"
  flatten_param {
    axis: 1
  }
}
layer {
  name: "conv6_2_mbox_conf3"
  type: "Convolution"
  bottom: "conv6_2"
  top: "conv6_2_mbox_conf3"
  param {
    name: "conv6_2_conf3_w"
    lr_mult: 1.0
    decay_mult: 1.0
  }
  param {
    name: "conv6_2_conf3_b"
    lr_mult: 2.0
    decay_mult: 0.0
  }
  convolution_param {
    num_output: 12
    pad: 1
    kernel_size: 3
    stride: 1
    weight_filler {
      type: "xavier"
    }
    bias_filler {
      type: "constant"
      value: 0.0
    }
  }
}
layer {
  name: "conv6_2_mbox_conf3_perm"
  type: "Permute"
  bottom: "conv6_2_mbox_conf3"
  top: "conv6_2_mbox_conf3_perm"
  permute_param {
    order: 0
    order: 2
    order: 3
    order: 1
  }
}
layer {
  name: "conv6_2_mbox_conf3_flat"
  type: "Flatten"
  bottom: "conv6_2_mbox_conf3_perm"
  top: "conv6_2_mbox_conf3_flat"
  flatten_param {
    axis: 1
  }
}
layer {
  name: "conv6_2_mbox_priorbox3"
  type: "PriorBox"
  bottom: "conv6_2"
  bottom: "data"
  top: "conv6_2_mbox_priorbox3"
  prior_box_param {
    min_size: 424.32000732421875
    max_size: 468.4800109863281
    aspect_ratio: 2.0
    aspect_ratio: 3.0
    flip: true
    clip: true
    variance: 0.10000000149011612
    variance: 0.10000000149011612
    variance: 0.20000000298023224
    variance: 0.20000000298023224
  }
}
layer {
  name: "conv7_2_mbox_loc0"
  type: "Convolution"
  bottom: "conv7_2"
  top: "conv7_2_mbox_loc0"
  param {
    name: "conv7_2_loc0_w"
    lr_mult: 1.0
    decay_mult: 1.0
  }
  param {
    name: "conv7_2_loc0_b"
    lr_mult: 2.0
    decay_mult: 0.0
  }
  convolution_param {
    num_output: 24
    pad: 1
    kernel_size: 3
    stride: 1
    weight_filler {
      type: "xavier"
    }
    bias_filler {
      type: "constant"
      value: 0.0
    }
  }
}
layer {
  name: "conv7_2_mbox_loc0_perm"
  type: "Permute"
  bottom: "conv7_2_mbox_loc0"
  top: "conv7_2_mbox_loc0_perm"
  permute_param {
    order: 0
    order: 2
    order: 3
    order: 1
  }
}
layer {
  name: "conv7_2_mbox_loc0_flat"
  type: "Flatten"
  bottom: "conv7_2_mbox_loc0_perm"
  top: "conv7_2_mbox_loc0_flat"
  flatten_param {
    axis: 1
  }
}
layer {
  name: "conv7_2_mbox_conf0"
  type: "Convolution"
  bottom: "conv7_2"
  top: "conv7_2_mbox_conf0"
  param {
    name: "conv7_2_conf0_w"
    lr_mult: 1.0
    decay_mult: 1.0
  }
  param {
    name: "conv7_2_conf0_b"
    lr_mult: 2.0
    decay_mult: 0.0
  }
  convolution_param {
    num_output: 12
    pad: 1
    kernel_size: 3
    stride: 1
    weight_filler {
      type: "xavier"
    }
    bias_filler {
      type: "constant"
      value: 0.0
    }
  }
}
layer {
  name: "conv7_2_mbox_conf0_perm"
  type: "Permute"
  bottom: "conv7_2_mbox_conf0"
  top: "conv7_2_mbox_conf0_perm"
  permute_param {
    order: 0
    order: 2
    order: 3
    order: 1
  }
}
layer {
  name: "conv7_2_mbox_conf0_flat"
  type: "Flatten"
  bottom: "conv7_2_mbox_conf0_perm"
  top: "conv7_2_mbox_conf0_flat"
  flatten_param {
    axis: 1
  }
}
layer {
  name: "conv7_2_mbox_priorbox0"
  type: "PriorBox"
  bottom: "conv7_2"
  bottom: "data"
  top: "conv7_2_mbox_priorbox0"
  prior_box_param {
    min_size: 468.4800109863281
    max_size: 512.6400146484375
    aspect_ratio: 2.0
    aspect_ratio: 3.0
    flip: true
    clip: true
    variance: 0.10000000149011612
    variance: 0.10000000149011612
    variance: 0.20000000298023224
    variance: 0.20000000298023224
  }
}
layer {
  name: "conv7_2_mbox_loc1"
  type: "Convolution"
  bottom: "conv7_2"
  top: "conv7_2_mbox_loc1"
  param {
    name: "conv7_2_loc1_w"
    lr_mult: 1.0
    decay_mult: 1.0
  }
  param {
    name: "conv7_2_loc1_b"
    lr_mult: 2.0
    decay_mult: 0.0
  }
  convolution_param {
    num_output: 24
    pad: 1
    kernel_size: 3
    stride: 1
    weight_filler {
      type: "xavier"
    }
    bias_filler {
      type: "constant"
      value: 0.0
    }
  }
}
layer {
  name: "conv7_2_mbox_loc1_perm"
  type: "Permute"
  bottom: "conv7_2_mbox_loc1"
  top: "conv7_2_mbox_loc1_perm"
  permute_param {
    order: 0
    order: 2
    order: 3
    order: 1
  }
}
layer {
  name: "conv7_2_mbox_loc1_flat"
  type: "Flatten"
  bottom: "conv7_2_mbox_loc1_perm"
  top: "conv7_2_mbox_loc1_flat"
  flatten_param {
    axis: 1
  }
}
layer {
  name: "conv7_2_mbox_conf1"
  type: "Convolution"
  bottom: "conv7_2"
  top: "conv7_2_mbox_conf1"
  param {
    name: "conv7_2_conf1_w"
    lr_mult: 1.0
    decay_mult: 1.0
  }
  param {
    name: "conv7_2_conf1_b"
    lr_mult: 2.0
    decay_mult: 0.0
  }
  convolution_param {
    num_output: 12
    pad: 1
    kernel_size: 3
    stride: 1
    weight_filler {
      type: "xavier"
    }
    bias_filler {
      type: "constant"
      value: 0.0
    }
  }
}
layer {
  name: "conv7_2_mbox_conf1_perm"
  type: "Permute"
  bottom: "conv7_2_mbox_conf1"
  top: "conv7_2_mbox_conf1_perm"
  permute_param {
    order: 0
    order: 2
    order: 3
    order: 1
  }
}
layer {
  name: "conv7_2_mbox_conf1_flat"
  type: "Flatten"
  bottom: "conv7_2_mbox_conf1_perm"
  top: "conv7_2_mbox_conf1_flat"
  flatten_param {
    axis: 1
  }
}
layer {
  name: "conv7_2_mbox_priorbox1"
  type: "PriorBox"
  bottom: "conv7_2"
  bottom: "data"
  top: "conv7_2_mbox_priorbox1"
  prior_box_param {
    min_size: 512.6400146484375
    max_size: 556.7999877929688
    aspect_ratio: 2.0
    aspect_ratio: 3.0
    flip: true
    clip: true
    variance: 0.10000000149011612
    variance: 0.10000000149011612
    variance: 0.20000000298023224
    variance: 0.20000000298023224
  }
}
layer {
  name: "conv7_2_mbox_loc2"
  type: "Convolution"
  bottom: "conv7_2"
  top: "conv7_2_mbox_loc2"
  param {
    name: "conv7_2_loc2_w"
    lr_mult: 1.0
    decay_mult: 1.0
  }
  param {
    name: "conv7_2_loc2_b"
    lr_mult: 2.0
    decay_mult: 0.0
  }
  convolution_param {
    num_output: 24
    pad: 1
    kernel_size: 3
    stride: 1
    weight_filler {
      type: "xavier"
    }
    bias_filler {
      type: "constant"
      value: 0.0
    }
  }
}
layer {
  name: "conv7_2_mbox_loc2_perm"
  type: "Permute"
  bottom: "conv7_2_mbox_loc2"
  top: "conv7_2_mbox_loc2_perm"
  permute_param {
    order: 0
    order: 2
    order: 3
    order: 1
  }
}
layer {
  name: "conv7_2_mbox_loc2_flat"
  type: "Flatten"
  bottom: "conv7_2_mbox_loc2_perm"
  top: "conv7_2_mbox_loc2_flat"
  flatten_param {
    axis: 1
  }
}
layer {
  name: "conv7_2_mbox_conf2"
  type: "Convolution"
  bottom: "conv7_2"
  top: "conv7_2_mbox_conf2"
  param {
    name: "conv7_2_conf2_w"
    lr_mult: 1.0
    decay_mult: 1.0
  }
  param {
    name: "conv7_2_conf2_b"
    lr_mult: 2.0
    decay_mult: 0.0
  }
  convolution_param {
    num_output: 12
    pad: 1
    kernel_size: 3
    stride: 1
    weight_filler {
      type: "xavier"
    }
    bias_filler {
      type: "constant"
      value: 0.0
    }
  }
}
layer {
  name: "conv7_2_mbox_conf2_perm"
  type: "Permute"
  bottom: "conv7_2_mbox_conf2"
  top: "conv7_2_mbox_conf2_perm"
  permute_param {
    order: 0
    order: 2
    order: 3
    order: 1
  }
}
layer {
  name: "conv7_2_mbox_conf2_flat"
  type: "Flatten"
  bottom: "conv7_2_mbox_conf2_perm"
  top: "conv7_2_mbox_conf2_flat"
  flatten_param {
    axis: 1
  }
}
layer {
  name: "conv7_2_mbox_priorbox2"
  type: "PriorBox"
  bottom: "conv7_2"
  bottom: "data"
  top: "conv7_2_mbox_priorbox2"
  prior_box_param {
    min_size: 556.7999877929688
    max_size: 600.9600219726562
    aspect_ratio: 2.0
    aspect_ratio: 3.0
    flip: true
    clip: true
    variance: 0.10000000149011612
    variance: 0.10000000149011612
    variance: 0.20000000298023224
    variance: 0.20000000298023224
  }
}
layer {
  name: "conv7_2_mbox_loc3"
  type: "Convolution"
  bottom: "conv7_2"
  top: "conv7_2_mbox_loc3"
  param {
    name: "conv7_2_loc3_w"
    lr_mult: 1.0
    decay_mult: 1.0
  }
  param {
    name: "conv7_2_loc3_b"
    lr_mult: 2.0
    decay_mult: 0.0
  }
  convolution_param {
    num_output: 24
    pad: 1
    kernel_size: 3
    stride: 1
    weight_filler {
      type: "xavier"
    }
    bias_filler {
      type: "constant"
      value: 0.0
    }
  }
}
layer {
  name: "conv7_2_mbox_loc3_perm"
  type: "Permute"
  bottom: "conv7_2_mbox_loc3"
  top: "conv7_2_mbox_loc3_perm"
  permute_param {
    order: 0
    order: 2
    order: 3
    order: 1
  }
}
layer {
  name: "conv7_2_mbox_loc3_flat"
  type: "Flatten"
  bottom: "conv7_2_mbox_loc3_perm"
  top: "conv7_2_mbox_loc3_flat"
  flatten_param {
    axis: 1
  }
}
layer {
  name: "conv7_2_mbox_conf3"
  type: "Convolution"
  bottom: "conv7_2"
  top: "conv7_2_mbox_conf3"
  param {
    name: "conv7_2_conf3_w"
    lr_mult: 1.0
    decay_mult: 1.0
  }
  param {
    name: "conv7_2_conf3_b"
    lr_mult: 2.0
    decay_mult: 0.0
  }
  convolution_param {
    num_output: 12
    pad: 1
    kernel_size: 3
    stride: 1
    weight_filler {
      type: "xavier"
    }
    bias_filler {
      type: "constant"
      value: 0.0
    }
  }
}
layer {
  name: "conv7_2_mbox_conf3_perm"
  type: "Permute"
  bottom: "conv7_2_mbox_conf3"
  top: "conv7_2_mbox_conf3_perm"
  permute_param {
    order: 0
    order: 2
    order: 3
    order: 1
  }
}
layer {
  name: "conv7_2_mbox_conf3_flat"
  type: "Flatten"
  bottom: "conv7_2_mbox_conf3_perm"
  top: "conv7_2_mbox_conf3_flat"
  flatten_param {
    axis: 1
  }
}
layer {
  name: "conv7_2_mbox_priorbox3"
  type: "PriorBox"
  bottom: "conv7_2"
  bottom: "data"
  top: "conv7_2_mbox_priorbox3"
  prior_box_param {
    min_size: 600.9600219726562
    max_size: 645.1199951171875
    aspect_ratio: 2.0
    aspect_ratio: 3.0
    flip: true
    clip: true
    variance: 0.10000000149011612
    variance: 0.10000000149011612
    variance: 0.20000000298023224
    variance: 0.20000000298023224
  }
}
layer {
  name: "conv8_2_mbox_loc0"
  type: "Convolution"
  bottom: "conv8_2"
  top: "conv8_2_mbox_loc0"
  param {
    name: "conv8_2_loc0_w"
    lr_mult: 1.0
    decay_mult: 1.0
  }
  param {
    name: "conv8_2_loc0_b"
    lr_mult: 2.0
    decay_mult: 0.0
  }
  convolution_param {
    num_output: 24
    pad: 1
    kernel_size: 3
    stride: 1
    weight_filler {
      type: "xavier"
    }
    bias_filler {
      type: "constant"
      value: 0.0
    }
  }
}
layer {
  name: "conv8_2_mbox_loc0_perm"
  type: "Permute"
  bottom: "conv8_2_mbox_loc0"
  top: "conv8_2_mbox_loc0_perm"
  permute_param {
    order: 0
    order: 2
    order: 3
    order: 1
  }
}
layer {
  name: "conv8_2_mbox_loc0_flat"
  type: "Flatten"
  bottom: "conv8_2_mbox_loc0_perm"
  top: "conv8_2_mbox_loc0_flat"
  flatten_param {
    axis: 1
  }
}
layer {
  name: "conv8_2_mbox_conf0"
  type: "Convolution"
  bottom: "conv8_2"
  top: "conv8_2_mbox_conf0"
  param {
    name: "conv8_2_conf0_w"
    lr_mult: 1.0
    decay_mult: 1.0
  }
  param {
    name: "conv8_2_conf0_b"
    lr_mult: 2.0
    decay_mult: 0.0
  }
  convolution_param {
    num_output: 12
    pad: 1
    kernel_size: 3
    stride: 1
    weight_filler {
      type: "xavier"
    }
    bias_filler {
      type: "constant"
      value: 0.0
    }
  }
}
layer {
  name: "conv8_2_mbox_conf0_perm"
  type: "Permute"
  bottom: "conv8_2_mbox_conf0"
  top: "conv8_2_mbox_conf0_perm"
  permute_param {
    order: 0
    order: 2
    order: 3
    order: 1
  }
}
layer {
  name: "conv8_2_mbox_conf0_flat"
  type: "Flatten"
  bottom: "conv8_2_mbox_conf0_perm"
  top: "conv8_2_mbox_conf0_flat"
  flatten_param {
    axis: 1
  }
}
layer {
  name: "conv8_2_mbox_priorbox0"
  type: "PriorBox"
  bottom: "conv8_2"
  bottom: "data"
  top: "conv8_2_mbox_priorbox0"
  prior_box_param {
    min_size: 645.1199951171875
    max_size: 821.760009765625
    aspect_ratio: 2.0
    aspect_ratio: 3.0
    flip: true
    clip: true
    variance: 0.10000000149011612
    variance: 0.10000000149011612
    variance: 0.20000000298023224
    variance: 0.20000000298023224
  }
}
layer {
  name: "mbox_loc"
  type: "Concat"
  bottom: "conv4_3r_norm_mbox_loc0_flat"
  bottom: "conv4_3r_norm_mbox_loc1_flat"
  bottom: "conv4_3r_norm_mbox_loc2_flat"
  bottom: "conv4_3r_norm_mbox_loc3_flat"
  bottom: "fc7r_mbox_loc0_flat"
  bottom: "fc7r_mbox_loc1_flat"
  bottom: "fc7r_mbox_loc2_flat"
  bottom: "fc7r_mbox_loc3_flat"
  bottom: "conv6_2_mbox_loc0_flat"
  bottom: "conv6_2_mbox_loc1_flat"
  bottom: "conv6_2_mbox_loc2_flat"
  bottom: "conv6_2_mbox_loc3_flat"
  bottom: "conv7_2_mbox_loc0_flat"
  bottom: "conv7_2_mbox_loc1_flat"
  bottom: "conv7_2_mbox_loc2_flat"
  bottom: "conv7_2_mbox_loc3_flat"
  bottom: "conv8_2_mbox_loc0_flat"
  top: "mbox_loc"
  concat_param {
    axis: 1
  }
}
layer {
  name: "mbox_conf"
  type: "Concat"
  bottom: "conv4_3r_norm_mbox_conf0_flat"
  bottom: "conv4_3r_norm_mbox_conf1_flat"
  bottom: "conv4_3r_norm_mbox_conf2_flat"
  bottom: "conv4_3r_norm_mbox_conf3_flat"
  bottom: "fc7r_mbox_conf0_flat"
  bottom: "fc7r_mbox_conf1_flat"
  bottom: "fc7r_mbox_conf2_flat"
  bottom: "fc7r_mbox_conf3_flat"
  bottom: "conv6_2_mbox_conf0_flat"
  bottom: "conv6_2_mbox_conf1_flat"
  bottom: "conv6_2_mbox_conf2_flat"
  bottom: "conv6_2_mbox_conf3_flat"
  bottom: "conv7_2_mbox_conf0_flat"
  bottom: "conv7_2_mbox_conf1_flat"
  bottom: "conv7_2_mbox_conf2_flat"
  bottom: "conv7_2_mbox_conf3_flat"
  bottom: "conv8_2_mbox_conf0_flat"
  top: "mbox_conf"
  concat_param {
    axis: 1
  }
}
layer {
  name: "mbox_priorbox"
  type: "Concat"
  bottom: "conv4_3r_norm_mbox_priorbox0"
  bottom: "conv4_3r_norm_mbox_priorbox1"
  bottom: "conv4_3r_norm_mbox_priorbox2"
  bottom: "conv4_3r_norm_mbox_priorbox3"
  bottom: "fc7r_mbox_priorbox0"
  bottom: "fc7r_mbox_priorbox1"
  bottom: "fc7r_mbox_priorbox2"
  bottom: "fc7r_mbox_priorbox3"
  bottom: "conv6_2_mbox_priorbox0"
  bottom: "conv6_2_mbox_priorbox1"
  bottom: "conv6_2_mbox_priorbox2"
  bottom: "conv6_2_mbox_priorbox3"
  bottom: "conv7_2_mbox_priorbox0"
  bottom: "conv7_2_mbox_priorbox1"
  bottom: "conv7_2_mbox_priorbox2"
  bottom: "conv7_2_mbox_priorbox3"
  bottom: "conv8_2_mbox_priorbox0"
  top: "mbox_priorbox"
  concat_param {
    axis: 2
  }
}
layer {
  name: "mbox_loss"
  type: "MultiBoxLoss"
  bottom: "mbox_loc"
  bottom: "mbox_conf"
  bottom: "mbox_priorbox"
  bottom: "label"
  top: "mbox_loss"
  include {
    phase: TRAIN
  }
  propagate_down: true
  propagate_down: true
  propagate_down: false
  propagate_down: false
  loss_param {
    normalization: VALID
  }
  multibox_loss_param {
    loc_loss_type: SMOOTH_L1
    conf_loss_type: SOFTMAX
    loc_weight: 2.0
    num_classes: 2
    share_location: true
    match_type: PER_PREDICTION
    overlap_threshold: 0.699999988079071
    use_prior_for_matching: true
    background_label_id: 0
    use_difficult_gt: true
    do_neg_mining: true
    neg_pos_ratio: 3.0
    neg_overlap: 0.5
    code_type: CENTER_SIZE
  }
}
layer {
  name: "fc7r_l1"
  type: "Convolution"
  bottom: "fc7r"
  top: "fc7r_l1"
  param {
    name: "fc7r_l_w"
    lr_mult: 1.0
    decay_mult: 1.0
  }
  param {
    name: "fc7r_l_b"
    lr_mult: 2.0
    decay_mult: 0.0
  }
  convolution_param {
    num_output: 19
    kernel_size: 1
    stride: 1
    weight_filler {
      type: "xavier"
    }
    bias_filler {
      type: "constant"
      value: 0.0
    }
  }
}
layer {
  name: "relu_fc7r_l1"
  type: "ReLU"
  bottom: "fc7r_l1"
  top: "fc7r_l1"
}
layer {
  name: "fc7r_l1_deconv"
  type: "Deconvolution"
  bottom: "fc7r_l1"
  top: "fc7r_l1_deconv"
  param {
    lr_mult: 0.0
    decay_mult: 0.0
  }
  convolution_param {
    num_output: 19
    bias_term: false
    pad: 1
    kernel_size: 4
    group: 19
    stride: 2
    weight_filler {
      type: "bilinear"
    }
  }
}
layer {
  name: "conv4_3r_concat_1"
  type: "Concat"
  bottom: "conv4_3r_norm"
  bottom: "fc7r_l1_deconv"
  top: "conv4_3r_concat_1"
  concat_param {
    axis: 1
  }
}
layer {
  name: "conv4_3r_2"
  type: "Convolution"
  bottom: "conv4_3r_concat_1"
  top: "conv4_3r_2"
  param {
    name: "conv4_3r_cw"
    lr_mult: 1.0
    decay_mult: 1.0
  }
  param {
    name: "conv4_3r_cb"
    lr_mult: 2.0
    decay_mult: 0.0
  }
  convolution_param {
    num_output: 256
    kernel_size: 1
    stride: 1
    weight_filler {
      type: "xavier"
    }
    bias_filler {
      type: "constant"
      value: 0.0
    }
  }
}
layer {
  name: "relu_conv4_3r_2"
  type: "ReLU"
  bottom: "conv4_3r_2"
  top: "conv4_3r_2"
}
layer {
  name: "conv4_3r_r1"
  type: "Convolution"
  bottom: "conv4_3r_norm"
  top: "conv4_3r_r1"
  param {
    name: "conv4_3r_r_w"
    lr_mult: 1.0
    decay_mult: 1.0
  }
  param {
    name: "conv4_3r_r_b"
    lr_mult: 2.0
    decay_mult: 0.0
  }
  convolution_param {
    num_output: 19
    kernel_size: 1
    stride: 1
    weight_filler {
      type: "xavier"
    }
    bias_filler {
      type: "constant"
      value: 0.0
    }
  }
}
layer {
  name: "relu_conv4_3r_r1"
  type: "ReLU"
  bottom: "conv4_3r_r1"
  top: "conv4_3r_r1"
}
layer {
  name: "pool_conv4_3r_r1"
  type: "Pooling"
  bottom: "conv4_3r_r1"
  top: "conv4_3r_r1"
  pooling_param {
    pool: MAX
    kernel_size: 2
    stride: 2
  }
}
layer {
  name: "conv6_2_l1"
  type: "Convolution"
  bottom: "conv6_2"
  top: "conv6_2_l1"
  param {
    name: "conv6_2_l_w"
    lr_mult: 1.0
    decay_mult: 1.0
  }
  param {
    name: "conv6_2_l_b"
    lr_mult: 2.0
    decay_mult: 0.0
  }
  convolution_param {
    num_output: 19
    kernel_size: 1
    stride: 1
    weight_filler {
      type: "xavier"
    }
    bias_filler {
      type: "constant"
      value: 0.0
    }
  }
}
layer {
  name: "relu_conv6_2_l1"
  type: "ReLU"
  bottom: "conv6_2_l1"
  top: "conv6_2_l1"
}
layer {
  name: "conv6_2_l1_deconv"
  type: "Deconvolution"
  bottom: "conv6_2_l1"
  top: "conv6_2_l1_deconv"
  param {
    lr_mult: 0.0
    decay_mult: 0.0
  }
  convolution_param {
    num_output: 19
    bias_term: false
    pad: 1
    kernel_size: 4
    group: 19
    stride: 2
    weight_filler {
      type: "bilinear"
    }
  }
}
layer {
  name: "fc7r_concat_1"
  type: "Concat"
  bottom: "conv4_3r_r1"
  bottom: "fc7r"
  bottom: "conv6_2_l1_deconv"
  top: "fc7r_concat_1"
  concat_param {
    axis: 1
  }
}
layer {
  name: "fc7r_2"
  type: "Convolution"
  bottom: "fc7r_concat_1"
  top: "fc7r_2"
  param {
    name: "fc7r_cw"
    lr_mult: 1.0
    decay_mult: 1.0
  }
  param {
    name: "fc7r_cb"
    lr_mult: 2.0
    decay_mult: 0.0
  }
  convolution_param {
    num_output: 256
    kernel_size: 1
    stride: 1
    weight_filler {
      type: "xavier"
    }
    bias_filler {
      type: "constant"
      value: 0.0
    }
  }
}
layer {
  name: "relu_fc7r_2"
  type: "ReLU"
  bottom: "fc7r_2"
  top: "fc7r_2"
}
layer {
  name: "fc7r_r1"
  type: "Convolution"
  bottom: "fc7r"
  top: "fc7r_r1"
  param {
    name: "fc7r_r_w"
    lr_mult: 1.0
    decay_mult: 1.0
  }
  param {
    name: "fc7r_r_b"
    lr_mult: 2.0
    decay_mult: 0.0
  }
  convolution_param {
    num_output: 19
    kernel_size: 1
    stride: 1
    weight_filler {
      type: "xavier"
    }
    bias_filler {
      type: "constant"
      value: 0.0
    }
  }
}
layer {
  name: "relu_fc7r_r1"
  type: "ReLU"
  bottom: "fc7r_r1"
  top: "fc7r_r1"
}
layer {
  name: "pool_fc7r_r1"
  type: "Pooling"
  bottom: "fc7r_r1"
  top: "fc7r_r1"
  pooling_param {
    pool: MAX
    kernel_size: 2
    stride: 2
  }
}
layer {
  name: "conv7_2_l1"
  type: "Convolution"
  bottom: "conv7_2"
  top: "conv7_2_l1"
  param {
    name: "conv7_2_l_w"
    lr_mult: 1.0
    decay_mult: 1.0
  }
  param {
    name: "conv7_2_l_b"
    lr_mult: 2.0
    decay_mult: 0.0
  }
  convolution_param {
    num_output: 19
    kernel_size: 1
    stride: 1
    weight_filler {
      type: "xavier"
    }
    bias_filler {
      type: "constant"
      value: 0.0
    }
  }
}
layer {
  name: "relu_conv7_2_l1"
  type: "ReLU"
  bottom: "conv7_2_l1"
  top: "conv7_2_l1"
}
layer {
  name: "conv7_2_l1_deconv"
  type: "Deconvolution"
  bottom: "conv7_2_l1"
  top: "conv7_2_l1_deconv"
  param {
    lr_mult: 0.0
    decay_mult: 0.0
  }
  convolution_param {
    num_output: 19
    bias_term: false
    pad: 1
    kernel_size: 4
    group: 19
    stride: 2
    weight_filler {
      type: "bilinear"
    }
  }
}
layer {
  name: "conv6_2_concat_1"
  type: "Concat"
  bottom: "fc7r_r1"
  bottom: "conv6_2"
  bottom: "conv7_2_l1_deconv"
  top: "conv6_2_concat_1"
  concat_param {
    axis: 1
  }
}
layer {
  name: "conv6_2_2"
  type: "Convolution"
  bottom: "conv6_2_concat_1"
  top: "conv6_2_2"
  param {
    name: "conv6_2_cw"
    lr_mult: 1.0
    decay_mult: 1.0
  }
  param {
    name: "conv6_2_cb"
    lr_mult: 2.0
    decay_mult: 0.0
  }
  convolution_param {
    num_output: 256
    kernel_size: 1
    stride: 1
    weight_filler {
      type: "xavier"
    }
    bias_filler {
      type: "constant"
      value: 0.0
    }
  }
}
layer {
  name: "relu_conv6_2_2"
  type: "ReLU"
  bottom: "conv6_2_2"
  top: "conv6_2_2"
}
layer {
  name: "conv6_2_r1"
  type: "Convolution"
  bottom: "conv6_2"
  top: "conv6_2_r1"
  param {
    name: "conv6_2_r_w"
    lr_mult: 1.0
    decay_mult: 1.0
  }
  param {
    name: "conv6_2_r_b"
    lr_mult: 2.0
    decay_mult: 0.0
  }
  convolution_param {
    num_output: 19
    kernel_size: 1
    stride: 1
    weight_filler {
      type: "xavier"
    }
    bias_filler {
      type: "constant"
      value: 0.0
    }
  }
}
layer {
  name: "relu_conv6_2_r1"
  type: "ReLU"
  bottom: "conv6_2_r1"
  top: "conv6_2_r1"
}
layer {
  name: "pool_conv6_2_r1"
  type: "Pooling"
  bottom: "conv6_2_r1"
  top: "conv6_2_r1"
  pooling_param {
    pool: MAX
    kernel_size: 2
    stride: 2
  }
}
layer {
  name: "conv8_2_l1"
  type: "Convolution"
  bottom: "conv8_2"
  top: "conv8_2_l1"
  param {
    name: "conv8_2_l_w"
    lr_mult: 1.0
    decay_mult: 1.0
  }
  param {
    name: "conv8_2_l_b"
    lr_mult: 2.0
    decay_mult: 0.0
  }
  convolution_param {
    num_output: 19
    kernel_size: 1
    stride: 1
    weight_filler {
      type: "xavier"
    }
    bias_filler {
      type: "constant"
      value: 0.0
    }
  }
}
layer {
  name: "relu_conv8_2_l1"
  type: "ReLU"
  bottom: "conv8_2_l1"
  top: "conv8_2_l1"
}
layer {
  name: "conv8_2_l1_deconv"
  type: "Deconvolution"
  bottom: "conv8_2_l1"
  top: "conv8_2_l1_deconv"
  param {
    lr_mult: 0.0
    decay_mult: 0.0
  }
  convolution_param {
    num_output: 19
    bias_term: false
    pad: 1
    kernel_size: 4
    group: 19
    stride: 2
    weight_filler {
      type: "bilinear"
    }
  }
}
layer {
  name: "conv7_2_concat_1"
  type: "Concat"
  bottom: "conv6_2_r1"
  bottom: "conv7_2"
  bottom: "conv8_2_l1_deconv"
  top: "conv7_2_concat_1"
  concat_param {
    axis: 1
  }
}
layer {
  name: "conv7_2_2"
  type: "Convolution"
  bottom: "conv7_2_concat_1"
  top: "conv7_2_2"
  param {
    name: "conv7_2_cw"
    lr_mult: 1.0
    decay_mult: 1.0
  }
  param {
    name: "conv7_2_cb"
    lr_mult: 2.0
    decay_mult: 0.0
  }
  convolution_param {
    num_output: 256
    kernel_size: 1
    stride: 1
    weight_filler {
      type: "xavier"
    }
    bias_filler {
      type: "constant"
      value: 0.0
    }
  }
}
layer {
  name: "relu_conv7_2_2"
  type: "ReLU"
  bottom: "conv7_2_2"
  top: "conv7_2_2"
}
layer {
  name: "conv7_2_r1"
  type: "Convolution"
  bottom: "conv7_2"
  top: "conv7_2_r1"
  param {
    name: "conv7_2_r_w"
    lr_mult: 1.0
    decay_mult: 1.0
  }
  param {
    name: "conv7_2_r_b"
    lr_mult: 2.0
    decay_mult: 0.0
  }
  convolution_param {
    num_output: 19
    kernel_size: 1
    stride: 1
    weight_filler {
      type: "xavier"
    }
    bias_filler {
      type: "constant"
      value: 0.0
    }
  }
}
layer {
  name: "relu_conv7_2_r1"
  type: "ReLU"
  bottom: "conv7_2_r1"
  top: "conv7_2_r1"
}
layer {
  name: "pool_conv7_2_r1"
  type: "Pooling"
  bottom: "conv7_2_r1"
  top: "conv7_2_r1"
  pooling_param {
    pool: MAX
    kernel_size: 2
    stride: 2
  }
}
layer {
  name: "conv8_2_concat_1"
  type: "Concat"
  bottom: "conv7_2_r1"
  bottom: "conv8_2"
  top: "conv8_2_concat_1"
  concat_param {
    axis: 1
  }
}
layer {
  name: "conv8_2_2"
  type: "Convolution"
  bottom: "conv8_2_concat_1"
  top: "conv8_2_2"
  param {
    name: "conv8_2_cw"
    lr_mult: 1.0
    decay_mult: 1.0
  }
  param {
    name: "conv8_2_cb"
    lr_mult: 2.0
    decay_mult: 0.0
  }
  convolution_param {
    num_output: 256
    kernel_size: 1
    stride: 1
    weight_filler {
      type: "xavier"
    }
    bias_filler {
      type: "constant"
      value: 0.0
    }
  }
}
layer {
  name: "relu_conv8_2_2"
  type: "ReLU"
  bottom: "conv8_2_2"
  top: "conv8_2_2"
}
layer {
  name: "conv4_3r_2_mbox_loc20"
  type: "Convolution"
  bottom: "conv4_3r_2"
  top: "conv4_3r_2_mbox_loc20"
  param {
    name: "conv4_3r_loc0_w"
    lr_mult: 1.0
    decay_mult: 1.0
  }
  param {
    name: "conv4_3r_loc0_b"
    lr_mult: 2.0
    decay_mult: 0.0
  }
  convolution_param {
    num_output: 12
    pad: 1
    kernel_size: 3
    stride: 1
    weight_filler {
      type: "xavier"
    }
    bias_filler {
      type: "constant"
      value: 0.0
    }
  }
}
layer {
  name: "conv4_3r_2_mbox_loc20_perm"
  type: "Permute"
  bottom: "conv4_3r_2_mbox_loc20"
  top: "conv4_3r_2_mbox_loc20_perm"
  permute_param {
    order: 0
    order: 2
    order: 3
    order: 1
  }
}
layer {
  name: "conv4_3r_2_mbox_loc20_flat"
  type: "Flatten"
  bottom: "conv4_3r_2_mbox_loc20_perm"
  top: "conv4_3r_2_mbox_loc20_flat"
  flatten_param {
    axis: 1
  }
}
layer {
  name: "conv4_3r_2_mbox_conf20"
  type: "Convolution"
  bottom: "conv4_3r_2"
  top: "conv4_3r_2_mbox_conf20"
  param {
    name: "conv4_3r_conf0_w"
    lr_mult: 1.0
    decay_mult: 1.0
  }
  param {
    name: "conv4_3r_conf0_b"
    lr_mult: 2.0
    decay_mult: 0.0
  }
  convolution_param {
    num_output: 6
    pad: 1
    kernel_size: 3
    stride: 1
    weight_filler {
      type: "xavier"
    }
    bias_filler {
      type: "constant"
      value: 0.0
    }
  }
}
layer {
  name: "conv4_3r_2_mbox_conf20_perm"
  type: "Permute"
  bottom: "conv4_3r_2_mbox_conf20"
  top: "conv4_3r_2_mbox_conf20_perm"
  permute_param {
    order: 0
    order: 2
    order: 3
    order: 1
  }
}
layer {
  name: "conv4_3r_2_mbox_conf20_flat"
  type: "Flatten"
  bottom: "conv4_3r_2_mbox_conf20_perm"
  top: "conv4_3r_2_mbox_conf20_flat"
  flatten_param {
    axis: 1
  }
}
layer {
  name: "conv4_3r_2_mbox_loc21"
  type: "Convolution"
  bottom: "conv4_3r_2"
  top: "conv4_3r_2_mbox_loc21"
  param {
    name: "conv4_3r_loc1_w"
    lr_mult: 1.0
    decay_mult: 1.0
  }
  param {
    name: "conv4_3r_loc1_b"
    lr_mult: 2.0
    decay_mult: 0.0
  }
  convolution_param {
    num_output: 12
    pad: 1
    kernel_size: 3
    stride: 1
    weight_filler {
      type: "xavier"
    }
    bias_filler {
      type: "constant"
      value: 0.0
    }
  }
}
layer {
  name: "conv4_3r_2_mbox_loc21_perm"
  type: "Permute"
  bottom: "conv4_3r_2_mbox_loc21"
  top: "conv4_3r_2_mbox_loc21_perm"
  permute_param {
    order: 0
    order: 2
    order: 3
    order: 1
  }
}
layer {
  name: "conv4_3r_2_mbox_loc21_flat"
  type: "Flatten"
  bottom: "conv4_3r_2_mbox_loc21_perm"
  top: "conv4_3r_2_mbox_loc21_flat"
  flatten_param {
    axis: 1
  }
}
layer {
  name: "conv4_3r_2_mbox_conf21"
  type: "Convolution"
  bottom: "conv4_3r_2"
  top: "conv4_3r_2_mbox_conf21"
  param {
    name: "conv4_3r_conf1_w"
    lr_mult: 1.0
    decay_mult: 1.0
  }
  param {
    name: "conv4_3r_conf1_b"
    lr_mult: 2.0
    decay_mult: 0.0
  }
  convolution_param {
    num_output: 6
    pad: 1
    kernel_size: 3
    stride: 1
    weight_filler {
      type: "xavier"
    }
    bias_filler {
      type: "constant"
      value: 0.0
    }
  }
}
layer {
  name: "conv4_3r_2_mbox_conf21_perm"
  type: "Permute"
  bottom: "conv4_3r_2_mbox_conf21"
  top: "conv4_3r_2_mbox_conf21_perm"
  permute_param {
    order: 0
    order: 2
    order: 3
    order: 1
  }
}
layer {
  name: "conv4_3r_2_mbox_conf21_flat"
  type: "Flatten"
  bottom: "conv4_3r_2_mbox_conf21_perm"
  top: "conv4_3r_2_mbox_conf21_flat"
  flatten_param {
    axis: 1
  }
}
layer {
  name: "conv4_3r_2_mbox_loc22"
  type: "Convolution"
  bottom: "conv4_3r_2"
  top: "conv4_3r_2_mbox_loc22"
  param {
    name: "conv4_3r_loc2_w"
    lr_mult: 1.0
    decay_mult: 1.0
  }
  param {
    name: "conv4_3r_loc2_b"
    lr_mult: 2.0
    decay_mult: 0.0
  }
  convolution_param {
    num_output: 12
    pad: 1
    kernel_size: 3
    stride: 1
    weight_filler {
      type: "xavier"
    }
    bias_filler {
      type: "constant"
      value: 0.0
    }
  }
}
layer {
  name: "conv4_3r_2_mbox_loc22_perm"
  type: "Permute"
  bottom: "conv4_3r_2_mbox_loc22"
  top: "conv4_3r_2_mbox_loc22_perm"
  permute_param {
    order: 0
    order: 2
    order: 3
    order: 1
  }
}
layer {
  name: "conv4_3r_2_mbox_loc22_flat"
  type: "Flatten"
  bottom: "conv4_3r_2_mbox_loc22_perm"
  top: "conv4_3r_2_mbox_loc22_flat"
  flatten_param {
    axis: 1
  }
}
layer {
  name: "conv4_3r_2_mbox_conf22"
  type: "Convolution"
  bottom: "conv4_3r_2"
  top: "conv4_3r_2_mbox_conf22"
  param {
    name: "conv4_3r_conf2_w"
    lr_mult: 1.0
    decay_mult: 1.0
  }
  param {
    name: "conv4_3r_conf2_b"
    lr_mult: 2.0
    decay_mult: 0.0
  }
  convolution_param {
    num_output: 6
    pad: 1
    kernel_size: 3
    stride: 1
    weight_filler {
      type: "xavier"
    }
    bias_filler {
      type: "constant"
      value: 0.0
    }
  }
}
layer {
  name: "conv4_3r_2_mbox_conf22_perm"
  type: "Permute"
  bottom: "conv4_3r_2_mbox_conf22"
  top: "conv4_3r_2_mbox_conf22_perm"
  permute_param {
    order: 0
    order: 2
    order: 3
    order: 1
  }
}
layer {
  name: "conv4_3r_2_mbox_conf22_flat"
  type: "Flatten"
  bottom: "conv4_3r_2_mbox_conf22_perm"
  top: "conv4_3r_2_mbox_conf22_flat"
  flatten_param {
    axis: 1
  }
}
layer {
  name: "conv4_3r_2_mbox_loc23"
  type: "Convolution"
  bottom: "conv4_3r_2"
  top: "conv4_3r_2_mbox_loc23"
  param {
    name: "conv4_3r_loc3_w"
    lr_mult: 1.0
    decay_mult: 1.0
  }
  param {
    name: "conv4_3r_loc3_b"
    lr_mult: 2.0
    decay_mult: 0.0
  }
  convolution_param {
    num_output: 12
    pad: 1
    kernel_size: 3
    stride: 1
    weight_filler {
      type: "xavier"
    }
    bias_filler {
      type: "constant"
      value: 0.0
    }
  }
}
layer {
  name: "conv4_3r_2_mbox_loc23_perm"
  type: "Permute"
  bottom: "conv4_3r_2_mbox_loc23"
  top: "conv4_3r_2_mbox_loc23_perm"
  permute_param {
    order: 0
    order: 2
    order: 3
    order: 1
  }
}
layer {
  name: "conv4_3r_2_mbox_loc23_flat"
  type: "Flatten"
  bottom: "conv4_3r_2_mbox_loc23_perm"
  top: "conv4_3r_2_mbox_loc23_flat"
  flatten_param {
    axis: 1
  }
}
layer {
  name: "conv4_3r_2_mbox_conf23"
  type: "Convolution"
  bottom: "conv4_3r_2"
  top: "conv4_3r_2_mbox_conf23"
  param {
    name: "conv4_3r_conf3_w"
    lr_mult: 1.0
    decay_mult: 1.0
  }
  param {
    name: "conv4_3r_conf3_b"
    lr_mult: 2.0
    decay_mult: 0.0
  }
  convolution_param {
    num_output: 6
    pad: 1
    kernel_size: 3
    stride: 1
    weight_filler {
      type: "xavier"
    }
    bias_filler {
      type: "constant"
      value: 0.0
    }
  }
}
layer {
  name: "conv4_3r_2_mbox_conf23_perm"
  type: "Permute"
  bottom: "conv4_3r_2_mbox_conf23"
  top: "conv4_3r_2_mbox_conf23_perm"
  permute_param {
    order: 0
    order: 2
    order: 3
    order: 1
  }
}
layer {
  name: "conv4_3r_2_mbox_conf23_flat"
  type: "Flatten"
  bottom: "conv4_3r_2_mbox_conf23_perm"
  top: "conv4_3r_2_mbox_conf23_flat"
  flatten_param {
    axis: 1
  }
}
layer {
  name: "fc7r_2_mbox_loc20"
  type: "Convolution"
  bottom: "fc7r_2"
  top: "fc7r_2_mbox_loc20"
  param {
    name: "fc7r_loc0_w"
    lr_mult: 1.0
    decay_mult: 1.0
  }
  param {
    name: "fc7r_loc0_b"
    lr_mult: 2.0
    decay_mult: 0.0
  }
  convolution_param {
    num_output: 24
    pad: 1
    kernel_size: 3
    stride: 1
    weight_filler {
      type: "xavier"
    }
    bias_filler {
      type: "constant"
      value: 0.0
    }
  }
}
layer {
  name: "fc7r_2_mbox_loc20_perm"
  type: "Permute"
  bottom: "fc7r_2_mbox_loc20"
  top: "fc7r_2_mbox_loc20_perm"
  permute_param {
    order: 0
    order: 2
    order: 3
    order: 1
  }
}
layer {
  name: "fc7r_2_mbox_loc20_flat"
  type: "Flatten"
  bottom: "fc7r_2_mbox_loc20_perm"
  top: "fc7r_2_mbox_loc20_flat"
  flatten_param {
    axis: 1
  }
}
layer {
  name: "fc7r_2_mbox_conf20"
  type: "Convolution"
  bottom: "fc7r_2"
  top: "fc7r_2_mbox_conf20"
  param {
    name: "fc7r_conf0_w"
    lr_mult: 1.0
    decay_mult: 1.0
  }
  param {
    name: "fc7r_conf0_b"
    lr_mult: 2.0
    decay_mult: 0.0
  }
  convolution_param {
    num_output: 12
    pad: 1
    kernel_size: 3
    stride: 1
    weight_filler {
      type: "xavier"
    }
    bias_filler {
      type: "constant"
      value: 0.0
    }
  }
}
layer {
  name: "fc7r_2_mbox_conf20_perm"
  type: "Permute"
  bottom: "fc7r_2_mbox_conf20"
  top: "fc7r_2_mbox_conf20_perm"
  permute_param {
    order: 0
    order: 2
    order: 3
    order: 1
  }
}
layer {
  name: "fc7r_2_mbox_conf20_flat"
  type: "Flatten"
  bottom: "fc7r_2_mbox_conf20_perm"
  top: "fc7r_2_mbox_conf20_flat"
  flatten_param {
    axis: 1
  }
}
layer {
  name: "fc7r_2_mbox_loc21"
  type: "Convolution"
  bottom: "fc7r_2"
  top: "fc7r_2_mbox_loc21"
  param {
    name: "fc7r_loc1_w"
    lr_mult: 1.0
    decay_mult: 1.0
  }
  param {
    name: "fc7r_loc1_b"
    lr_mult: 2.0
    decay_mult: 0.0
  }
  convolution_param {
    num_output: 24
    pad: 1
    kernel_size: 3
    stride: 1
    weight_filler {
      type: "xavier"
    }
    bias_filler {
      type: "constant"
      value: 0.0
    }
  }
}
layer {
  name: "fc7r_2_mbox_loc21_perm"
  type: "Permute"
  bottom: "fc7r_2_mbox_loc21"
  top: "fc7r_2_mbox_loc21_perm"
  permute_param {
    order: 0
    order: 2
    order: 3
    order: 1
  }
}
layer {
  name: "fc7r_2_mbox_loc21_flat"
  type: "Flatten"
  bottom: "fc7r_2_mbox_loc21_perm"
  top: "fc7r_2_mbox_loc21_flat"
  flatten_param {
    axis: 1
  }
}
layer {
  name: "fc7r_2_mbox_conf21"
  type: "Convolution"
  bottom: "fc7r_2"
  top: "fc7r_2_mbox_conf21"
  param {
    name: "fc7r_conf1_w"
    lr_mult: 1.0
    decay_mult: 1.0
  }
  param {
    name: "fc7r_conf1_b"
    lr_mult: 2.0
    decay_mult: 0.0
  }
  convolution_param {
    num_output: 12
    pad: 1
    kernel_size: 3
    stride: 1
    weight_filler {
      type: "xavier"
    }
    bias_filler {
      type: "constant"
      value: 0.0
    }
  }
}
layer {
  name: "fc7r_2_mbox_conf21_perm"
  type: "Permute"
  bottom: "fc7r_2_mbox_conf21"
  top: "fc7r_2_mbox_conf21_perm"
  permute_param {
    order: 0
    order: 2
    order: 3
    order: 1
  }
}
layer {
  name: "fc7r_2_mbox_conf21_flat"
  type: "Flatten"
  bottom: "fc7r_2_mbox_conf21_perm"
  top: "fc7r_2_mbox_conf21_flat"
  flatten_param {
    axis: 1
  }
}
layer {
  name: "fc7r_2_mbox_loc22"
  type: "Convolution"
  bottom: "fc7r_2"
  top: "fc7r_2_mbox_loc22"
  param {
    name: "fc7r_loc2_w"
    lr_mult: 1.0
    decay_mult: 1.0
  }
  param {
    name: "fc7r_loc2_b"
    lr_mult: 2.0
    decay_mult: 0.0
  }
  convolution_param {
    num_output: 24
    pad: 1
    kernel_size: 3
    stride: 1
    weight_filler {
      type: "xavier"
    }
    bias_filler {
      type: "constant"
      value: 0.0
    }
  }
}
layer {
  name: "fc7r_2_mbox_loc22_perm"
  type: "Permute"
  bottom: "fc7r_2_mbox_loc22"
  top: "fc7r_2_mbox_loc22_perm"
  permute_param {
    order: 0
    order: 2
    order: 3
    order: 1
  }
}
layer {
  name: "fc7r_2_mbox_loc22_flat"
  type: "Flatten"
  bottom: "fc7r_2_mbox_loc22_perm"
  top: "fc7r_2_mbox_loc22_flat"
  flatten_param {
    axis: 1
  }
}
layer {
  name: "fc7r_2_mbox_conf22"
  type: "Convolution"
  bottom: "fc7r_2"
  top: "fc7r_2_mbox_conf22"
  param {
    name: "fc7r_conf2_w"
    lr_mult: 1.0
    decay_mult: 1.0
  }
  param {
    name: "fc7r_conf2_b"
    lr_mult: 2.0
    decay_mult: 0.0
  }
  convolution_param {
    num_output: 12
    pad: 1
    kernel_size: 3
    stride: 1
    weight_filler {
      type: "xavier"
    }
    bias_filler {
      type: "constant"
      value: 0.0
    }
  }
}
layer {
  name: "fc7r_2_mbox_conf22_perm"
  type: "Permute"
  bottom: "fc7r_2_mbox_conf22"
  top: "fc7r_2_mbox_conf22_perm"
  permute_param {
    order: 0
    order: 2
    order: 3
    order: 1
  }
}
layer {
  name: "fc7r_2_mbox_conf22_flat"
  type: "Flatten"
  bottom: "fc7r_2_mbox_conf22_perm"
  top: "fc7r_2_mbox_conf22_flat"
  flatten_param {
    axis: 1
  }
}
layer {
  name: "fc7r_2_mbox_loc23"
  type: "Convolution"
  bottom: "fc7r_2"
  top: "fc7r_2_mbox_loc23"
  param {
    name: "fc7r_loc3_w"
    lr_mult: 1.0
    decay_mult: 1.0
  }
  param {
    name: "fc7r_loc3_b"
    lr_mult: 2.0
    decay_mult: 0.0
  }
  convolution_param {
    num_output: 24
    pad: 1
    kernel_size: 3
    stride: 1
    weight_filler {
      type: "xavier"
    }
    bias_filler {
      type: "constant"
      value: 0.0
    }
  }
}
layer {
  name: "fc7r_2_mbox_loc23_perm"
  type: "Permute"
  bottom: "fc7r_2_mbox_loc23"
  top: "fc7r_2_mbox_loc23_perm"
  permute_param {
    order: 0
    order: 2
    order: 3
    order: 1
  }
}
layer {
  name: "fc7r_2_mbox_loc23_flat"
  type: "Flatten"
  bottom: "fc7r_2_mbox_loc23_perm"
  top: "fc7r_2_mbox_loc23_flat"
  flatten_param {
    axis: 1
  }
}
layer {
  name: "fc7r_2_mbox_conf23"
  type: "Convolution"
  bottom: "fc7r_2"
  top: "fc7r_2_mbox_conf23"
  param {
    name: "fc7r_conf3_w"
    lr_mult: 1.0
    decay_mult: 1.0
  }
  param {
    name: "fc7r_conf3_b"
    lr_mult: 2.0
    decay_mult: 0.0
  }
  convolution_param {
    num_output: 12
    pad: 1
    kernel_size: 3
    stride: 1
    weight_filler {
      type: "xavier"
    }
    bias_filler {
      type: "constant"
      value: 0.0
    }
  }
}
layer {
  name: "fc7r_2_mbox_conf23_perm"
  type: "Permute"
  bottom: "fc7r_2_mbox_conf23"
  top: "fc7r_2_mbox_conf23_perm"
  permute_param {
    order: 0
    order: 2
    order: 3
    order: 1
  }
}
layer {
  name: "fc7r_2_mbox_conf23_flat"
  type: "Flatten"
  bottom: "fc7r_2_mbox_conf23_perm"
  top: "fc7r_2_mbox_conf23_flat"
  flatten_param {
    axis: 1
  }
}
layer {
  name: "conv6_2_2_mbox_loc20"
  type: "Convolution"
  bottom: "conv6_2_2"
  top: "conv6_2_2_mbox_loc20"
  param {
    name: "conv6_2_loc0_w"
    lr_mult: 1.0
    decay_mult: 1.0
  }
  param {
    name: "conv6_2_loc0_b"
    lr_mult: 2.0
    decay_mult: 0.0
  }
  convolution_param {
    num_output: 24
    pad: 1
    kernel_size: 3
    stride: 1
    weight_filler {
      type: "xavier"
    }
    bias_filler {
      type: "constant"
      value: 0.0
    }
  }
}
layer {
  name: "conv6_2_2_mbox_loc20_perm"
  type: "Permute"
  bottom: "conv6_2_2_mbox_loc20"
  top: "conv6_2_2_mbox_loc20_perm"
  permute_param {
    order: 0
    order: 2
    order: 3
    order: 1
  }
}
layer {
  name: "conv6_2_2_mbox_loc20_flat"
  type: "Flatten"
  bottom: "conv6_2_2_mbox_loc20_perm"
  top: "conv6_2_2_mbox_loc20_flat"
  flatten_param {
    axis: 1
  }
}
layer {
  name: "conv6_2_2_mbox_conf20"
  type: "Convolution"
  bottom: "conv6_2_2"
  top: "conv6_2_2_mbox_conf20"
  param {
    name: "conv6_2_conf0_w"
    lr_mult: 1.0
    decay_mult: 1.0
  }
  param {
    name: "conv6_2_conf0_b"
    lr_mult: 2.0
    decay_mult: 0.0
  }
  convolution_param {
    num_output: 12
    pad: 1
    kernel_size: 3
    stride: 1
    weight_filler {
      type: "xavier"
    }
    bias_filler {
      type: "constant"
      value: 0.0
    }
  }
}
layer {
  name: "conv6_2_2_mbox_conf20_perm"
  type: "Permute"
  bottom: "conv6_2_2_mbox_conf20"
  top: "conv6_2_2_mbox_conf20_perm"
  permute_param {
    order: 0
    order: 2
    order: 3
    order: 1
  }
}
layer {
  name: "conv6_2_2_mbox_conf20_flat"
  type: "Flatten"
  bottom: "conv6_2_2_mbox_conf20_perm"
  top: "conv6_2_2_mbox_conf20_flat"
  flatten_param {
    axis: 1
  }
}
layer {
  name: "conv6_2_2_mbox_loc21"
  type: "Convolution"
  bottom: "conv6_2_2"
  top: "conv6_2_2_mbox_loc21"
  param {
    name: "conv6_2_loc1_w"
    lr_mult: 1.0
    decay_mult: 1.0
  }
  param {
    name: "conv6_2_loc1_b"
    lr_mult: 2.0
    decay_mult: 0.0
  }
  convolution_param {
    num_output: 24
    pad: 1
    kernel_size: 3
    stride: 1
    weight_filler {
      type: "xavier"
    }
    bias_filler {
      type: "constant"
      value: 0.0
    }
  }
}
layer {
  name: "conv6_2_2_mbox_loc21_perm"
  type: "Permute"
  bottom: "conv6_2_2_mbox_loc21"
  top: "conv6_2_2_mbox_loc21_perm"
  permute_param {
    order: 0
    order: 2
    order: 3
    order: 1
  }
}
layer {
  name: "conv6_2_2_mbox_loc21_flat"
  type: "Flatten"
  bottom: "conv6_2_2_mbox_loc21_perm"
  top: "conv6_2_2_mbox_loc21_flat"
  flatten_param {
    axis: 1
  }
}
layer {
  name: "conv6_2_2_mbox_conf21"
  type: "Convolution"
  bottom: "conv6_2_2"
  top: "conv6_2_2_mbox_conf21"
  param {
    name: "conv6_2_conf1_w"
    lr_mult: 1.0
    decay_mult: 1.0
  }
  param {
    name: "conv6_2_conf1_b"
    lr_mult: 2.0
    decay_mult: 0.0
  }
  convolution_param {
    num_output: 12
    pad: 1
    kernel_size: 3
    stride: 1
    weight_filler {
      type: "xavier"
    }
    bias_filler {
      type: "constant"
      value: 0.0
    }
  }
}
layer {
  name: "conv6_2_2_mbox_conf21_perm"
  type: "Permute"
  bottom: "conv6_2_2_mbox_conf21"
  top: "conv6_2_2_mbox_conf21_perm"
  permute_param {
    order: 0
    order: 2
    order: 3
    order: 1
  }
}
layer {
  name: "conv6_2_2_mbox_conf21_flat"
  type: "Flatten"
  bottom: "conv6_2_2_mbox_conf21_perm"
  top: "conv6_2_2_mbox_conf21_flat"
  flatten_param {
    axis: 1
  }
}
layer {
  name: "conv6_2_2_mbox_loc22"
  type: "Convolution"
  bottom: "conv6_2_2"
  top: "conv6_2_2_mbox_loc22"
  param {
    name: "conv6_2_loc2_w"
    lr_mult: 1.0
    decay_mult: 1.0
  }
  param {
    name: "conv6_2_loc2_b"
    lr_mult: 2.0
    decay_mult: 0.0
  }
  convolution_param {
    num_output: 24
    pad: 1
    kernel_size: 3
    stride: 1
    weight_filler {
      type: "xavier"
    }
    bias_filler {
      type: "constant"
      value: 0.0
    }
  }
}
layer {
  name: "conv6_2_2_mbox_loc22_perm"
  type: "Permute"
  bottom: "conv6_2_2_mbox_loc22"
  top: "conv6_2_2_mbox_loc22_perm"
  permute_param {
    order: 0
    order: 2
    order: 3
    order: 1
  }
}
layer {
  name: "conv6_2_2_mbox_loc22_flat"
  type: "Flatten"
  bottom: "conv6_2_2_mbox_loc22_perm"
  top: "conv6_2_2_mbox_loc22_flat"
  flatten_param {
    axis: 1
  }
}
layer {
  name: "conv6_2_2_mbox_conf22"
  type: "Convolution"
  bottom: "conv6_2_2"
  top: "conv6_2_2_mbox_conf22"
  param {
    name: "conv6_2_conf2_w"
    lr_mult: 1.0
    decay_mult: 1.0
  }
  param {
    name: "conv6_2_conf2_b"
    lr_mult: 2.0
    decay_mult: 0.0
  }
  convolution_param {
    num_output: 12
    pad: 1
    kernel_size: 3
    stride: 1
    weight_filler {
      type: "xavier"
    }
    bias_filler {
      type: "constant"
      value: 0.0
    }
  }
}
layer {
  name: "conv6_2_2_mbox_conf22_perm"
  type: "Permute"
  bottom: "conv6_2_2_mbox_conf22"
  top: "conv6_2_2_mbox_conf22_perm"
  permute_param {
    order: 0
    order: 2
    order: 3
    order: 1
  }
}
layer {
  name: "conv6_2_2_mbox_conf22_flat"
  type: "Flatten"
  bottom: "conv6_2_2_mbox_conf22_perm"
  top: "conv6_2_2_mbox_conf22_flat"
  flatten_param {
    axis: 1
  }
}
layer {
  name: "conv6_2_2_mbox_loc23"
  type: "Convolution"
  bottom: "conv6_2_2"
  top: "conv6_2_2_mbox_loc23"
  param {
    name: "conv6_2_loc3_w"
    lr_mult: 1.0
    decay_mult: 1.0
  }
  param {
    name: "conv6_2_loc3_b"
    lr_mult: 2.0
    decay_mult: 0.0
  }
  convolution_param {
    num_output: 24
    pad: 1
    kernel_size: 3
    stride: 1
    weight_filler {
      type: "xavier"
    }
    bias_filler {
      type: "constant"
      value: 0.0
    }
  }
}
layer {
  name: "conv6_2_2_mbox_loc23_perm"
  type: "Permute"
  bottom: "conv6_2_2_mbox_loc23"
  top: "conv6_2_2_mbox_loc23_perm"
  permute_param {
    order: 0
    order: 2
    order: 3
    order: 1
  }
}
layer {
  name: "conv6_2_2_mbox_loc23_flat"
  type: "Flatten"
  bottom: "conv6_2_2_mbox_loc23_perm"
  top: "conv6_2_2_mbox_loc23_flat"
  flatten_param {
    axis: 1
  }
}
layer {
  name: "conv6_2_2_mbox_conf23"
  type: "Convolution"
  bottom: "conv6_2_2"
  top: "conv6_2_2_mbox_conf23"
  param {
    name: "conv6_2_conf3_w"
    lr_mult: 1.0
    decay_mult: 1.0
  }
  param {
    name: "conv6_2_conf3_b"
    lr_mult: 2.0
    decay_mult: 0.0
  }
  convolution_param {
    num_output: 12
    pad: 1
    kernel_size: 3
    stride: 1
    weight_filler {
      type: "xavier"
    }
    bias_filler {
      type: "constant"
      value: 0.0
    }
  }
}
layer {
  name: "conv6_2_2_mbox_conf23_perm"
  type: "Permute"
  bottom: "conv6_2_2_mbox_conf23"
  top: "conv6_2_2_mbox_conf23_perm"
  permute_param {
    order: 0
    order: 2
    order: 3
    order: 1
  }
}
layer {
  name: "conv6_2_2_mbox_conf23_flat"
  type: "Flatten"
  bottom: "conv6_2_2_mbox_conf23_perm"
  top: "conv6_2_2_mbox_conf23_flat"
  flatten_param {
    axis: 1
  }
}
layer {
  name: "conv7_2_2_mbox_loc20"
  type: "Convolution"
  bottom: "conv7_2_2"
  top: "conv7_2_2_mbox_loc20"
  param {
    name: "conv7_2_loc0_w"
    lr_mult: 1.0
    decay_mult: 1.0
  }
  param {
    name: "conv7_2_loc0_b"
    lr_mult: 2.0
    decay_mult: 0.0
  }
  convolution_param {
    num_output: 24
    pad: 1
    kernel_size: 3
    stride: 1
    weight_filler {
      type: "xavier"
    }
    bias_filler {
      type: "constant"
      value: 0.0
    }
  }
}
layer {
  name: "conv7_2_2_mbox_loc20_perm"
  type: "Permute"
  bottom: "conv7_2_2_mbox_loc20"
  top: "conv7_2_2_mbox_loc20_perm"
  permute_param {
    order: 0
    order: 2
    order: 3
    order: 1
  }
}
layer {
  name: "conv7_2_2_mbox_loc20_flat"
  type: "Flatten"
  bottom: "conv7_2_2_mbox_loc20_perm"
  top: "conv7_2_2_mbox_loc20_flat"
  flatten_param {
    axis: 1
  }
}
layer {
  name: "conv7_2_2_mbox_conf20"
  type: "Convolution"
  bottom: "conv7_2_2"
  top: "conv7_2_2_mbox_conf20"
  param {
    name: "conv7_2_conf0_w"
    lr_mult: 1.0
    decay_mult: 1.0
  }
  param {
    name: "conv7_2_conf0_b"
    lr_mult: 2.0
    decay_mult: 0.0
  }
  convolution_param {
    num_output: 12
    pad: 1
    kernel_size: 3
    stride: 1
    weight_filler {
      type: "xavier"
    }
    bias_filler {
      type: "constant"
      value: 0.0
    }
  }
}
layer {
  name: "conv7_2_2_mbox_conf20_perm"
  type: "Permute"
  bottom: "conv7_2_2_mbox_conf20"
  top: "conv7_2_2_mbox_conf20_perm"
  permute_param {
    order: 0
    order: 2
    order: 3
    order: 1
  }
}
layer {
  name: "conv7_2_2_mbox_conf20_flat"
  type: "Flatten"
  bottom: "conv7_2_2_mbox_conf20_perm"
  top: "conv7_2_2_mbox_conf20_flat"
  flatten_param {
    axis: 1
  }
}
layer {
  name: "conv7_2_2_mbox_loc21"
  type: "Convolution"
  bottom: "conv7_2_2"
  top: "conv7_2_2_mbox_loc21"
  param {
    name: "conv7_2_loc1_w"
    lr_mult: 1.0
    decay_mult: 1.0
  }
  param {
    name: "conv7_2_loc1_b"
    lr_mult: 2.0
    decay_mult: 0.0
  }
  convolution_param {
    num_output: 24
    pad: 1
    kernel_size: 3
    stride: 1
    weight_filler {
      type: "xavier"
    }
    bias_filler {
      type: "constant"
      value: 0.0
    }
  }
}
layer {
  name: "conv7_2_2_mbox_loc21_perm"
  type: "Permute"
  bottom: "conv7_2_2_mbox_loc21"
  top: "conv7_2_2_mbox_loc21_perm"
  permute_param {
    order: 0
    order: 2
    order: 3
    order: 1
  }
}
layer {
  name: "conv7_2_2_mbox_loc21_flat"
  type: "Flatten"
  bottom: "conv7_2_2_mbox_loc21_perm"
  top: "conv7_2_2_mbox_loc21_flat"
  flatten_param {
    axis: 1
  }
}
layer {
  name: "conv7_2_2_mbox_conf21"
  type: "Convolution"
  bottom: "conv7_2_2"
  top: "conv7_2_2_mbox_conf21"
  param {
    name: "conv7_2_conf1_w"
    lr_mult: 1.0
    decay_mult: 1.0
  }
  param {
    name: "conv7_2_conf1_b"
    lr_mult: 2.0
    decay_mult: 0.0
  }
  convolution_param {
    num_output: 12
    pad: 1
    kernel_size: 3
    stride: 1
    weight_filler {
      type: "xavier"
    }
    bias_filler {
      type: "constant"
      value: 0.0
    }
  }
}
layer {
  name: "conv7_2_2_mbox_conf21_perm"
  type: "Permute"
  bottom: "conv7_2_2_mbox_conf21"
  top: "conv7_2_2_mbox_conf21_perm"
  permute_param {
    order: 0
    order: 2
    order: 3
    order: 1
  }
}
layer {
  name: "conv7_2_2_mbox_conf21_flat"
  type: "Flatten"
  bottom: "conv7_2_2_mbox_conf21_perm"
  top: "conv7_2_2_mbox_conf21_flat"
  flatten_param {
    axis: 1
  }
}
layer {
  name: "conv7_2_2_mbox_loc22"
  type: "Convolution"
  bottom: "conv7_2_2"
  top: "conv7_2_2_mbox_loc22"
  param {
    name: "conv7_2_loc2_w"
    lr_mult: 1.0
    decay_mult: 1.0
  }
  param {
    name: "conv7_2_loc2_b"
    lr_mult: 2.0
    decay_mult: 0.0
  }
  convolution_param {
    num_output: 24
    pad: 1
    kernel_size: 3
    stride: 1
    weight_filler {
      type: "xavier"
    }
    bias_filler {
      type: "constant"
      value: 0.0
    }
  }
}
layer {
  name: "conv7_2_2_mbox_loc22_perm"
  type: "Permute"
  bottom: "conv7_2_2_mbox_loc22"
  top: "conv7_2_2_mbox_loc22_perm"
  permute_param {
    order: 0
    order: 2
    order: 3
    order: 1
  }
}
layer {
  name: "conv7_2_2_mbox_loc22_flat"
  type: "Flatten"
  bottom: "conv7_2_2_mbox_loc22_perm"
  top: "conv7_2_2_mbox_loc22_flat"
  flatten_param {
    axis: 1
  }
}
layer {
  name: "conv7_2_2_mbox_conf22"
  type: "Convolution"
  bottom: "conv7_2_2"
  top: "conv7_2_2_mbox_conf22"
  param {
    name: "conv7_2_conf2_w"
    lr_mult: 1.0
    decay_mult: 1.0
  }
  param {
    name: "conv7_2_conf2_b"
    lr_mult: 2.0
    decay_mult: 0.0
  }
  convolution_param {
    num_output: 12
    pad: 1
    kernel_size: 3
    stride: 1
    weight_filler {
      type: "xavier"
    }
    bias_filler {
      type: "constant"
      value: 0.0
    }
  }
}
layer {
  name: "conv7_2_2_mbox_conf22_perm"
  type: "Permute"
  bottom: "conv7_2_2_mbox_conf22"
  top: "conv7_2_2_mbox_conf22_perm"
  permute_param {
    order: 0
    order: 2
    order: 3
    order: 1
  }
}
layer {
  name: "conv7_2_2_mbox_conf22_flat"
  type: "Flatten"
  bottom: "conv7_2_2_mbox_conf22_perm"
  top: "conv7_2_2_mbox_conf22_flat"
  flatten_param {
    axis: 1
  }
}
layer {
  name: "conv7_2_2_mbox_loc23"
  type: "Convolution"
  bottom: "conv7_2_2"
  top: "conv7_2_2_mbox_loc23"
  param {
    name: "conv7_2_loc3_w"
    lr_mult: 1.0
    decay_mult: 1.0
  }
  param {
    name: "conv7_2_loc3_b"
    lr_mult: 2.0
    decay_mult: 0.0
  }
  convolution_param {
    num_output: 24
    pad: 1
    kernel_size: 3
    stride: 1
    weight_filler {
      type: "xavier"
    }
    bias_filler {
      type: "constant"
      value: 0.0
    }
  }
}
layer {
  name: "conv7_2_2_mbox_loc23_perm"
  type: "Permute"
  bottom: "conv7_2_2_mbox_loc23"
  top: "conv7_2_2_mbox_loc23_perm"
  permute_param {
    order: 0
    order: 2
    order: 3
    order: 1
  }
}
layer {
  name: "conv7_2_2_mbox_loc23_flat"
  type: "Flatten"
  bottom: "conv7_2_2_mbox_loc23_perm"
  top: "conv7_2_2_mbox_loc23_flat"
  flatten_param {
    axis: 1
  }
}
layer {
  name: "conv7_2_2_mbox_conf23"
  type: "Convolution"
  bottom: "conv7_2_2"
  top: "conv7_2_2_mbox_conf23"
  param {
    name: "conv7_2_conf3_w"
    lr_mult: 1.0
    decay_mult: 1.0
  }
  param {
    name: "conv7_2_conf3_b"
    lr_mult: 2.0
    decay_mult: 0.0
  }
  convolution_param {
    num_output: 12
    pad: 1
    kernel_size: 3
    stride: 1
    weight_filler {
      type: "xavier"
    }
    bias_filler {
      type: "constant"
      value: 0.0
    }
  }
}
layer {
  name: "conv7_2_2_mbox_conf23_perm"
  type: "Permute"
  bottom: "conv7_2_2_mbox_conf23"
  top: "conv7_2_2_mbox_conf23_perm"
  permute_param {
    order: 0
    order: 2
    order: 3
    order: 1
  }
}
layer {
  name: "conv7_2_2_mbox_conf23_flat"
  type: "Flatten"
  bottom: "conv7_2_2_mbox_conf23_perm"
  top: "conv7_2_2_mbox_conf23_flat"
  flatten_param {
    axis: 1
  }
}
layer {
  name: "conv8_2_2_mbox_loc20"
  type: "Convolution"
  bottom: "conv8_2_2"
  top: "conv8_2_2_mbox_loc20"
  param {
    name: "conv8_2_loc0_w"
    lr_mult: 1.0
    decay_mult: 1.0
  }
  param {
    name: "conv8_2_loc0_b"
    lr_mult: 2.0
    decay_mult: 0.0
  }
  convolution_param {
    num_output: 24
    pad: 1
    kernel_size: 3
    stride: 1
    weight_filler {
      type: "xavier"
    }
    bias_filler {
      type: "constant"
      value: 0.0
    }
  }
}
layer {
  name: "conv8_2_2_mbox_loc20_perm"
  type: "Permute"
  bottom: "conv8_2_2_mbox_loc20"
  top: "conv8_2_2_mbox_loc20_perm"
  permute_param {
    order: 0
    order: 2
    order: 3
    order: 1
  }
}
layer {
  name: "conv8_2_2_mbox_loc20_flat"
  type: "Flatten"
  bottom: "conv8_2_2_mbox_loc20_perm"
  top: "conv8_2_2_mbox_loc20_flat"
  flatten_param {
    axis: 1
  }
}
layer {
  name: "conv8_2_2_mbox_conf20"
  type: "Convolution"
  bottom: "conv8_2_2"
  top: "conv8_2_2_mbox_conf20"
  param {
    name: "conv8_2_conf0_w"
    lr_mult: 1.0
    decay_mult: 1.0
  }
  param {
    name: "conv8_2_conf0_b"
    lr_mult: 2.0
    decay_mult: 0.0
  }
  convolution_param {
    num_output: 12
    pad: 1
    kernel_size: 3
    stride: 1
    weight_filler {
      type: "xavier"
    }
    bias_filler {
      type: "constant"
      value: 0.0
    }
  }
}
layer {
  name: "conv8_2_2_mbox_conf20_perm"
  type: "Permute"
  bottom: "conv8_2_2_mbox_conf20"
  top: "conv8_2_2_mbox_conf20_perm"
  permute_param {
    order: 0
    order: 2
    order: 3
    order: 1
  }
}
layer {
  name: "conv8_2_2_mbox_conf20_flat"
  type: "Flatten"
  bottom: "conv8_2_2_mbox_conf20_perm"
  top: "conv8_2_2_mbox_conf20_flat"
  flatten_param {
    axis: 1
  }
}
layer {
  name: "mbox_loc2"
  type: "Concat"
  bottom: "conv4_3r_2_mbox_loc20_flat"
  bottom: "conv4_3r_2_mbox_loc21_flat"
  bottom: "conv4_3r_2_mbox_loc22_flat"
  bottom: "conv4_3r_2_mbox_loc23_flat"
  bottom: "fc7r_2_mbox_loc20_flat"
  bottom: "fc7r_2_mbox_loc21_flat"
  bottom: "fc7r_2_mbox_loc22_flat"
  bottom: "fc7r_2_mbox_loc23_flat"
  bottom: "conv6_2_2_mbox_loc20_flat"
  bottom: "conv6_2_2_mbox_loc21_flat"
  bottom: "conv6_2_2_mbox_loc22_flat"
  bottom: "conv6_2_2_mbox_loc23_flat"
  bottom: "conv7_2_2_mbox_loc20_flat"
  bottom: "conv7_2_2_mbox_loc21_flat"
  bottom: "conv7_2_2_mbox_loc22_flat"
  bottom: "conv7_2_2_mbox_loc23_flat"
  bottom: "conv8_2_2_mbox_loc20_flat"
  top: "mbox_loc2"
  concat_param {
    axis: 1
  }
}
layer {
  name: "mbox_conf2"
  type: "Concat"
  bottom: "conv4_3r_2_mbox_conf20_flat"
  bottom: "conv4_3r_2_mbox_conf21_flat"
  bottom: "conv4_3r_2_mbox_conf22_flat"
  bottom: "conv4_3r_2_mbox_conf23_flat"
  bottom: "fc7r_2_mbox_conf20_flat"
  bottom: "fc7r_2_mbox_conf21_flat"
  bottom: "fc7r_2_mbox_conf22_flat"
  bottom: "fc7r_2_mbox_conf23_flat"
  bottom: "conv6_2_2_mbox_conf20_flat"
  bottom: "conv6_2_2_mbox_conf21_flat"
  bottom: "conv6_2_2_mbox_conf22_flat"
  bottom: "conv6_2_2_mbox_conf23_flat"
  bottom: "conv7_2_2_mbox_conf20_flat"
  bottom: "conv7_2_2_mbox_conf21_flat"
  bottom: "conv7_2_2_mbox_conf22_flat"
  bottom: "conv7_2_2_mbox_conf23_flat"
  bottom: "conv8_2_2_mbox_conf20_flat"
  top: "mbox_conf2"
  concat_param {
    axis: 1
  }
}
layer {
  name: "mbox_loss2"
  type: "MultiBoxLoss"
  bottom: "mbox_loc2"
  bottom: "mbox_conf2"
  bottom: "mbox_priorbox"
  bottom: "label"
  top: "mbox_loss2"
  include {
    phase: TRAIN
  }
  propagate_down: true
  propagate_down: true
  propagate_down: false
  propagate_down: false
  loss_param {
    normalization: VALID
  }
  multibox_loss_param {
    loc_loss_type: SMOOTH_L1
    conf_loss_type: SOFTMAX
    loc_weight: 2.0
    num_classes: 2
    share_location: true
    match_type: PER_PREDICTION
    overlap_threshold: 0.699999988079071
    use_prior_for_matching: true
    background_label_id: 0
    use_difficult_gt: true
    do_neg_mining: true
    neg_pos_ratio: 3.0
    neg_overlap: 0.5
    code_type: CENTER_SIZE
  }
}
layer {
  name: "fc7r_l2"
  type: "Convolution"
  bottom: "fc7r_2"
  top: "fc7r_l2"
  param {
    name: "fc7r_l_w"
    lr_mult: 1.0
    decay_mult: 1.0
  }
  param {
    name: "fc7r_l_b"
    lr_mult: 2.0
    decay_mult: 0.0
  }
  convolution_param {
    num_output: 19
    kernel_size: 1
    stride: 1
    weight_filler {
      type: "xavier"
    }
    bias_filler {
      type: "constant"
      value: 0.0
    }
  }
}
layer {
  name: "relu_fc7r_l2"
  type: "ReLU"
  bottom: "fc7r_l2"
  top: "fc7r_l2"
}
layer {
  name: "fc7r_l2_deconv"
  type: "Deconvolution"
  bottom: "fc7r_l2"
  top: "fc7r_l2_deconv"
  param {
    lr_mult: 0.0
    decay_mult: 0.0
  }
  convolution_param {
    num_output: 19
    bias_term: false
    pad: 1
    kernel_size: 4
    group: 19
    stride: 2
    weight_filler {
      type: "bilinear"
    }
  }
}
layer {
  name: "conv4_3r_concat_2"
  type: "Concat"
  bottom: "conv4_3r_2"
  bottom: "fc7r_l2_deconv"
  top: "conv4_3r_concat_2"
  concat_param {
    axis: 1
  }
}
layer {
  name: "conv4_3r_3"
  type: "Convolution"
  bottom: "conv4_3r_concat_2"
  top: "conv4_3r_3"
  param {
    name: "conv4_3r_cw"
    lr_mult: 1.0
    decay_mult: 1.0
  }
  param {
    name: "conv4_3r_cb"
    lr_mult: 2.0
    decay_mult: 0.0
  }
  convolution_param {
    num_output: 256
    kernel_size: 1
    stride: 1
    weight_filler {
      type: "xavier"
    }
    bias_filler {
      type: "constant"
      value: 0.0
    }
  }
}
layer {
  name: "relu_conv4_3r_3"
  type: "ReLU"
  bottom: "conv4_3r_3"
  top: "conv4_3r_3"
}
layer {
  name: "conv4_3r_r2"
  type: "Convolution"
  bottom: "conv4_3r_2"
  top: "conv4_3r_r2"
  param {
    name: "conv4_3r_r_w"
    lr_mult: 1.0
    decay_mult: 1.0
  }
  param {
    name: "conv4_3r_r_b"
    lr_mult: 2.0
    decay_mult: 0.0
  }
  convolution_param {
    num_output: 19
    kernel_size: 1
    stride: 1
    weight_filler {
      type: "xavier"
    }
    bias_filler {
      type: "constant"
      value: 0.0
    }
  }
}
layer {
  name: "relu_conv4_3r_r2"
  type: "ReLU"
  bottom: "conv4_3r_r2"
  top: "conv4_3r_r2"
}
layer {
  name: "pool_conv4_3r_r2"
  type: "Pooling"
  bottom: "conv4_3r_r2"
  top: "conv4_3r_r2"
  pooling_param {
    pool: MAX
    kernel_size: 2
    stride: 2
  }
}
layer {
  name: "conv6_2_l2"
  type: "Convolution"
  bottom: "conv6_2_2"
  top: "conv6_2_l2"
  param {
    name: "conv6_2_l_w"
    lr_mult: 1.0
    decay_mult: 1.0
  }
  param {
    name: "conv6_2_l_b"
    lr_mult: 2.0
    decay_mult: 0.0
  }
  convolution_param {
    num_output: 19
    kernel_size: 1
    stride: 1
    weight_filler {
      type: "xavier"
    }
    bias_filler {
      type: "constant"
      value: 0.0
    }
  }
}
layer {
  name: "relu_conv6_2_l2"
  type: "ReLU"
  bottom: "conv6_2_l2"
  top: "conv6_2_l2"
}
layer {
  name: "conv6_2_l2_deconv"
  type: "Deconvolution"
  bottom: "conv6_2_l2"
  top: "conv6_2_l2_deconv"
  param {
    lr_mult: 0.0
    decay_mult: 0.0
  }
  convolution_param {
    num_output: 19
    bias_term: false
    pad: 1
    kernel_size: 4
    group: 19
    stride: 2
    weight_filler {
      type: "bilinear"
    }
  }
}
layer {
  name: "fc7r_concat_2"
  type: "Concat"
  bottom: "conv4_3r_r2"
  bottom: "fc7r_2"
  bottom: "conv6_2_l2_deconv"
  top: "fc7r_concat_2"
  concat_param {
    axis: 1
  }
}
layer {
  name: "fc7r_3"
  type: "Convolution"
  bottom: "fc7r_concat_2"
  top: "fc7r_3"
  param {
    name: "fc7r_cw"
    lr_mult: 1.0
    decay_mult: 1.0
  }
  param {
    name: "fc7r_cb"
    lr_mult: 2.0
    decay_mult: 0.0
  }
  convolution_param {
    num_output: 256
    kernel_size: 1
    stride: 1
    weight_filler {
      type: "xavier"
    }
    bias_filler {
      type: "constant"
      value: 0.0
    }
  }
}
layer {
  name: "relu_fc7r_3"
  type: "ReLU"
  bottom: "fc7r_3"
  top: "fc7r_3"
}
layer {
  name: "fc7r_r2"
  type: "Convolution"
  bottom: "fc7r_2"
  top: "fc7r_r2"
  param {
    name: "fc7r_r_w"
    lr_mult: 1.0
    decay_mult: 1.0
  }
  param {
    name: "fc7r_r_b"
    lr_mult: 2.0
    decay_mult: 0.0
  }
  convolution_param {
    num_output: 19
    kernel_size: 1
    stride: 1
    weight_filler {
      type: "xavier"
    }
    bias_filler {
      type: "constant"
      value: 0.0
    }
  }
}
layer {
  name: "relu_fc7r_r2"
  type: "ReLU"
  bottom: "fc7r_r2"
  top: "fc7r_r2"
}
layer {
  name: "pool_fc7r_r2"
  type: "Pooling"
  bottom: "fc7r_r2"
  top: "fc7r_r2"
  pooling_param {
    pool: MAX
    kernel_size: 2
    stride: 2
  }
}
layer {
  name: "conv7_2_l2"
  type: "Convolution"
  bottom: "conv7_2_2"
  top: "conv7_2_l2"
  param {
    name: "conv7_2_l_w"
    lr_mult: 1.0
    decay_mult: 1.0
  }
  param {
    name: "conv7_2_l_b"
    lr_mult: 2.0
    decay_mult: 0.0
  }
  convolution_param {
    num_output: 19
    kernel_size: 1
    stride: 1
    weight_filler {
      type: "xavier"
    }
    bias_filler {
      type: "constant"
      value: 0.0
    }
  }
}
layer {
  name: "relu_conv7_2_l2"
  type: "ReLU"
  bottom: "conv7_2_l2"
  top: "conv7_2_l2"
}
layer {
  name: "conv7_2_l2_deconv"
  type: "Deconvolution"
  bottom: "conv7_2_l2"
  top: "conv7_2_l2_deconv"
  param {
    lr_mult: 0.0
    decay_mult: 0.0
  }
  convolution_param {
    num_output: 19
    bias_term: false
    pad: 1
    kernel_size: 4
    group: 19
    stride: 2
    weight_filler {
      type: "bilinear"
    }
  }
}
layer {
  name: "conv6_2_concat_2"
  type: "Concat"
  bottom: "fc7r_r2"
  bottom: "conv6_2_2"
  bottom: "conv7_2_l2_deconv"
  top: "conv6_2_concat_2"
  concat_param {
    axis: 1
  }
}
layer {
  name: "conv6_2_3"
  type: "Convolution"
  bottom: "conv6_2_concat_2"
  top: "conv6_2_3"
  param {
    name: "conv6_2_cw"
    lr_mult: 1.0
    decay_mult: 1.0
  }
  param {
    name: "conv6_2_cb"
    lr_mult: 2.0
    decay_mult: 0.0
  }
  convolution_param {
    num_output: 256
    kernel_size: 1
    stride: 1
    weight_filler {
      type: "xavier"
    }
    bias_filler {
      type: "constant"
      value: 0.0
    }
  }
}
layer {
  name: "relu_conv6_2_3"
  type: "ReLU"
  bottom: "conv6_2_3"
  top: "conv6_2_3"
}
layer {
  name: "conv6_2_r2"
  type: "Convolution"
  bottom: "conv6_2_2"
  top: "conv6_2_r2"
  param {
    name: "conv6_2_r_w"
    lr_mult: 1.0
    decay_mult: 1.0
  }
  param {
    name: "conv6_2_r_b"
    lr_mult: 2.0
    decay_mult: 0.0
  }
  convolution_param {
    num_output: 19
    kernel_size: 1
    stride: 1
    weight_filler {
      type: "xavier"
    }
    bias_filler {
      type: "constant"
      value: 0.0
    }
  }
}
layer {
  name: "relu_conv6_2_r2"
  type: "ReLU"
  bottom: "conv6_2_r2"
  top: "conv6_2_r2"
}
layer {
  name: "pool_conv6_2_r2"
  type: "Pooling"
  bottom: "conv6_2_r2"
  top: "conv6_2_r2"
  pooling_param {
    pool: MAX
    kernel_size: 2
    stride: 2
  }
}
layer {
  name: "conv8_2_l2"
  type: "Convolution"
  bottom: "conv8_2_2"
  top: "conv8_2_l2"
  param {
    name: "conv8_2_l_w"
    lr_mult: 1.0
    decay_mult: 1.0
  }
  param {
    name: "conv8_2_l_b"
    lr_mult: 2.0
    decay_mult: 0.0
  }
  convolution_param {
    num_output: 19
    kernel_size: 1
    stride: 1
    weight_filler {
      type: "xavier"
    }
    bias_filler {
      type: "constant"
      value: 0.0
    }
  }
}
layer {
  name: "relu_conv8_2_l2"
  type: "ReLU"
  bottom: "conv8_2_l2"
  top: "conv8_2_l2"
}
layer {
  name: "conv8_2_l2_deconv"
  type: "Deconvolution"
  bottom: "conv8_2_l2"
  top: "conv8_2_l2_deconv"
  param {
    lr_mult: 0.0
    decay_mult: 0.0
  }
  convolution_param {
    num_output: 19
    bias_term: false
    pad: 1
    kernel_size: 4
    group: 19
    stride: 2
    weight_filler {
      type: "bilinear"
    }
  }
}
layer {
  name: "conv7_2_concat_2"
  type: "Concat"
  bottom: "conv6_2_r2"
  bottom: "conv7_2_2"
  bottom: "conv8_2_l2_deconv"
  top: "conv7_2_concat_2"
  concat_param {
    axis: 1
  }
}
layer {
  name: "conv7_2_3"
  type: "Convolution"
  bottom: "conv7_2_concat_2"
  top: "conv7_2_3"
  param {
    name: "conv7_2_cw"
    lr_mult: 1.0
    decay_mult: 1.0
  }
  param {
    name: "conv7_2_cb"
    lr_mult: 2.0
    decay_mult: 0.0
  }
  convolution_param {
    num_output: 256
    kernel_size: 1
    stride: 1
    weight_filler {
      type: "xavier"
    }
    bias_filler {
      type: "constant"
      value: 0.0
    }
  }
}
layer {
  name: "relu_conv7_2_3"
  type: "ReLU"
  bottom: "conv7_2_3"
  top: "conv7_2_3"
}
layer {
  name: "conv7_2_r2"
  type: "Convolution"
  bottom: "conv7_2_2"
  top: "conv7_2_r2"
  param {
    name: "conv7_2_r_w"
    lr_mult: 1.0
    decay_mult: 1.0
  }
  param {
    name: "conv7_2_r_b"
    lr_mult: 2.0
    decay_mult: 0.0
  }
  convolution_param {
    num_output: 19
    kernel_size: 1
    stride: 1
    weight_filler {
      type: "xavier"
    }
    bias_filler {
      type: "constant"
      value: 0.0
    }
  }
}
layer {
  name: "relu_conv7_2_r2"
  type: "ReLU"
  bottom: "conv7_2_r2"
  top: "conv7_2_r2"
}
layer {
  name: "pool_conv7_2_r2"
  type: "Pooling"
  bottom: "conv7_2_r2"
  top: "conv7_2_r2"
  pooling_param {
    pool: MAX
    kernel_size: 2
    stride: 2
  }
}
layer {
  name: "conv8_2_concat_2"
  type: "Concat"
  bottom: "conv7_2_r2"
  bottom: "conv8_2_2"
  top: "conv8_2_concat_2"
  concat_param {
    axis: 1
  }
}
layer {
  name: "conv8_2_3"
  type: "Convolution"
  bottom: "conv8_2_concat_2"
  top: "conv8_2_3"
  param {
    name: "conv8_2_cw"
    lr_mult: 1.0
    decay_mult: 1.0
  }
  param {
    name: "conv8_2_cb"
    lr_mult: 2.0
    decay_mult: 0.0
  }
  convolution_param {
    num_output: 256
    kernel_size: 1
    stride: 1
    weight_filler {
      type: "xavier"
    }
    bias_filler {
      type: "constant"
      value: 0.0
    }
  }
}
layer {
  name: "relu_conv8_2_3"
  type: "ReLU"
  bottom: "conv8_2_3"
  top: "conv8_2_3"
}
layer {
  name: "conv4_3r_3_mbox_loc30"
  type: "Convolution"
  bottom: "conv4_3r_3"
  top: "conv4_3r_3_mbox_loc30"
  param {
    name: "conv4_3r_loc0_w"
    lr_mult: 1.0
    decay_mult: 1.0
  }
  param {
    name: "conv4_3r_loc0_b"
    lr_mult: 2.0
    decay_mult: 0.0
  }
  convolution_param {
    num_output: 12
    pad: 1
    kernel_size: 3
    stride: 1
    weight_filler {
      type: "xavier"
    }
    bias_filler {
      type: "constant"
      value: 0.0
    }
  }
}
layer {
  name: "conv4_3r_3_mbox_loc30_perm"
  type: "Permute"
  bottom: "conv4_3r_3_mbox_loc30"
  top: "conv4_3r_3_mbox_loc30_perm"
  permute_param {
    order: 0
    order: 2
    order: 3
    order: 1
  }
}
layer {
  name: "conv4_3r_3_mbox_loc30_flat"
  type: "Flatten"
  bottom: "conv4_3r_3_mbox_loc30_perm"
  top: "conv4_3r_3_mbox_loc30_flat"
  flatten_param {
    axis: 1
  }
}
layer {
  name: "conv4_3r_3_mbox_conf30"
  type: "Convolution"
  bottom: "conv4_3r_3"
  top: "conv4_3r_3_mbox_conf30"
  param {
    name: "conv4_3r_conf0_w"
    lr_mult: 1.0
    decay_mult: 1.0
  }
  param {
    name: "conv4_3r_conf0_b"
    lr_mult: 2.0
    decay_mult: 0.0
  }
  convolution_param {
    num_output: 6
    pad: 1
    kernel_size: 3
    stride: 1
    weight_filler {
      type: "xavier"
    }
    bias_filler {
      type: "constant"
      value: 0.0
    }
  }
}
layer {
  name: "conv4_3r_3_mbox_conf30_perm"
  type: "Permute"
  bottom: "conv4_3r_3_mbox_conf30"
  top: "conv4_3r_3_mbox_conf30_perm"
  permute_param {
    order: 0
    order: 2
    order: 3
    order: 1
  }
}
layer {
  name: "conv4_3r_3_mbox_conf30_flat"
  type: "Flatten"
  bottom: "conv4_3r_3_mbox_conf30_perm"
  top: "conv4_3r_3_mbox_conf30_flat"
  flatten_param {
    axis: 1
  }
}
layer {
  name: "conv4_3r_3_mbox_loc31"
  type: "Convolution"
  bottom: "conv4_3r_3"
  top: "conv4_3r_3_mbox_loc31"
  param {
    name: "conv4_3r_loc1_w"
    lr_mult: 1.0
    decay_mult: 1.0
  }
  param {
    name: "conv4_3r_loc1_b"
    lr_mult: 2.0
    decay_mult: 0.0
  }
  convolution_param {
    num_output: 12
    pad: 1
    kernel_size: 3
    stride: 1
    weight_filler {
      type: "xavier"
    }
    bias_filler {
      type: "constant"
      value: 0.0
    }
  }
}
layer {
  name: "conv4_3r_3_mbox_loc31_perm"
  type: "Permute"
  bottom: "conv4_3r_3_mbox_loc31"
  top: "conv4_3r_3_mbox_loc31_perm"
  permute_param {
    order: 0
    order: 2
    order: 3
    order: 1
  }
}
layer {
  name: "conv4_3r_3_mbox_loc31_flat"
  type: "Flatten"
  bottom: "conv4_3r_3_mbox_loc31_perm"
  top: "conv4_3r_3_mbox_loc31_flat"
  flatten_param {
    axis: 1
  }
}
layer {
  name: "conv4_3r_3_mbox_conf31"
  type: "Convolution"
  bottom: "conv4_3r_3"
  top: "conv4_3r_3_mbox_conf31"
  param {
    name: "conv4_3r_conf1_w"
    lr_mult: 1.0
    decay_mult: 1.0
  }
  param {
    name: "conv4_3r_conf1_b"
    lr_mult: 2.0
    decay_mult: 0.0
  }
  convolution_param {
    num_output: 6
    pad: 1
    kernel_size: 3
    stride: 1
    weight_filler {
      type: "xavier"
    }
    bias_filler {
      type: "constant"
      value: 0.0
    }
  }
}
layer {
  name: "conv4_3r_3_mbox_conf31_perm"
  type: "Permute"
  bottom: "conv4_3r_3_mbox_conf31"
  top: "conv4_3r_3_mbox_conf31_perm"
  permute_param {
    order: 0
    order: 2
    order: 3
    order: 1
  }
}
layer {
  name: "conv4_3r_3_mbox_conf31_flat"
  type: "Flatten"
  bottom: "conv4_3r_3_mbox_conf31_perm"
  top: "conv4_3r_3_mbox_conf31_flat"
  flatten_param {
    axis: 1
  }
}
layer {
  name: "conv4_3r_3_mbox_loc32"
  type: "Convolution"
  bottom: "conv4_3r_3"
  top: "conv4_3r_3_mbox_loc32"
  param {
    name: "conv4_3r_loc2_w"
    lr_mult: 1.0
    decay_mult: 1.0
  }
  param {
    name: "conv4_3r_loc2_b"
    lr_mult: 2.0
    decay_mult: 0.0
  }
  convolution_param {
    num_output: 12
    pad: 1
    kernel_size: 3
    stride: 1
    weight_filler {
      type: "xavier"
    }
    bias_filler {
      type: "constant"
      value: 0.0
    }
  }
}
layer {
  name: "conv4_3r_3_mbox_loc32_perm"
  type: "Permute"
  bottom: "conv4_3r_3_mbox_loc32"
  top: "conv4_3r_3_mbox_loc32_perm"
  permute_param {
    order: 0
    order: 2
    order: 3
    order: 1
  }
}
layer {
  name: "conv4_3r_3_mbox_loc32_flat"
  type: "Flatten"
  bottom: "conv4_3r_3_mbox_loc32_perm"
  top: "conv4_3r_3_mbox_loc32_flat"
  flatten_param {
    axis: 1
  }
}
layer {
  name: "conv4_3r_3_mbox_conf32"
  type: "Convolution"
  bottom: "conv4_3r_3"
  top: "conv4_3r_3_mbox_conf32"
  param {
    name: "conv4_3r_conf2_w"
    lr_mult: 1.0
    decay_mult: 1.0
  }
  param {
    name: "conv4_3r_conf2_b"
    lr_mult: 2.0
    decay_mult: 0.0
  }
  convolution_param {
    num_output: 6
    pad: 1
    kernel_size: 3
    stride: 1
    weight_filler {
      type: "xavier"
    }
    bias_filler {
      type: "constant"
      value: 0.0
    }
  }
}
layer {
  name: "conv4_3r_3_mbox_conf32_perm"
  type: "Permute"
  bottom: "conv4_3r_3_mbox_conf32"
  top: "conv4_3r_3_mbox_conf32_perm"
  permute_param {
    order: 0
    order: 2
    order: 3
    order: 1
  }
}
layer {
  name: "conv4_3r_3_mbox_conf32_flat"
  type: "Flatten"
  bottom: "conv4_3r_3_mbox_conf32_perm"
  top: "conv4_3r_3_mbox_conf32_flat"
  flatten_param {
    axis: 1
  }
}
layer {
  name: "conv4_3r_3_mbox_loc33"
  type: "Convolution"
  bottom: "conv4_3r_3"
  top: "conv4_3r_3_mbox_loc33"
  param {
    name: "conv4_3r_loc3_w"
    lr_mult: 1.0
    decay_mult: 1.0
  }
  param {
    name: "conv4_3r_loc3_b"
    lr_mult: 2.0
    decay_mult: 0.0
  }
  convolution_param {
    num_output: 12
    pad: 1
    kernel_size: 3
    stride: 1
    weight_filler {
      type: "xavier"
    }
    bias_filler {
      type: "constant"
      value: 0.0
    }
  }
}
layer {
  name: "conv4_3r_3_mbox_loc33_perm"
  type: "Permute"
  bottom: "conv4_3r_3_mbox_loc33"
  top: "conv4_3r_3_mbox_loc33_perm"
  permute_param {
    order: 0
    order: 2
    order: 3
    order: 1
  }
}
layer {
  name: "conv4_3r_3_mbox_loc33_flat"
  type: "Flatten"
  bottom: "conv4_3r_3_mbox_loc33_perm"
  top: "conv4_3r_3_mbox_loc33_flat"
  flatten_param {
    axis: 1
  }
}
layer {
  name: "conv4_3r_3_mbox_conf33"
  type: "Convolution"
  bottom: "conv4_3r_3"
  top: "conv4_3r_3_mbox_conf33"
  param {
    name: "conv4_3r_conf3_w"
    lr_mult: 1.0
    decay_mult: 1.0
  }
  param {
    name: "conv4_3r_conf3_b"
    lr_mult: 2.0
    decay_mult: 0.0
  }
  convolution_param {
    num_output: 6
    pad: 1
    kernel_size: 3
    stride: 1
    weight_filler {
      type: "xavier"
    }
    bias_filler {
      type: "constant"
      value: 0.0
    }
  }
}
layer {
  name: "conv4_3r_3_mbox_conf33_perm"
  type: "Permute"
  bottom: "conv4_3r_3_mbox_conf33"
  top: "conv4_3r_3_mbox_conf33_perm"
  permute_param {
    order: 0
    order: 2
    order: 3
    order: 1
  }
}
layer {
  name: "conv4_3r_3_mbox_conf33_flat"
  type: "Flatten"
  bottom: "conv4_3r_3_mbox_conf33_perm"
  top: "conv4_3r_3_mbox_conf33_flat"
  flatten_param {
    axis: 1
  }
}
layer {
  name: "fc7r_3_mbox_loc30"
  type: "Convolution"
  bottom: "fc7r_3"
  top: "fc7r_3_mbox_loc30"
  param {
    name: "fc7r_loc0_w"
    lr_mult: 1.0
    decay_mult: 1.0
  }
  param {
    name: "fc7r_loc0_b"
    lr_mult: 2.0
    decay_mult: 0.0
  }
  convolution_param {
    num_output: 24
    pad: 1
    kernel_size: 3
    stride: 1
    weight_filler {
      type: "xavier"
    }
    bias_filler {
      type: "constant"
      value: 0.0
    }
  }
}
layer {
  name: "fc7r_3_mbox_loc30_perm"
  type: "Permute"
  bottom: "fc7r_3_mbox_loc30"
  top: "fc7r_3_mbox_loc30_perm"
  permute_param {
    order: 0
    order: 2
    order: 3
    order: 1
  }
}
layer {
  name: "fc7r_3_mbox_loc30_flat"
  type: "Flatten"
  bottom: "fc7r_3_mbox_loc30_perm"
  top: "fc7r_3_mbox_loc30_flat"
  flatten_param {
    axis: 1
  }
}
layer {
  name: "fc7r_3_mbox_conf30"
  type: "Convolution"
  bottom: "fc7r_3"
  top: "fc7r_3_mbox_conf30"
  param {
    name: "fc7r_conf0_w"
    lr_mult: 1.0
    decay_mult: 1.0
  }
  param {
    name: "fc7r_conf0_b"
    lr_mult: 2.0
    decay_mult: 0.0
  }
  convolution_param {
    num_output: 12
    pad: 1
    kernel_size: 3
    stride: 1
    weight_filler {
      type: "xavier"
    }
    bias_filler {
      type: "constant"
      value: 0.0
    }
  }
}
layer {
  name: "fc7r_3_mbox_conf30_perm"
  type: "Permute"
  bottom: "fc7r_3_mbox_conf30"
  top: "fc7r_3_mbox_conf30_perm"
  permute_param {
    order: 0
    order: 2
    order: 3
    order: 1
  }
}
layer {
  name: "fc7r_3_mbox_conf30_flat"
  type: "Flatten"
  bottom: "fc7r_3_mbox_conf30_perm"
  top: "fc7r_3_mbox_conf30_flat"
  flatten_param {
    axis: 1
  }
}
layer {
  name: "fc7r_3_mbox_loc31"
  type: "Convolution"
  bottom: "fc7r_3"
  top: "fc7r_3_mbox_loc31"
  param {
    name: "fc7r_loc1_w"
    lr_mult: 1.0
    decay_mult: 1.0
  }
  param {
    name: "fc7r_loc1_b"
    lr_mult: 2.0
    decay_mult: 0.0
  }
  convolution_param {
    num_output: 24
    pad: 1
    kernel_size: 3
    stride: 1
    weight_filler {
      type: "xavier"
    }
    bias_filler {
      type: "constant"
      value: 0.0
    }
  }
}
layer {
  name: "fc7r_3_mbox_loc31_perm"
  type: "Permute"
  bottom: "fc7r_3_mbox_loc31"
  top: "fc7r_3_mbox_loc31_perm"
  permute_param {
    order: 0
    order: 2
    order: 3
    order: 1
  }
}
layer {
  name: "fc7r_3_mbox_loc31_flat"
  type: "Flatten"
  bottom: "fc7r_3_mbox_loc31_perm"
  top: "fc7r_3_mbox_loc31_flat"
  flatten_param {
    axis: 1
  }
}
layer {
  name: "fc7r_3_mbox_conf31"
  type: "Convolution"
  bottom: "fc7r_3"
  top: "fc7r_3_mbox_conf31"
  param {
    name: "fc7r_conf1_w"
    lr_mult: 1.0
    decay_mult: 1.0
  }
  param {
    name: "fc7r_conf1_b"
    lr_mult: 2.0
    decay_mult: 0.0
  }
  convolution_param {
    num_output: 12
    pad: 1
    kernel_size: 3
    stride: 1
    weight_filler {
      type: "xavier"
    }
    bias_filler {
      type: "constant"
      value: 0.0
    }
  }
}
layer {
  name: "fc7r_3_mbox_conf31_perm"
  type: "Permute"
  bottom: "fc7r_3_mbox_conf31"
  top: "fc7r_3_mbox_conf31_perm"
  permute_param {
    order: 0
    order: 2
    order: 3
    order: 1
  }
}
layer {
  name: "fc7r_3_mbox_conf31_flat"
  type: "Flatten"
  bottom: "fc7r_3_mbox_conf31_perm"
  top: "fc7r_3_mbox_conf31_flat"
  flatten_param {
    axis: 1
  }
}
layer {
  name: "fc7r_3_mbox_loc32"
  type: "Convolution"
  bottom: "fc7r_3"
  top: "fc7r_3_mbox_loc32"
  param {
    name: "fc7r_loc2_w"
    lr_mult: 1.0
    decay_mult: 1.0
  }
  param {
    name: "fc7r_loc2_b"
    lr_mult: 2.0
    decay_mult: 0.0
  }
  convolution_param {
    num_output: 24
    pad: 1
    kernel_size: 3
    stride: 1
    weight_filler {
      type: "xavier"
    }
    bias_filler {
      type: "constant"
      value: 0.0
    }
  }
}
layer {
  name: "fc7r_3_mbox_loc32_perm"
  type: "Permute"
  bottom: "fc7r_3_mbox_loc32"
  top: "fc7r_3_mbox_loc32_perm"
  permute_param {
    order: 0
    order: 2
    order: 3
    order: 1
  }
}
layer {
  name: "fc7r_3_mbox_loc32_flat"
  type: "Flatten"
  bottom: "fc7r_3_mbox_loc32_perm"
  top: "fc7r_3_mbox_loc32_flat"
  flatten_param {
    axis: 1
  }
}
layer {
  name: "fc7r_3_mbox_conf32"
  type: "Convolution"
  bottom: "fc7r_3"
  top: "fc7r_3_mbox_conf32"
  param {
    name: "fc7r_conf2_w"
    lr_mult: 1.0
    decay_mult: 1.0
  }
  param {
    name: "fc7r_conf2_b"
    lr_mult: 2.0
    decay_mult: 0.0
  }
  convolution_param {
    num_output: 12
    pad: 1
    kernel_size: 3
    stride: 1
    weight_filler {
      type: "xavier"
    }
    bias_filler {
      type: "constant"
      value: 0.0
    }
  }
}
layer {
  name: "fc7r_3_mbox_conf32_perm"
  type: "Permute"
  bottom: "fc7r_3_mbox_conf32"
  top: "fc7r_3_mbox_conf32_perm"
  permute_param {
    order: 0
    order: 2
    order: 3
    order: 1
  }
}
layer {
  name: "fc7r_3_mbox_conf32_flat"
  type: "Flatten"
  bottom: "fc7r_3_mbox_conf32_perm"
  top: "fc7r_3_mbox_conf32_flat"
  flatten_param {
    axis: 1
  }
}
layer {
  name: "fc7r_3_mbox_loc33"
  type: "Convolution"
  bottom: "fc7r_3"
  top: "fc7r_3_mbox_loc33"
  param {
    name: "fc7r_loc3_w"
    lr_mult: 1.0
    decay_mult: 1.0
  }
  param {
    name: "fc7r_loc3_b"
    lr_mult: 2.0
    decay_mult: 0.0
  }
  convolution_param {
    num_output: 24
    pad: 1
    kernel_size: 3
    stride: 1
    weight_filler {
      type: "xavier"
    }
    bias_filler {
      type: "constant"
      value: 0.0
    }
  }
}
layer {
  name: "fc7r_3_mbox_loc33_perm"
  type: "Permute"
  bottom: "fc7r_3_mbox_loc33"
  top: "fc7r_3_mbox_loc33_perm"
  permute_param {
    order: 0
    order: 2
    order: 3
    order: 1
  }
}
layer {
  name: "fc7r_3_mbox_loc33_flat"
  type: "Flatten"
  bottom: "fc7r_3_mbox_loc33_perm"
  top: "fc7r_3_mbox_loc33_flat"
  flatten_param {
    axis: 1
  }
}
layer {
  name: "fc7r_3_mbox_conf33"
  type: "Convolution"
  bottom: "fc7r_3"
  top: "fc7r_3_mbox_conf33"
  param {
    name: "fc7r_conf3_w"
    lr_mult: 1.0
    decay_mult: 1.0
  }
  param {
    name: "fc7r_conf3_b"
    lr_mult: 2.0
    decay_mult: 0.0
  }
  convolution_param {
    num_output: 12
    pad: 1
    kernel_size: 3
    stride: 1
    weight_filler {
      type: "xavier"
    }
    bias_filler {
      type: "constant"
      value: 0.0
    }
  }
}
layer {
  name: "fc7r_3_mbox_conf33_perm"
  type: "Permute"
  bottom: "fc7r_3_mbox_conf33"
  top: "fc7r_3_mbox_conf33_perm"
  permute_param {
    order: 0
    order: 2
    order: 3
    order: 1
  }
}
layer {
  name: "fc7r_3_mbox_conf33_flat"
  type: "Flatten"
  bottom: "fc7r_3_mbox_conf33_perm"
  top: "fc7r_3_mbox_conf33_flat"
  flatten_param {
    axis: 1
  }
}
layer {
  name: "conv6_2_3_mbox_loc30"
  type: "Convolution"
  bottom: "conv6_2_3"
  top: "conv6_2_3_mbox_loc30"
  param {
    name: "conv6_2_loc0_w"
    lr_mult: 1.0
    decay_mult: 1.0
  }
  param {
    name: "conv6_2_loc0_b"
    lr_mult: 2.0
    decay_mult: 0.0
  }
  convolution_param {
    num_output: 24
    pad: 1
    kernel_size: 3
    stride: 1
    weight_filler {
      type: "xavier"
    }
    bias_filler {
      type: "constant"
      value: 0.0
    }
  }
}
layer {
  name: "conv6_2_3_mbox_loc30_perm"
  type: "Permute"
  bottom: "conv6_2_3_mbox_loc30"
  top: "conv6_2_3_mbox_loc30_perm"
  permute_param {
    order: 0
    order: 2
    order: 3
    order: 1
  }
}
layer {
  name: "conv6_2_3_mbox_loc30_flat"
  type: "Flatten"
  bottom: "conv6_2_3_mbox_loc30_perm"
  top: "conv6_2_3_mbox_loc30_flat"
  flatten_param {
    axis: 1
  }
}
layer {
  name: "conv6_2_3_mbox_conf30"
  type: "Convolution"
  bottom: "conv6_2_3"
  top: "conv6_2_3_mbox_conf30"
  param {
    name: "conv6_2_conf0_w"
    lr_mult: 1.0
    decay_mult: 1.0
  }
  param {
    name: "conv6_2_conf0_b"
    lr_mult: 2.0
    decay_mult: 0.0
  }
  convolution_param {
    num_output: 12
    pad: 1
    kernel_size: 3
    stride: 1
    weight_filler {
      type: "xavier"
    }
    bias_filler {
      type: "constant"
      value: 0.0
    }
  }
}
layer {
  name: "conv6_2_3_mbox_conf30_perm"
  type: "Permute"
  bottom: "conv6_2_3_mbox_conf30"
  top: "conv6_2_3_mbox_conf30_perm"
  permute_param {
    order: 0
    order: 2
    order: 3
    order: 1
  }
}
layer {
  name: "conv6_2_3_mbox_conf30_flat"
  type: "Flatten"
  bottom: "conv6_2_3_mbox_conf30_perm"
  top: "conv6_2_3_mbox_conf30_flat"
  flatten_param {
    axis: 1
  }
}
layer {
  name: "conv6_2_3_mbox_loc31"
  type: "Convolution"
  bottom: "conv6_2_3"
  top: "conv6_2_3_mbox_loc31"
  param {
    name: "conv6_2_loc1_w"
    lr_mult: 1.0
    decay_mult: 1.0
  }
  param {
    name: "conv6_2_loc1_b"
    lr_mult: 2.0
    decay_mult: 0.0
  }
  convolution_param {
    num_output: 24
    pad: 1
    kernel_size: 3
    stride: 1
    weight_filler {
      type: "xavier"
    }
    bias_filler {
      type: "constant"
      value: 0.0
    }
  }
}
layer {
  name: "conv6_2_3_mbox_loc31_perm"
  type: "Permute"
  bottom: "conv6_2_3_mbox_loc31"
  top: "conv6_2_3_mbox_loc31_perm"
  permute_param {
    order: 0
    order: 2
    order: 3
    order: 1
  }
}
layer {
  name: "conv6_2_3_mbox_loc31_flat"
  type: "Flatten"
  bottom: "conv6_2_3_mbox_loc31_perm"
  top: "conv6_2_3_mbox_loc31_flat"
  flatten_param {
    axis: 1
  }
}
layer {
  name: "conv6_2_3_mbox_conf31"
  type: "Convolution"
  bottom: "conv6_2_3"
  top: "conv6_2_3_mbox_conf31"
  param {
    name: "conv6_2_conf1_w"
    lr_mult: 1.0
    decay_mult: 1.0
  }
  param {
    name: "conv6_2_conf1_b"
    lr_mult: 2.0
    decay_mult: 0.0
  }
  convolution_param {
    num_output: 12
    pad: 1
    kernel_size: 3
    stride: 1
    weight_filler {
      type: "xavier"
    }
    bias_filler {
      type: "constant"
      value: 0.0
    }
  }
}
layer {
  name: "conv6_2_3_mbox_conf31_perm"
  type: "Permute"
  bottom: "conv6_2_3_mbox_conf31"
  top: "conv6_2_3_mbox_conf31_perm"
  permute_param {
    order: 0
    order: 2
    order: 3
    order: 1
  }
}
layer {
  name: "conv6_2_3_mbox_conf31_flat"
  type: "Flatten"
  bottom: "conv6_2_3_mbox_conf31_perm"
  top: "conv6_2_3_mbox_conf31_flat"
  flatten_param {
    axis: 1
  }
}
layer {
  name: "conv6_2_3_mbox_loc32"
  type: "Convolution"
  bottom: "conv6_2_3"
  top: "conv6_2_3_mbox_loc32"
  param {
    name: "conv6_2_loc2_w"
    lr_mult: 1.0
    decay_mult: 1.0
  }
  param {
    name: "conv6_2_loc2_b"
    lr_mult: 2.0
    decay_mult: 0.0
  }
  convolution_param {
    num_output: 24
    pad: 1
    kernel_size: 3
    stride: 1
    weight_filler {
      type: "xavier"
    }
    bias_filler {
      type: "constant"
      value: 0.0
    }
  }
}
layer {
  name: "conv6_2_3_mbox_loc32_perm"
  type: "Permute"
  bottom: "conv6_2_3_mbox_loc32"
  top: "conv6_2_3_mbox_loc32_perm"
  permute_param {
    order: 0
    order: 2
    order: 3
    order: 1
  }
}
layer {
  name: "conv6_2_3_mbox_loc32_flat"
  type: "Flatten"
  bottom: "conv6_2_3_mbox_loc32_perm"
  top: "conv6_2_3_mbox_loc32_flat"
  flatten_param {
    axis: 1
  }
}
layer {
  name: "conv6_2_3_mbox_conf32"
  type: "Convolution"
  bottom: "conv6_2_3"
  top: "conv6_2_3_mbox_conf32"
  param {
    name: "conv6_2_conf2_w"
    lr_mult: 1.0
    decay_mult: 1.0
  }
  param {
    name: "conv6_2_conf2_b"
    lr_mult: 2.0
    decay_mult: 0.0
  }
  convolution_param {
    num_output: 12
    pad: 1
    kernel_size: 3
    stride: 1
    weight_filler {
      type: "xavier"
    }
    bias_filler {
      type: "constant"
      value: 0.0
    }
  }
}
layer {
  name: "conv6_2_3_mbox_conf32_perm"
  type: "Permute"
  bottom: "conv6_2_3_mbox_conf32"
  top: "conv6_2_3_mbox_conf32_perm"
  permute_param {
    order: 0
    order: 2
    order: 3
    order: 1
  }
}
layer {
  name: "conv6_2_3_mbox_conf32_flat"
  type: "Flatten"
  bottom: "conv6_2_3_mbox_conf32_perm"
  top: "conv6_2_3_mbox_conf32_flat"
  flatten_param {
    axis: 1
  }
}
layer {
  name: "conv6_2_3_mbox_loc33"
  type: "Convolution"
  bottom: "conv6_2_3"
  top: "conv6_2_3_mbox_loc33"
  param {
    name: "conv6_2_loc3_w"
    lr_mult: 1.0
    decay_mult: 1.0
  }
  param {
    name: "conv6_2_loc3_b"
    lr_mult: 2.0
    decay_mult: 0.0
  }
  convolution_param {
    num_output: 24
    pad: 1
    kernel_size: 3
    stride: 1
    weight_filler {
      type: "xavier"
    }
    bias_filler {
      type: "constant"
      value: 0.0
    }
  }
}
layer {
  name: "conv6_2_3_mbox_loc33_perm"
  type: "Permute"
  bottom: "conv6_2_3_mbox_loc33"
  top: "conv6_2_3_mbox_loc33_perm"
  permute_param {
    order: 0
    order: 2
    order: 3
    order: 1
  }
}
layer {
  name: "conv6_2_3_mbox_loc33_flat"
  type: "Flatten"
  bottom: "conv6_2_3_mbox_loc33_perm"
  top: "conv6_2_3_mbox_loc33_flat"
  flatten_param {
    axis: 1
  }
}
layer {
  name: "conv6_2_3_mbox_conf33"
  type: "Convolution"
  bottom: "conv6_2_3"
  top: "conv6_2_3_mbox_conf33"
  param {
    name: "conv6_2_conf3_w"
    lr_mult: 1.0
    decay_mult: 1.0
  }
  param {
    name: "conv6_2_conf3_b"
    lr_mult: 2.0
    decay_mult: 0.0
  }
  convolution_param {
    num_output: 12
    pad: 1
    kernel_size: 3
    stride: 1
    weight_filler {
      type: "xavier"
    }
    bias_filler {
      type: "constant"
      value: 0.0
    }
  }
}
layer {
  name: "conv6_2_3_mbox_conf33_perm"
  type: "Permute"
  bottom: "conv6_2_3_mbox_conf33"
  top: "conv6_2_3_mbox_conf33_perm"
  permute_param {
    order: 0
    order: 2
    order: 3
    order: 1
  }
}
layer {
  name: "conv6_2_3_mbox_conf33_flat"
  type: "Flatten"
  bottom: "conv6_2_3_mbox_conf33_perm"
  top: "conv6_2_3_mbox_conf33_flat"
  flatten_param {
    axis: 1
  }
}
layer {
  name: "conv7_2_3_mbox_loc30"
  type: "Convolution"
  bottom: "conv7_2_3"
  top: "conv7_2_3_mbox_loc30"
  param {
    name: "conv7_2_loc0_w"
    lr_mult: 1.0
    decay_mult: 1.0
  }
  param {
    name: "conv7_2_loc0_b"
    lr_mult: 2.0
    decay_mult: 0.0
  }
  convolution_param {
    num_output: 24
    pad: 1
    kernel_size: 3
    stride: 1
    weight_filler {
      type: "xavier"
    }
    bias_filler {
      type: "constant"
      value: 0.0
    }
  }
}
layer {
  name: "conv7_2_3_mbox_loc30_perm"
  type: "Permute"
  bottom: "conv7_2_3_mbox_loc30"
  top: "conv7_2_3_mbox_loc30_perm"
  permute_param {
    order: 0
    order: 2
    order: 3
    order: 1
  }
}
layer {
  name: "conv7_2_3_mbox_loc30_flat"
  type: "Flatten"
  bottom: "conv7_2_3_mbox_loc30_perm"
  top: "conv7_2_3_mbox_loc30_flat"
  flatten_param {
    axis: 1
  }
}
layer {
  name: "conv7_2_3_mbox_conf30"
  type: "Convolution"
  bottom: "conv7_2_3"
  top: "conv7_2_3_mbox_conf30"
  param {
    name: "conv7_2_conf0_w"
    lr_mult: 1.0
    decay_mult: 1.0
  }
  param {
    name: "conv7_2_conf0_b"
    lr_mult: 2.0
    decay_mult: 0.0
  }
  convolution_param {
    num_output: 12
    pad: 1
    kernel_size: 3
    stride: 1
    weight_filler {
      type: "xavier"
    }
    bias_filler {
      type: "constant"
      value: 0.0
    }
  }
}
layer {
  name: "conv7_2_3_mbox_conf30_perm"
  type: "Permute"
  bottom: "conv7_2_3_mbox_conf30"
  top: "conv7_2_3_mbox_conf30_perm"
  permute_param {
    order: 0
    order: 2
    order: 3
    order: 1
  }
}
layer {
  name: "conv7_2_3_mbox_conf30_flat"
  type: "Flatten"
  bottom: "conv7_2_3_mbox_conf30_perm"
  top: "conv7_2_3_mbox_conf30_flat"
  flatten_param {
    axis: 1
  }
}
layer {
  name: "conv7_2_3_mbox_loc31"
  type: "Convolution"
  bottom: "conv7_2_3"
  top: "conv7_2_3_mbox_loc31"
  param {
    name: "conv7_2_loc1_w"
    lr_mult: 1.0
    decay_mult: 1.0
  }
  param {
    name: "conv7_2_loc1_b"
    lr_mult: 2.0
    decay_mult: 0.0
  }
  convolution_param {
    num_output: 24
    pad: 1
    kernel_size: 3
    stride: 1
    weight_filler {
      type: "xavier"
    }
    bias_filler {
      type: "constant"
      value: 0.0
    }
  }
}
layer {
  name: "conv7_2_3_mbox_loc31_perm"
  type: "Permute"
  bottom: "conv7_2_3_mbox_loc31"
  top: "conv7_2_3_mbox_loc31_perm"
  permute_param {
    order: 0
    order: 2
    order: 3
    order: 1
  }
}
layer {
  name: "conv7_2_3_mbox_loc31_flat"
  type: "Flatten"
  bottom: "conv7_2_3_mbox_loc31_perm"
  top: "conv7_2_3_mbox_loc31_flat"
  flatten_param {
    axis: 1
  }
}
layer {
  name: "conv7_2_3_mbox_conf31"
  type: "Convolution"
  bottom: "conv7_2_3"
  top: "conv7_2_3_mbox_conf31"
  param {
    name: "conv7_2_conf1_w"
    lr_mult: 1.0
    decay_mult: 1.0
  }
  param {
    name: "conv7_2_conf1_b"
    lr_mult: 2.0
    decay_mult: 0.0
  }
  convolution_param {
    num_output: 12
    pad: 1
    kernel_size: 3
    stride: 1
    weight_filler {
      type: "xavier"
    }
    bias_filler {
      type: "constant"
      value: 0.0
    }
  }
}
layer {
  name: "conv7_2_3_mbox_conf31_perm"
  type: "Permute"
  bottom: "conv7_2_3_mbox_conf31"
  top: "conv7_2_3_mbox_conf31_perm"
  permute_param {
    order: 0
    order: 2
    order: 3
    order: 1
  }
}
layer {
  name: "conv7_2_3_mbox_conf31_flat"
  type: "Flatten"
  bottom: "conv7_2_3_mbox_conf31_perm"
  top: "conv7_2_3_mbox_conf31_flat"
  flatten_param {
    axis: 1
  }
}
layer {
  name: "conv7_2_3_mbox_loc32"
  type: "Convolution"
  bottom: "conv7_2_3"
  top: "conv7_2_3_mbox_loc32"
  param {
    name: "conv7_2_loc2_w"
    lr_mult: 1.0
    decay_mult: 1.0
  }
  param {
    name: "conv7_2_loc2_b"
    lr_mult: 2.0
    decay_mult: 0.0
  }
  convolution_param {
    num_output: 24
    pad: 1
    kernel_size: 3
    stride: 1
    weight_filler {
      type: "xavier"
    }
    bias_filler {
      type: "constant"
      value: 0.0
    }
  }
}
layer {
  name: "conv7_2_3_mbox_loc32_perm"
  type: "Permute"
  bottom: "conv7_2_3_mbox_loc32"
  top: "conv7_2_3_mbox_loc32_perm"
  permute_param {
    order: 0
    order: 2
    order: 3
    order: 1
  }
}
layer {
  name: "conv7_2_3_mbox_loc32_flat"
  type: "Flatten"
  bottom: "conv7_2_3_mbox_loc32_perm"
  top: "conv7_2_3_mbox_loc32_flat"
  flatten_param {
    axis: 1
  }
}
layer {
  name: "conv7_2_3_mbox_conf32"
  type: "Convolution"
  bottom: "conv7_2_3"
  top: "conv7_2_3_mbox_conf32"
  param {
    name: "conv7_2_conf2_w"
    lr_mult: 1.0
    decay_mult: 1.0
  }
  param {
    name: "conv7_2_conf2_b"
    lr_mult: 2.0
    decay_mult: 0.0
  }
  convolution_param {
    num_output: 12
    pad: 1
    kernel_size: 3
    stride: 1
    weight_filler {
      type: "xavier"
    }
    bias_filler {
      type: "constant"
      value: 0.0
    }
  }
}
layer {
  name: "conv7_2_3_mbox_conf32_perm"
  type: "Permute"
  bottom: "conv7_2_3_mbox_conf32"
  top: "conv7_2_3_mbox_conf32_perm"
  permute_param {
    order: 0
    order: 2
    order: 3
    order: 1
  }
}
layer {
  name: "conv7_2_3_mbox_conf32_flat"
  type: "Flatten"
  bottom: "conv7_2_3_mbox_conf32_perm"
  top: "conv7_2_3_mbox_conf32_flat"
  flatten_param {
    axis: 1
  }
}
layer {
  name: "conv7_2_3_mbox_loc33"
  type: "Convolution"
  bottom: "conv7_2_3"
  top: "conv7_2_3_mbox_loc33"
  param {
    name: "conv7_2_loc3_w"
    lr_mult: 1.0
    decay_mult: 1.0
  }
  param {
    name: "conv7_2_loc3_b"
    lr_mult: 2.0
    decay_mult: 0.0
  }
  convolution_param {
    num_output: 24
    pad: 1
    kernel_size: 3
    stride: 1
    weight_filler {
      type: "xavier"
    }
    bias_filler {
      type: "constant"
      value: 0.0
    }
  }
}
layer {
  name: "conv7_2_3_mbox_loc33_perm"
  type: "Permute"
  bottom: "conv7_2_3_mbox_loc33"
  top: "conv7_2_3_mbox_loc33_perm"
  permute_param {
    order: 0
    order: 2
    order: 3
    order: 1
  }
}
layer {
  name: "conv7_2_3_mbox_loc33_flat"
  type: "Flatten"
  bottom: "conv7_2_3_mbox_loc33_perm"
  top: "conv7_2_3_mbox_loc33_flat"
  flatten_param {
    axis: 1
  }
}
layer {
  name: "conv7_2_3_mbox_conf33"
  type: "Convolution"
  bottom: "conv7_2_3"
  top: "conv7_2_3_mbox_conf33"
  param {
    name: "conv7_2_conf3_w"
    lr_mult: 1.0
    decay_mult: 1.0
  }
  param {
    name: "conv7_2_conf3_b"
    lr_mult: 2.0
    decay_mult: 0.0
  }
  convolution_param {
    num_output: 12
    pad: 1
    kernel_size: 3
    stride: 1
    weight_filler {
      type: "xavier"
    }
    bias_filler {
      type: "constant"
      value: 0.0
    }
  }
}
layer {
  name: "conv7_2_3_mbox_conf33_perm"
  type: "Permute"
  bottom: "conv7_2_3_mbox_conf33"
  top: "conv7_2_3_mbox_conf33_perm"
  permute_param {
    order: 0
    order: 2
    order: 3
    order: 1
  }
}
layer {
  name: "conv7_2_3_mbox_conf33_flat"
  type: "Flatten"
  bottom: "conv7_2_3_mbox_conf33_perm"
  top: "conv7_2_3_mbox_conf33_flat"
  flatten_param {
    axis: 1
  }
}
layer {
  name: "conv8_2_3_mbox_loc30"
  type: "Convolution"
  bottom: "conv8_2_3"
  top: "conv8_2_3_mbox_loc30"
  param {
    name: "conv8_2_loc0_w"
    lr_mult: 1.0
    decay_mult: 1.0
  }
  param {
    name: "conv8_2_loc0_b"
    lr_mult: 2.0
    decay_mult: 0.0
  }
  convolution_param {
    num_output: 24
    pad: 1
    kernel_size: 3
    stride: 1
    weight_filler {
      type: "xavier"
    }
    bias_filler {
      type: "constant"
      value: 0.0
    }
  }
}
layer {
  name: "conv8_2_3_mbox_loc30_perm"
  type: "Permute"
  bottom: "conv8_2_3_mbox_loc30"
  top: "conv8_2_3_mbox_loc30_perm"
  permute_param {
    order: 0
    order: 2
    order: 3
    order: 1
  }
}
layer {
  name: "conv8_2_3_mbox_loc30_flat"
  type: "Flatten"
  bottom: "conv8_2_3_mbox_loc30_perm"
  top: "conv8_2_3_mbox_loc30_flat"
  flatten_param {
    axis: 1
  }
}
layer {
  name: "conv8_2_3_mbox_conf30"
  type: "Convolution"
  bottom: "conv8_2_3"
  top: "conv8_2_3_mbox_conf30"
  param {
    name: "conv8_2_conf0_w"
    lr_mult: 1.0
    decay_mult: 1.0
  }
  param {
    name: "conv8_2_conf0_b"
    lr_mult: 2.0
    decay_mult: 0.0
  }
  convolution_param {
    num_output: 12
    pad: 1
    kernel_size: 3
    stride: 1
    weight_filler {
      type: "xavier"
    }
    bias_filler {
      type: "constant"
      value: 0.0
    }
  }
}
layer {
  name: "conv8_2_3_mbox_conf30_perm"
  type: "Permute"
  bottom: "conv8_2_3_mbox_conf30"
  top: "conv8_2_3_mbox_conf30_perm"
  permute_param {
    order: 0
    order: 2
    order: 3
    order: 1
  }
}
layer {
  name: "conv8_2_3_mbox_conf30_flat"
  type: "Flatten"
  bottom: "conv8_2_3_mbox_conf30_perm"
  top: "conv8_2_3_mbox_conf30_flat"
  flatten_param {
    axis: 1
  }
}
layer {
  name: "mbox_loc3"
  type: "Concat"
  bottom: "conv4_3r_3_mbox_loc30_flat"
  bottom: "conv4_3r_3_mbox_loc31_flat"
  bottom: "conv4_3r_3_mbox_loc32_flat"
  bottom: "conv4_3r_3_mbox_loc33_flat"
  bottom: "fc7r_3_mbox_loc30_flat"
  bottom: "fc7r_3_mbox_loc31_flat"
  bottom: "fc7r_3_mbox_loc32_flat"
  bottom: "fc7r_3_mbox_loc33_flat"
  bottom: "conv6_2_3_mbox_loc30_flat"
  bottom: "conv6_2_3_mbox_loc31_flat"
  bottom: "conv6_2_3_mbox_loc32_flat"
  bottom: "conv6_2_3_mbox_loc33_flat"
  bottom: "conv7_2_3_mbox_loc30_flat"
  bottom: "conv7_2_3_mbox_loc31_flat"
  bottom: "conv7_2_3_mbox_loc32_flat"
  bottom: "conv7_2_3_mbox_loc33_flat"
  bottom: "conv8_2_3_mbox_loc30_flat"
  top: "mbox_loc3"
  concat_param {
    axis: 1
  }
}
layer {
  name: "mbox_conf3"
  type: "Concat"
  bottom: "conv4_3r_3_mbox_conf30_flat"
  bottom: "conv4_3r_3_mbox_conf31_flat"
  bottom: "conv4_3r_3_mbox_conf32_flat"
  bottom: "conv4_3r_3_mbox_conf33_flat"
  bottom: "fc7r_3_mbox_conf30_flat"
  bottom: "fc7r_3_mbox_conf31_flat"
  bottom: "fc7r_3_mbox_conf32_flat"
  bottom: "fc7r_3_mbox_conf33_flat"
  bottom: "conv6_2_3_mbox_conf30_flat"
  bottom: "conv6_2_3_mbox_conf31_flat"
  bottom: "conv6_2_3_mbox_conf32_flat"
  bottom: "conv6_2_3_mbox_conf33_flat"
  bottom: "conv7_2_3_mbox_conf30_flat"
  bottom: "conv7_2_3_mbox_conf31_flat"
  bottom: "conv7_2_3_mbox_conf32_flat"
  bottom: "conv7_2_3_mbox_conf33_flat"
  bottom: "conv8_2_3_mbox_conf30_flat"
  top: "mbox_conf3"
  concat_param {
    axis: 1
  }
}
layer {
  name: "mbox_loss3"
  type: "MultiBoxLoss"
  bottom: "mbox_loc3"
  bottom: "mbox_conf3"
  bottom: "mbox_priorbox"
  bottom: "label"
  top: "mbox_loss3"
  include {
    phase: TRAIN
  }
  propagate_down: true
  propagate_down: true
  propagate_down: false
  propagate_down: false
  loss_param {
    normalization: VALID
  }
  multibox_loss_param {
    loc_loss_type: SMOOTH_L1
    conf_loss_type: SOFTMAX
    loc_weight: 2.0
    num_classes: 2
    share_location: true
    match_type: PER_PREDICTION
    overlap_threshold: 0.699999988079071
    use_prior_for_matching: true
    background_label_id: 0
    use_difficult_gt: true
    do_neg_mining: true
    neg_pos_ratio: 3.0
    neg_overlap: 0.5
    code_type: CENTER_SIZE
  }
}
layer {
  name: "fc7r_l3"
  type: "Convolution"
  bottom: "fc7r_3"
  top: "fc7r_l3"
  param {
    name: "fc7r_l_w"
    lr_mult: 1.0
    decay_mult: 1.0
  }
  param {
    name: "fc7r_l_b"
    lr_mult: 2.0
    decay_mult: 0.0
  }
  convolution_param {
    num_output: 19
    kernel_size: 1
    stride: 1
    weight_filler {
      type: "xavier"
    }
    bias_filler {
      type: "constant"
      value: 0.0
    }
  }
}
layer {
  name: "relu_fc7r_l3"
  type: "ReLU"
  bottom: "fc7r_l3"
  top: "fc7r_l3"
}
layer {
  name: "fc7r_l3_deconv"
  type: "Deconvolution"
  bottom: "fc7r_l3"
  top: "fc7r_l3_deconv"
  param {
    lr_mult: 0.0
    decay_mult: 0.0
  }
  convolution_param {
    num_output: 19
    bias_term: false
    pad: 1
    kernel_size: 4
    group: 19
    stride: 2
    weight_filler {
      type: "bilinear"
    }
  }
}
layer {
  name: "conv4_3r_concat_3"
  type: "Concat"
  bottom: "conv4_3r_3"
  bottom: "fc7r_l3_deconv"
  top: "conv4_3r_concat_3"
  concat_param {
    axis: 1
  }
}
layer {
  name: "conv4_3r_4"
  type: "Convolution"
  bottom: "conv4_3r_concat_3"
  top: "conv4_3r_4"
  param {
    name: "conv4_3r_cw"
    lr_mult: 1.0
    decay_mult: 1.0
  }
  param {
    name: "conv4_3r_cb"
    lr_mult: 2.0
    decay_mult: 0.0
  }
  convolution_param {
    num_output: 256
    kernel_size: 1
    stride: 1
    weight_filler {
      type: "xavier"
    }
    bias_filler {
      type: "constant"
      value: 0.0
    }
  }
}
layer {
  name: "relu_conv4_3r_4"
  type: "ReLU"
  bottom: "conv4_3r_4"
  top: "conv4_3r_4"
}
layer {
  name: "conv4_3r_r3"
  type: "Convolution"
  bottom: "conv4_3r_3"
  top: "conv4_3r_r3"
  param {
    name: "conv4_3r_r_w"
    lr_mult: 1.0
    decay_mult: 1.0
  }
  param {
    name: "conv4_3r_r_b"
    lr_mult: 2.0
    decay_mult: 0.0
  }
  convolution_param {
    num_output: 19
    kernel_size: 1
    stride: 1
    weight_filler {
      type: "xavier"
    }
    bias_filler {
      type: "constant"
      value: 0.0
    }
  }
}
layer {
  name: "relu_conv4_3r_r3"
  type: "ReLU"
  bottom: "conv4_3r_r3"
  top: "conv4_3r_r3"
}
layer {
  name: "pool_conv4_3r_r3"
  type: "Pooling"
  bottom: "conv4_3r_r3"
  top: "conv4_3r_r3"
  pooling_param {
    pool: MAX
    kernel_size: 2
    stride: 2
  }
}
layer {
  name: "conv6_2_l3"
  type: "Convolution"
  bottom: "conv6_2_3"
  top: "conv6_2_l3"
  param {
    name: "conv6_2_l_w"
    lr_mult: 1.0
    decay_mult: 1.0
  }
  param {
    name: "conv6_2_l_b"
    lr_mult: 2.0
    decay_mult: 0.0
  }
  convolution_param {
    num_output: 19
    kernel_size: 1
    stride: 1
    weight_filler {
      type: "xavier"
    }
    bias_filler {
      type: "constant"
      value: 0.0
    }
  }
}
layer {
  name: "relu_conv6_2_l3"
  type: "ReLU"
  bottom: "conv6_2_l3"
  top: "conv6_2_l3"
}
layer {
  name: "conv6_2_l3_deconv"
  type: "Deconvolution"
  bottom: "conv6_2_l3"
  top: "conv6_2_l3_deconv"
  param {
    lr_mult: 0.0
    decay_mult: 0.0
  }
  convolution_param {
    num_output: 19
    bias_term: false
    pad: 1
    kernel_size: 4
    group: 19
    stride: 2
    weight_filler {
      type: "bilinear"
    }
  }
}
layer {
  name: "fc7r_concat_3"
  type: "Concat"
  bottom: "conv4_3r_r3"
  bottom: "fc7r_3"
  bottom: "conv6_2_l3_deconv"
  top: "fc7r_concat_3"
  concat_param {
    axis: 1
  }
}
layer {
  name: "fc7r_4"
  type: "Convolution"
  bottom: "fc7r_concat_3"
  top: "fc7r_4"
  param {
    name: "fc7r_cw"
    lr_mult: 1.0
    decay_mult: 1.0
  }
  param {
    name: "fc7r_cb"
    lr_mult: 2.0
    decay_mult: 0.0
  }
  convolution_param {
    num_output: 256
    kernel_size: 1
    stride: 1
    weight_filler {
      type: "xavier"
    }
    bias_filler {
      type: "constant"
      value: 0.0
    }
  }
}
layer {
  name: "relu_fc7r_4"
  type: "ReLU"
  bottom: "fc7r_4"
  top: "fc7r_4"
}
layer {
  name: "fc7r_r3"
  type: "Convolution"
  bottom: "fc7r_3"
  top: "fc7r_r3"
  param {
    name: "fc7r_r_w"
    lr_mult: 1.0
    decay_mult: 1.0
  }
  param {
    name: "fc7r_r_b"
    lr_mult: 2.0
    decay_mult: 0.0
  }
  convolution_param {
    num_output: 19
    kernel_size: 1
    stride: 1
    weight_filler {
      type: "xavier"
    }
    bias_filler {
      type: "constant"
      value: 0.0
    }
  }
}
layer {
  name: "relu_fc7r_r3"
  type: "ReLU"
  bottom: "fc7r_r3"
  top: "fc7r_r3"
}
layer {
  name: "pool_fc7r_r3"
  type: "Pooling"
  bottom: "fc7r_r3"
  top: "fc7r_r3"
  pooling_param {
    pool: MAX
    kernel_size: 2
    stride: 2
  }
}
layer {
  name: "conv7_2_l3"
  type: "Convolution"
  bottom: "conv7_2_3"
  top: "conv7_2_l3"
  param {
    name: "conv7_2_l_w"
    lr_mult: 1.0
    decay_mult: 1.0
  }
  param {
    name: "conv7_2_l_b"
    lr_mult: 2.0
    decay_mult: 0.0
  }
  convolution_param {
    num_output: 19
    kernel_size: 1
    stride: 1
    weight_filler {
      type: "xavier"
    }
    bias_filler {
      type: "constant"
      value: 0.0
    }
  }
}
layer {
  name: "relu_conv7_2_l3"
  type: "ReLU"
  bottom: "conv7_2_l3"
  top: "conv7_2_l3"
}
layer {
  name: "conv7_2_l3_deconv"
  type: "Deconvolution"
  bottom: "conv7_2_l3"
  top: "conv7_2_l3_deconv"
  param {
    lr_mult: 0.0
    decay_mult: 0.0
  }
  convolution_param {
    num_output: 19
    bias_term: false
    pad: 1
    kernel_size: 4
    group: 19
    stride: 2
    weight_filler {
      type: "bilinear"
    }
  }
}
layer {
  name: "conv6_2_concat_3"
  type: "Concat"
  bottom: "fc7r_r3"
  bottom: "conv6_2_3"
  bottom: "conv7_2_l3_deconv"
  top: "conv6_2_concat_3"
  concat_param {
    axis: 1
  }
}
layer {
  name: "conv6_2_4"
  type: "Convolution"
  bottom: "conv6_2_concat_3"
  top: "conv6_2_4"
  param {
    name: "conv6_2_cw"
    lr_mult: 1.0
    decay_mult: 1.0
  }
  param {
    name: "conv6_2_cb"
    lr_mult: 2.0
    decay_mult: 0.0
  }
  convolution_param {
    num_output: 256
    kernel_size: 1
    stride: 1
    weight_filler {
      type: "xavier"
    }
    bias_filler {
      type: "constant"
      value: 0.0
    }
  }
}
layer {
  name: "relu_conv6_2_4"
  type: "ReLU"
  bottom: "conv6_2_4"
  top: "conv6_2_4"
}
layer {
  name: "conv6_2_r3"
  type: "Convolution"
  bottom: "conv6_2_3"
  top: "conv6_2_r3"
  param {
    name: "conv6_2_r_w"
    lr_mult: 1.0
    decay_mult: 1.0
  }
  param {
    name: "conv6_2_r_b"
    lr_mult: 2.0
    decay_mult: 0.0
  }
  convolution_param {
    num_output: 19
    kernel_size: 1
    stride: 1
    weight_filler {
      type: "xavier"
    }
    bias_filler {
      type: "constant"
      value: 0.0
    }
  }
}
layer {
  name: "relu_conv6_2_r3"
  type: "ReLU"
  bottom: "conv6_2_r3"
  top: "conv6_2_r3"
}
layer {
  name: "pool_conv6_2_r3"
  type: "Pooling"
  bottom: "conv6_2_r3"
  top: "conv6_2_r3"
  pooling_param {
    pool: MAX
    kernel_size: 2
    stride: 2
  }
}
layer {
  name: "conv8_2_l3"
  type: "Convolution"
  bottom: "conv8_2_3"
  top: "conv8_2_l3"
  param {
    name: "conv8_2_l_w"
    lr_mult: 1.0
    decay_mult: 1.0
  }
  param {
    name: "conv8_2_l_b"
    lr_mult: 2.0
    decay_mult: 0.0
  }
  convolution_param {
    num_output: 19
    kernel_size: 1
    stride: 1
    weight_filler {
      type: "xavier"
    }
    bias_filler {
      type: "constant"
      value: 0.0
    }
  }
}
layer {
  name: "relu_conv8_2_l3"
  type: "ReLU"
  bottom: "conv8_2_l3"
  top: "conv8_2_l3"
}
layer {
  name: "conv8_2_l3_deconv"
  type: "Deconvolution"
  bottom: "conv8_2_l3"
  top: "conv8_2_l3_deconv"
  param {
    lr_mult: 0.0
    decay_mult: 0.0
  }
  convolution_param {
    num_output: 19
    bias_term: false
    pad: 1
    kernel_size: 4
    group: 19
    stride: 2
    weight_filler {
      type: "bilinear"
    }
  }
}
layer {
  name: "conv7_2_concat_3"
  type: "Concat"
  bottom: "conv6_2_r3"
  bottom: "conv7_2_3"
  bottom: "conv8_2_l3_deconv"
  top: "conv7_2_concat_3"
  concat_param {
    axis: 1
  }
}
layer {
  name: "conv7_2_4"
  type: "Convolution"
  bottom: "conv7_2_concat_3"
  top: "conv7_2_4"
  param {
    name: "conv7_2_cw"
    lr_mult: 1.0
    decay_mult: 1.0
  }
  param {
    name: "conv7_2_cb"
    lr_mult: 2.0
    decay_mult: 0.0
  }
  convolution_param {
    num_output: 256
    kernel_size: 1
    stride: 1
    weight_filler {
      type: "xavier"
    }
    bias_filler {
      type: "constant"
      value: 0.0
    }
  }
}
layer {
  name: "relu_conv7_2_4"
  type: "ReLU"
  bottom: "conv7_2_4"
  top: "conv7_2_4"
}
layer {
  name: "conv7_2_r3"
  type: "Convolution"
  bottom: "conv7_2_3"
  top: "conv7_2_r3"
  param {
    name: "conv7_2_r_w"
    lr_mult: 1.0
    decay_mult: 1.0
  }
  param {
    name: "conv7_2_r_b"
    lr_mult: 2.0
    decay_mult: 0.0
  }
  convolution_param {
    num_output: 19
    kernel_size: 1
    stride: 1
    weight_filler {
      type: "xavier"
    }
    bias_filler {
      type: "constant"
      value: 0.0
    }
  }
}
layer {
  name: "relu_conv7_2_r3"
  type: "ReLU"
  bottom: "conv7_2_r3"
  top: "conv7_2_r3"
}
layer {
  name: "pool_conv7_2_r3"
  type: "Pooling"
  bottom: "conv7_2_r3"
  top: "conv7_2_r3"
  pooling_param {
    pool: MAX
    kernel_size: 2
    stride: 2
  }
}
layer {
  name: "conv8_2_concat_3"
  type: "Concat"
  bottom: "conv7_2_r3"
  bottom: "conv8_2_3"
  top: "conv8_2_concat_3"
  concat_param {
    axis: 1
  }
}
layer {
  name: "conv8_2_4"
  type: "Convolution"
  bottom: "conv8_2_concat_3"
  top: "conv8_2_4"
  param {
    name: "conv8_2_cw"
    lr_mult: 1.0
    decay_mult: 1.0
  }
  param {
    name: "conv8_2_cb"
    lr_mult: 2.0
    decay_mult: 0.0
  }
  convolution_param {
    num_output: 256
    kernel_size: 1
    stride: 1
    weight_filler {
      type: "xavier"
    }
    bias_filler {
      type: "constant"
      value: 0.0
    }
  }
}
layer {
  name: "relu_conv8_2_4"
  type: "ReLU"
  bottom: "conv8_2_4"
  top: "conv8_2_4"
}
layer {
  name: "conv4_3r_4_mbox_loc40"
  type: "Convolution"
  bottom: "conv4_3r_4"
  top: "conv4_3r_4_mbox_loc40"
  param {
    name: "conv4_3r_loc0_w"
    lr_mult: 1.0
    decay_mult: 1.0
  }
  param {
    name: "conv4_3r_loc0_b"
    lr_mult: 2.0
    decay_mult: 0.0
  }
  convolution_param {
    num_output: 12
    pad: 1
    kernel_size: 3
    stride: 1
    weight_filler {
      type: "xavier"
    }
    bias_filler {
      type: "constant"
      value: 0.0
    }
  }
}
layer {
  name: "conv4_3r_4_mbox_loc40_perm"
  type: "Permute"
  bottom: "conv4_3r_4_mbox_loc40"
  top: "conv4_3r_4_mbox_loc40_perm"
  permute_param {
    order: 0
    order: 2
    order: 3
    order: 1
  }
}
layer {
  name: "conv4_3r_4_mbox_loc40_flat"
  type: "Flatten"
  bottom: "conv4_3r_4_mbox_loc40_perm"
  top: "conv4_3r_4_mbox_loc40_flat"
  flatten_param {
    axis: 1
  }
}
layer {
  name: "conv4_3r_4_mbox_conf40"
  type: "Convolution"
  bottom: "conv4_3r_4"
  top: "conv4_3r_4_mbox_conf40"
  param {
    name: "conv4_3r_conf0_w"
    lr_mult: 1.0
    decay_mult: 1.0
  }
  param {
    name: "conv4_3r_conf0_b"
    lr_mult: 2.0
    decay_mult: 0.0
  }
  convolution_param {
    num_output: 6
    pad: 1
    kernel_size: 3
    stride: 1
    weight_filler {
      type: "xavier"
    }
    bias_filler {
      type: "constant"
      value: 0.0
    }
  }
}
layer {
  name: "conv4_3r_4_mbox_conf40_perm"
  type: "Permute"
  bottom: "conv4_3r_4_mbox_conf40"
  top: "conv4_3r_4_mbox_conf40_perm"
  permute_param {
    order: 0
    order: 2
    order: 3
    order: 1
  }
}
layer {
  name: "conv4_3r_4_mbox_conf40_flat"
  type: "Flatten"
  bottom: "conv4_3r_4_mbox_conf40_perm"
  top: "conv4_3r_4_mbox_conf40_flat"
  flatten_param {
    axis: 1
  }
}
layer {
  name: "conv4_3r_4_mbox_loc41"
  type: "Convolution"
  bottom: "conv4_3r_4"
  top: "conv4_3r_4_mbox_loc41"
  param {
    name: "conv4_3r_loc1_w"
    lr_mult: 1.0
    decay_mult: 1.0
  }
  param {
    name: "conv4_3r_loc1_b"
    lr_mult: 2.0
    decay_mult: 0.0
  }
  convolution_param {
    num_output: 12
    pad: 1
    kernel_size: 3
    stride: 1
    weight_filler {
      type: "xavier"
    }
    bias_filler {
      type: "constant"
      value: 0.0
    }
  }
}
layer {
  name: "conv4_3r_4_mbox_loc41_perm"
  type: "Permute"
  bottom: "conv4_3r_4_mbox_loc41"
  top: "conv4_3r_4_mbox_loc41_perm"
  permute_param {
    order: 0
    order: 2
    order: 3
    order: 1
  }
}
layer {
  name: "conv4_3r_4_mbox_loc41_flat"
  type: "Flatten"
  bottom: "conv4_3r_4_mbox_loc41_perm"
  top: "conv4_3r_4_mbox_loc41_flat"
  flatten_param {
    axis: 1
  }
}
layer {
  name: "conv4_3r_4_mbox_conf41"
  type: "Convolution"
  bottom: "conv4_3r_4"
  top: "conv4_3r_4_mbox_conf41"
  param {
    name: "conv4_3r_conf1_w"
    lr_mult: 1.0
    decay_mult: 1.0
  }
  param {
    name: "conv4_3r_conf1_b"
    lr_mult: 2.0
    decay_mult: 0.0
  }
  convolution_param {
    num_output: 6
    pad: 1
    kernel_size: 3
    stride: 1
    weight_filler {
      type: "xavier"
    }
    bias_filler {
      type: "constant"
      value: 0.0
    }
  }
}
layer {
  name: "conv4_3r_4_mbox_conf41_perm"
  type: "Permute"
  bottom: "conv4_3r_4_mbox_conf41"
  top: "conv4_3r_4_mbox_conf41_perm"
  permute_param {
    order: 0
    order: 2
    order: 3
    order: 1
  }
}
layer {
  name: "conv4_3r_4_mbox_conf41_flat"
  type: "Flatten"
  bottom: "conv4_3r_4_mbox_conf41_perm"
  top: "conv4_3r_4_mbox_conf41_flat"
  flatten_param {
    axis: 1
  }
}
layer {
  name: "conv4_3r_4_mbox_loc42"
  type: "Convolution"
  bottom: "conv4_3r_4"
  top: "conv4_3r_4_mbox_loc42"
  param {
    name: "conv4_3r_loc2_w"
    lr_mult: 1.0
    decay_mult: 1.0
  }
  param {
    name: "conv4_3r_loc2_b"
    lr_mult: 2.0
    decay_mult: 0.0
  }
  convolution_param {
    num_output: 12
    pad: 1
    kernel_size: 3
    stride: 1
    weight_filler {
      type: "xavier"
    }
    bias_filler {
      type: "constant"
      value: 0.0
    }
  }
}
layer {
  name: "conv4_3r_4_mbox_loc42_perm"
  type: "Permute"
  bottom: "conv4_3r_4_mbox_loc42"
  top: "conv4_3r_4_mbox_loc42_perm"
  permute_param {
    order: 0
    order: 2
    order: 3
    order: 1
  }
}
layer {
  name: "conv4_3r_4_mbox_loc42_flat"
  type: "Flatten"
  bottom: "conv4_3r_4_mbox_loc42_perm"
  top: "conv4_3r_4_mbox_loc42_flat"
  flatten_param {
    axis: 1
  }
}
layer {
  name: "conv4_3r_4_mbox_conf42"
  type: "Convolution"
  bottom: "conv4_3r_4"
  top: "conv4_3r_4_mbox_conf42"
  param {
    name: "conv4_3r_conf2_w"
    lr_mult: 1.0
    decay_mult: 1.0
  }
  param {
    name: "conv4_3r_conf2_b"
    lr_mult: 2.0
    decay_mult: 0.0
  }
  convolution_param {
    num_output: 6
    pad: 1
    kernel_size: 3
    stride: 1
    weight_filler {
      type: "xavier"
    }
    bias_filler {
      type: "constant"
      value: 0.0
    }
  }
}
layer {
  name: "conv4_3r_4_mbox_conf42_perm"
  type: "Permute"
  bottom: "conv4_3r_4_mbox_conf42"
  top: "conv4_3r_4_mbox_conf42_perm"
  permute_param {
    order: 0
    order: 2
    order: 3
    order: 1
  }
}
layer {
  name: "conv4_3r_4_mbox_conf42_flat"
  type: "Flatten"
  bottom: "conv4_3r_4_mbox_conf42_perm"
  top: "conv4_3r_4_mbox_conf42_flat"
  flatten_param {
    axis: 1
  }
}
layer {
  name: "conv4_3r_4_mbox_loc43"
  type: "Convolution"
  bottom: "conv4_3r_4"
  top: "conv4_3r_4_mbox_loc43"
  param {
    name: "conv4_3r_loc3_w"
    lr_mult: 1.0
    decay_mult: 1.0
  }
  param {
    name: "conv4_3r_loc3_b"
    lr_mult: 2.0
    decay_mult: 0.0
  }
  convolution_param {
    num_output: 12
    pad: 1
    kernel_size: 3
    stride: 1
    weight_filler {
      type: "xavier"
    }
    bias_filler {
      type: "constant"
      value: 0.0
    }
  }
}
layer {
  name: "conv4_3r_4_mbox_loc43_perm"
  type: "Permute"
  bottom: "conv4_3r_4_mbox_loc43"
  top: "conv4_3r_4_mbox_loc43_perm"
  permute_param {
    order: 0
    order: 2
    order: 3
    order: 1
  }
}
layer {
  name: "conv4_3r_4_mbox_loc43_flat"
  type: "Flatten"
  bottom: "conv4_3r_4_mbox_loc43_perm"
  top: "conv4_3r_4_mbox_loc43_flat"
  flatten_param {
    axis: 1
  }
}
layer {
  name: "conv4_3r_4_mbox_conf43"
  type: "Convolution"
  bottom: "conv4_3r_4"
  top: "conv4_3r_4_mbox_conf43"
  param {
    name: "conv4_3r_conf3_w"
    lr_mult: 1.0
    decay_mult: 1.0
  }
  param {
    name: "conv4_3r_conf3_b"
    lr_mult: 2.0
    decay_mult: 0.0
  }
  convolution_param {
    num_output: 6
    pad: 1
    kernel_size: 3
    stride: 1
    weight_filler {
      type: "xavier"
…
    order: 2
    order: 3
    order: 1
  }
}
layer {
  name: "conv7_2_4_mbox_conf40_flat"
  type: "Flatten"
  bottom: "conv7_2_4_mbox_conf40_perm"
  top: "conv7_2_4_mbox_conf40_flat"
  flatten_param {
    axis: 1
  }
}
layer {
  name: "conv7_2_4_mbox_loc41"
  type: "Convolution"
  bottom: "conv7_2_4"
  top: "conv7_2_4_mbox_loc41"
  param {
    name: "conv7_2_loc1_w"
    lr_mult: 1.0
    decay_mult: 1.0
  }
  param {
    name: "conv7_2_loc1_b"
    lr_mult: 2.0
    decay_mult: 0.0
  }
  convolution_param {
    num_output: 24
    pad: 1
    kernel_size: 3
    stride: 1
    weight_filler {
      type: "xavier"
    }
    bias_filler {
      type: "constant"
      value: 0.0
    }
  }
}
layer {
  name: "conv7_2_4_mbox_loc41_perm"
  type: "Permute"
  bottom: "conv7_2_4_mbox_loc41"
  top: "conv7_2_4_mbox_loc41_perm"
  permute_param {
    order: 0
    order: 2
    order: 3
    order: 1
  }
}
layer {
  name: "conv7_2_4_mbox_loc41_flat"
  type: "Flatten"
  bottom: "conv7_2_4_mbox_loc41_perm"
  top: "conv7_2_4_mbox_loc41_flat"
  flatten_param {
    axis: 1
  }
}
layer {
  name: "conv7_2_4_mbox_conf41"
  type: "Convolution"
  bottom: "conv7_2_4"
  top: "conv7_2_4_mbox_conf41"
  param {
    name: "conv7_2_conf1_w"
    lr_mult: 1.0
    decay_mult: 1.0
  }
  param {
    name: "conv7_2_conf1_b"
    lr_mult: 2.0
    decay_mult: 0.0
  }
  convolution_param {
    num_output: 12
    pad: 1
    kernel_size: 3
    stride: 1
    weight_filler {
      type: "xavier"
    }
    bias_filler {
      type: "constant"
      value: 0.0
    }
  }
}
layer {
  name: "conv7_2_4_mbox_conf41_perm"
  type: "Permute"
  bottom: "conv7_2_4_mbox_conf41"
  top: "conv7_2_4_mbox_conf41_perm"
  permute_param {
    order: 0
    order: 2
    order: 3
    order: 1
  }
}
layer {
  name: "conv7_2_4_mbox_conf41_flat"
  type: "Flatten"
  bottom: "conv7_2_4_mbox_conf41_perm"
  top: "conv7_2_4_mbox_conf41_flat"
  flatten_param {
    axis: 1
  }
}
layer {
  name: "conv7_2_4_mbox_loc42"
  type: "Convolution"
  bottom: "conv7_2_4"
  top: "conv7_2_4_mbox_loc42"
  param {
    name: "conv7_2_loc2_w"
    lr_mult: 1.0
    decay_mult: 1.0
  }
  param {
    name: "conv7_2_loc2_b"
    lr_mult: 2.0
    decay_mult: 0.0
  }
  convolution_param {
    num_output: 24
    pad: 1
    kernel_size: 3
    stride: 1
    weight_filler {
      type: "xavier"
    }
    bias_filler {
      type: "constant"
      value: 0.0
    }
  }
}
layer {
  name: "conv7_2_4_mbox_loc42_perm"
  type: "Permute"
  bottom: "conv7_2_4_mbox_loc42"
  top: "conv7_2_4_mbox_loc42_perm"
  permute_param {
    order: 0
    order: 2
    order: 3
    order: 1
  }
}
layer {
  name: "conv7_2_4_mbox_loc42_flat"
  type: "Flatten"
  bottom: "conv7_2_4_mbox_loc42_perm"
  top: "conv7_2_4_mbox_loc42_flat"
  flatten_param {
    axis: 1
  }
}
layer {
  name: "conv7_2_4_mbox_conf42"
  type: "Convolution"
  bottom: "conv7_2_4"
  top: "conv7_2_4_mbox_conf42"
  param {
    name: "conv7_2_conf2_w"
    lr_mult: 1.0
    decay_mult: 1.0
  }
  param {
    name: "conv7_2_conf2_b"
    lr_mult: 2.0
    decay_mult: 0.0
  }
  convolution_param {
    num_output: 12
    pad: 1
    kernel_size: 3
    stride: 1
    weight_filler {
      type: "xavier"
    }
    bias_filler {
      type: "constant"
      value: 0.0
    }
  }
}
layer {
  name: "conv7_2_4_mbox_conf42_perm"
  type: "Permute"
  bottom: "conv7_2_4_mbox_conf42"
  top: "conv7_2_4_mbox_conf42_perm"
  permute_param {
    order: 0
    order: 2
    order: 3
    order: 1
  }
}
layer {
  name: "conv7_2_4_mbox_conf42_flat"
  type: "Flatten"
  bottom: "conv7_2_4_mbox_conf42_perm"
  top: "conv7_2_4_mbox_conf42_flat"
  flatten_param {
    axis: 1
  }
}
layer {
  name: "conv7_2_4_mbox_loc43"
  type: "Convolution"
  bottom: "conv7_2_4"
  top: "conv7_2_4_mbox_loc43"
  param {
    name: "conv7_2_loc3_w"
    lr_mult: 1.0
    decay_mult: 1.0
  }
  param {
    name: "conv7_2_loc3_b"
    lr_mult: 2.0
    decay_mult: 0.0
  }
  convolution_param {
    num_output: 24
    pad: 1
    kernel_size: 3
    stride: 1
    weight_filler {
      type: "xavier"
    }
    bias_filler {
      type: "constant"
      value: 0.0
    }
  }
}
layer {
  name: "conv7_2_4_mbox_loc43_perm"
  type: "Permute"
  bottom: "conv7_2_4_mbox_loc43"
  top: "conv7_2_4_mbox_loc43_perm"
  permute_param {
    order: 0
    order: 2
    order: 3
    order: 1
  }
}
layer {
  name: "conv7_2_4_mbox_loc43_flat"
  type: "Flatten"
  bottom: "conv7_2_4_mbox_loc43_perm"
  top: "conv7_2_4_mbox_loc43_flat"
  flatten_param {
    axis: 1
  }
}
layer {
  name: "conv7_2_4_mbox_conf43"
  type: "Convolution"
  bottom: "conv7_2_4"
  top: "conv7_2_4_mbox_conf43"
  param {
    name: "conv7_2_conf3_w"
    lr_mult: 1.0
    decay_mult: 1.0
  }
  param {
    name: "conv7_2_conf3_b"
    lr_mult: 2.0
    decay_mult: 0.0
  }
  convolution_param {
    num_output: 12
    pad: 1
    kernel_size: 3
    stride: 1
    weight_filler {
      type: "xavier"
    }
    bias_filler {
      type: "constant"
      value: 0.0
    }
  }
}
layer {
  name: "conv7_2_4_mbox_conf43_perm"
  type: "Permute"
  bottom: "conv7_2_4_mbox_conf43"
  top: "conv7_2_4_mbox_conf43_perm"
  permute_param {
    order: 0
    order: 2
    order: 3
    order: 1
  }
}
layer {
  name: "conv7_2_4_mbox_conf43_flat"
  type: "Flatten"
  bottom: "conv7_2_4_mbox_conf43_perm"
  top: "conv7_2_4_mbox_conf43_flat"
  flatten_param {
    axis: 1
  }
}
layer {
  name: "conv8_2_4_mbox_loc40"
  type: "Convolution"
  bottom: "conv8_2_4"
  top: "conv8_2_4_mbox_loc40"
  param {
    name: "conv8_2_loc0_w"
    lr_mult: 1.0
    decay_mult: 1.0
  }
  param {
    name: "conv8_2_loc0_b"
    lr_mult: 2.0
    decay_mult: 0.0
  }
  convolution_param {
    num_output: 24
    pad: 1
    kernel_size: 3
    stride: 1
    weight_filler {
      type: "xavier"
    }
    bias_filler {
      type: "constant"
      value: 0.0
    }
  }
}
layer {
  name: "conv8_2_4_mbox_loc40_perm"
  type: "Permute"
  bottom: "conv8_2_4_mbox_loc40"
  top: "conv8_2_4_mbox_loc40_perm"
  permute_param {
    order: 0
    order: 2
    order: 3
    order: 1
  }
}
layer {
  name: "conv8_2_4_mbox_loc40_flat"
  type: "Flatten"
  bottom: "conv8_2_4_mbox_loc40_perm"
  top: "conv8_2_4_mbox_loc40_flat"
  flatten_param {
    axis: 1
  }
}
layer {
  name: "conv8_2_4_mbox_conf40"
  type: "Convolution"
  bottom: "conv8_2_4"
  top: "conv8_2_4_mbox_conf40"
  param {
    name: "conv8_2_conf0_w"
    lr_mult: 1.0
    decay_mult: 1.0
  }
  param {
    name: "conv8_2_conf0_b"
    lr_mult: 2.0
    decay_mult: 0.0
  }
  convolution_param {
    num_output: 12
    pad: 1
    kernel_size: 3
    stride: 1
    weight_filler {
      type: "xavier"
    }
    bias_filler {
      type: "constant"
      value: 0.0
    }
  }
}
layer {
  name: "conv8_2_4_mbox_conf40_perm"
  type: "Permute"
  bottom: "conv8_2_4_mbox_conf40"
  top: "conv8_2_4_mbox_conf40_perm"
  permute_param {
    order: 0
    order: 2
    order: 3
    order: 1
  }
}
layer {
  name: "conv8_2_4_mbox_conf40_flat"
  type: "Flatten"
  bottom: "conv8_2_4_mbox_conf40_perm"
  top: "conv8_2_4_mbox_conf40_flat"
  flatten_param {
    axis: 1
  }
}
layer {
  name: "mbox_loc4"
  type: "Concat"
  bottom: "conv4_3r_4_mbox_loc40_flat"
  bottom: "conv4_3r_4_mbox_loc41_flat"
  bottom: "conv4_3r_4_mbox_loc42_flat"
  bottom: "conv4_3r_4_mbox_loc43_flat"
  bottom: "fc7r_4_mbox_loc40_flat"
  bottom: "fc7r_4_mbox_loc41_flat"
  bottom: "fc7r_4_mbox_loc42_flat"
  bottom: "fc7r_4_mbox_loc43_flat"
  bottom: "conv6_2_4_mbox_loc40_flat"
  bottom: "conv6_2_4_mbox_loc41_flat"
  bottom: "conv6_2_4_mbox_loc42_flat"
  bottom: "conv6_2_4_mbox_loc43_flat"
  bottom: "conv7_2_4_mbox_loc40_flat"
  bottom: "conv7_2_4_mbox_loc41_flat"
  bottom: "conv7_2_4_mbox_loc42_flat"
  bottom: "conv7_2_4_mbox_loc43_flat"
  bottom: "conv8_2_4_mbox_loc40_flat"
  top: "mbox_loc4"
  concat_param {
    axis: 1
  }
}
layer {
  name: "mbox_conf4"
  type: "Concat"
  bottom: "conv4_3r_4_mbox_conf40_flat"
  bottom: "conv4_3r_4_mbox_conf41_flat"
  bottom: "conv4_3r_4_mbox_conf42_flat"
  bottom: "conv4_3r_4_mbox_conf43_flat"
  bottom: "fc7r_4_mbox_conf40_flat"
  bottom: "fc7r_4_mbox_conf41_flat"
  bottom: "fc7r_4_mbox_conf42_flat"
  bottom: "fc7r_4_mbox_conf43_flat"
  bottom: "conv6_2_4_mbox_conf40_flat"
  bottom: "conv6_2_4_mbox_conf41_flat"
  bottom: "conv6_2_4_mbox_conf42_flat"
  bottom: "conv6_2_4_mbox_conf43_flat"
  bottom: "conv7_2_4_mbox_conf40_flat"
  bottom: "conv7_2_4_mbox_conf41_flat"
  bottom: "conv7_2_4_mbox_conf42_flat"
  bottom: "conv7_2_4_mbox_conf43_flat"
  bottom: "conv8_2_4_mbox_conf40_flat"
  top: "mbox_conf4"
  concat_param {
    axis: 1
  }
}
layer {
  name: "mbox_loss4"
  type: "MultiBoxLoss"
  bottom: "mbox_loc4"
  bottom: "mbox_conf4"
  bottom: "mbox_priorbox"
  bottom: "label"
  top: "mbox_loss4"
  include {
    phase: TRAIN
  }
  propagate_down: true
  propagate_down: true
  propagate_down: false
  propagate_down: false
  loss_param {
    normalization: VALID
  }
  multibox_loss_param {
    loc_loss_type: SMOOTH_L1
    conf_loss_type: SOFTMAX
    loc_weight: 2.0
    num_classes: 2
    share_location: true
    match_type: PER_PREDICTION
    overlap_threshold: 0.699999988079071
    use_prior_for_matching: true
    background_label_id: 0
    use_difficult_gt: true
    do_neg_mining: true
    neg_pos_ratio: 3.0
    neg_overlap: 0.5
    code_type: CENTER_SIZE
  }
}
layer {
  name: "fc7r_l4"
  type: "Convolution"
  bottom: "fc7r_4"
  top: "fc7r_l4"
  param {
    name: "fc7r_l_w"
    lr_mult: 1.0
    decay_mult: 1.0
  }
  param {
    name: "fc7r_l_b"
    lr_mult: 2.0
    decay_mult: 0.0
  }
  convolution_param {
    num_output: 19
    kernel_size: 1
    stride: 1
    weight_filler {
      type: "xavier"
    }
    bias_filler {
      type: "constant"
      value: 0.0
    }
  }
}
layer {
  name: "relu_fc7r_l4"
  type: "ReLU"
  bottom: "fc7r_l4"
  top: "fc7r_l4"
}
layer {
  name: "fc7r_l4_deconv"
  type: "Deconvolution"
  bottom: "fc7r_l4"
  top: "fc7r_l4_deconv"
  param {
    lr_mult: 0.0
    decay_mult: 0.0
  }
  convolution_param {
    num_output: 19
    bias_term: false
    pad: 1
    kernel_size: 4
    group: 19
    stride: 2
    weight_filler {
      type: "bilinear"
    }
  }
}
layer {
  name: "conv4_3r_concat_4"
  type: "Concat"
  bottom: "conv4_3r_4"
  bottom: "fc7r_l4_deconv"
  top: "conv4_3r_concat_4"
  concat_param {
    axis: 1
  }
}
layer {
  name: "conv4_3r_5"
  type: "Convolution"
  bottom: "conv4_3r_concat_4"
  top: "conv4_3r_5"
  param {
    name: "conv4_3r_cw"
    lr_mult: 1.0
    decay_mult: 1.0
  }
  param {
    name: "conv4_3r_cb"
    lr_mult: 2.0
    decay_mult: 0.0
  }
  convolution_param {
    num_output: 256
    kernel_size: 1
    stride: 1
    weight_filler {
      type: "xavier"
    }
    bias_filler {
      type: "constant"
      value: 0.0
    }
  }
}
layer {
  name: "relu_conv4_3r_5"
  type: "ReLU"
  bottom: "conv4_3r_5"
  top: "conv4_3r_5"
}
layer {
  name: "conv4_3r_r4"
  type: "Convolution"
  bottom: "conv4_3r_4"
  top: "conv4_3r_r4"
  param {
    name: "conv4_3r_r_w"
    lr_mult: 1.0
    decay_mult: 1.0
  }
  param {
    name: "conv4_3r_r_b"
    lr_mult: 2.0
    decay_mult: 0.0
  }
  convolution_param {
    num_output: 19
    kernel_size: 1
    stride: 1
    weight_filler {
      type: "xavier"
    }
    bias_filler {
      type: "constant"
      value: 0.0
    }
  }
}
layer {
  name: "relu_conv4_3r_r4"
  type: "ReLU"
  bottom: "conv4_3r_r4"
  top: "conv4_3r_r4"
}
layer {
  name: "pool_conv4_3r_r4"
  type: "Pooling"
  bottom: "conv4_3r_r4"
  top: "conv4_3r_r4"
  pooling_param {
    pool: MAX
    kernel_size: 2
    stride: 2
  }
}
layer {
  name: "conv6_2_l4"
  type: "Convolution"
  bottom: "conv6_2_4"
  top: "conv6_2_l4"
  param {
    name: "conv6_2_l_w"
    lr_mult: 1.0
    decay_mult: 1.0
  }
  param {
    name: "conv6_2_l_b"
    lr_mult: 2.0
    decay_mult: 0.0
  }
  convolution_param {
    num_output: 19
    kernel_size: 1
    stride: 1
    weight_filler {
      type: "xavier"
    }
    bias_filler {
      type: "constant"
      value: 0.0
    }
  }
}
layer {
  name: "relu_conv6_2_l4"
  type: "ReLU"
  bottom: "conv6_2_l4"
  top: "conv6_2_l4"
}
layer {
  name: "conv6_2_l4_deconv"
  type: "Deconvolution"
  bottom: "conv6_2_l4"
  top: "conv6_2_l4_deconv"
  param {
    lr_mult: 0.0
    decay_mult: 0.0
  }
  convolution_param {
    num_output: 19
    bias_term: false
    pad: 1
    kernel_size: 4
    group: 19
    stride: 2
    weight_filler {
      type: "bilinear"
    }
  }
}
layer {
  name: "fc7r_concat_4"
  type: "Concat"
  bottom: "conv4_3r_r4"
  bottom: "fc7r_4"
  bottom: "conv6_2_l4_deconv"
  top: "fc7r_concat_4"
  concat_param {
    axis: 1
  }
}
layer {
  name: "fc7r_5"
  type: "Convolution"
  bottom: "fc7r_concat_4"
  top: "fc7r_5"
  param {
    name: "fc7r_cw"
    lr_mult: 1.0
    decay_mult: 1.0
  }
  param {
    name: "fc7r_cb"
    lr_mult: 2.0
    decay_mult: 0.0
  }
  convolution_param {
    num_output: 256
    kernel_size: 1
    stride: 1
    weight_filler {
      type: "xavier"
    }
    bias_filler {
      type: "constant"
      value: 0.0
    }
  }
}
layer {
  name: "relu_fc7r_5"
  type: "ReLU"
  bottom: "fc7r_5"
  top: "fc7r_5"
}
layer {
  name: "fc7r_r4"
  type: "Convolution"
  bottom: "fc7r_4"
  top: "fc7r_r4"
  param {
    name: "fc7r_r_w"
    lr_mult: 1.0
    decay_mult: 1.0
  }
  param {
    name: "fc7r_r_b"
    lr_mult: 2.0
    decay_mult: 0.0
  }
  convolution_param {
    num_output: 19
    kernel_size: 1
    stride: 1
    weight_filler {
      type: "xavier"
    }
    bias_filler {
      type: "constant"
      value: 0.0
    }
  }
}
layer {
  name: "relu_fc7r_r4"
  type: "ReLU"
  bottom: "fc7r_r4"
  top: "fc7r_r4"
}
layer {
  name: "pool_fc7r_r4"
  type: "Pooling"
  bottom: "fc7r_r4"
  top: "fc7r_r4"
  pooling_param {
    pool: MAX
    kernel_size: 2
    stride: 2
  }
}
layer {
  name: "conv7_2_l4"
  type: "Convolution"
  bottom: "conv7_2_4"
  top: "conv7_2_l4"
  param {
    name: "conv7_2_l_w"
    lr_mult: 1.0
    decay_mult: 1.0
  }
  param {
    name: "conv7_2_l_b"
    lr_mult: 2.0
    decay_mult: 0.0
  }
  convolution_param {
    num_output: 19
    kernel_size: 1
    stride: 1
    weight_filler {
      type: "xavier"
    }
    bias_filler {
      type: "constant"
      value: 0.0
    }
  }
}
layer {
  name: "relu_conv7_2_l4"
  type: "ReLU"
  bottom: "conv7_2_l4"
  top: "conv7_2_l4"
}
layer {
  name: "conv7_2_l4_deconv"
  type: "Deconvolution"
  bottom: "conv7_2_l4"
  top: "conv7_2_l4_deconv"
  param {
    lr_mult: 0.0
    decay_mult: 0.0
  }
  convolution_param {
    num_output: 19
    bias_term: false
    pad: 1
    kernel_size: 4
    group: 19
    stride: 2
    weight_filler {
      type: "bilinear"
    }
  }
}
layer {
  name: "conv6_2_concat_4"
  type: "Concat"
  bottom: "fc7r_r4"
  bottom: "conv6_2_4"
  bottom: "conv7_2_l4_deconv"
  top: "conv6_2_concat_4"
  concat_param {
    axis: 1
  }
}
layer {
  name: "conv6_2_5"
  type: "Convolution"
  bottom: "conv6_2_concat_4"
  top: "conv6_2_5"
  param {
    name: "conv6_2_cw"
    lr_mult: 1.0
    decay_mult: 1.0
  }
  param {
    name: "conv6_2_cb"
    lr_mult: 2.0
    decay_mult: 0.0
  }
  convolution_param {
    num_output: 256
    kernel_size: 1
    stride: 1
    weight_filler {
      type: "xavier"
    }
    bias_filler {
      type: "constant"
      value: 0.0
    }
  }
}
layer {
  name: "relu_conv6_2_5"
  type: "ReLU"
  bottom: "conv6_2_5"
  top: "conv6_2_5"
}
layer {
  name: "conv6_2_r4"
  type: "Convolution"
  bottom: "conv6_2_4"
  top: "conv6_2_r4"
  param {
    name: "conv6_2_r_w"
    lr_mult: 1.0
    decay_mult: 1.0
  }
  param {
    name: "conv6_2_r_b"
    lr_mult: 2.0
    decay_mult: 0.0
  }
  convolution_param {
    num_output: 19
    kernel_size: 1
    stride: 1
    weight_filler {
      type: "xavier"
    }
    bias_filler {
      type: "constant"
      value: 0.0
    }
  }
}
layer {
  name: "relu_conv6_2_r4"
  type: "ReLU"
  bottom: "conv6_2_r4"
  top: "conv6_2_r4"
}
layer {
  name: "pool_conv6_2_r4"
  type: "Pooling"
  bottom: "conv6_2_r4"
  top: "conv6_2_r4"
  pooling_param {
    pool: MAX
    kernel_size: 2
    stride: 2
  }
}
layer {
  name: "conv8_2_l4"
  type: "Convolution"
  bottom: "conv8_2_4"
  top: "conv8_2_l4"
  param {
    name: "conv8_2_l_w"
    lr_mult: 1.0
    decay_mult: 1.0
  }
  param {
    name: "conv8_2_l_b"
    lr_mult: 2.0
    decay_mult: 0.0
  }
  convolution_param {
    num_output: 19
    kernel_size: 1
    stride: 1
    weight_filler {
      type: "xavier"
    }
    bias_filler {
      type: "constant"
      value: 0.0
    }
  }
}
layer {
  name: "relu_conv8_2_l4"
  type: "ReLU"
  bottom: "conv8_2_l4"
  top: "conv8_2_l4"
}
layer {
  name: "conv8_2_l4_deconv"
  type: "Deconvolution"
  bottom: "conv8_2_l4"
  top: "conv8_2_l4_deconv"
  param {
    lr_mult: 0.0
    decay_mult: 0.0
  }
  convolution_param {
    num_output: 19
    bias_term: false
    pad: 1
    kernel_size: 4
    group: 19
    stride: 2
    weight_filler {
      type: "bilinear"
    }
  }
}
layer {
  name: "conv7_2_concat_4"
  type: "Concat"
  bottom: "conv6_2_r4"
  bottom: "conv7_2_4"
  bottom: "conv8_2_l4_deconv"
  top: "conv7_2_concat_4"
  concat_param {
    axis: 1
  }
}
layer {
  name: "conv7_2_5"
  type: "Convolution"
  bottom: "conv7_2_concat_4"
  top: "conv7_2_5"
  param {
    name: "conv7_2_cw"
    lr_mult: 1.0
    decay_mult: 1.0
  }
  param {
    name: "conv7_2_cb"
    lr_mult: 2.0
    decay_mult: 0.0
  }
  convolution_param {
    num_output: 256
    kernel_size: 1
    stride: 1
    weight_filler {
      type: "xavier"
    }
    bias_filler {
      type: "constant"
      value: 0.0
    }
  }
}
layer {
  name: "relu_conv7_2_5"
  type: "ReLU"
  bottom: "conv7_2_5"
  top: "conv7_2_5"
}
layer {
  name: "conv7_2_r4"
  type: "Convolution"
  bottom: "conv7_2_4"
  top: "conv7_2_r4"
  param {
    name: "conv7_2_r_w"
    lr_mult: 1.0
    decay_mult: 1.0
  }
  param {
    name: "conv7_2_r_b"
    lr_mult: 2.0
    decay_mult: 0.0
  }
  convolution_param {
    num_output: 19
    kernel_size: 1
    stride: 1
    weight_filler {
      type: "xavier"
    }
    bias_filler {
      type: "constant"
      value: 0.0
    }
  }
}
layer {
  name: "relu_conv7_2_r4"
  type: "ReLU"
  bottom: "conv7_2_r4"
  top: "conv7_2_r4"
}
layer {
  name: "pool_conv7_2_r4"
  type: "Pooling"
  bottom: "conv7_2_r4"
  top: "conv7_2_r4"
  pooling_param {
    pool: MAX
    kernel_size: 2
    stride: 2
  }
}
layer {
  name: "conv8_2_concat_4"
  type: "Concat"
  bottom: "conv7_2_r4"
  bottom: "conv8_2_4"
  top: "conv8_2_concat_4"
  concat_param {
    axis: 1
  }
}
layer {
  name: "conv8_2_5"
  type: "Convolution"
  bottom: "conv8_2_concat_4"
  top: "conv8_2_5"
  param {
    name: "conv8_2_cw"
    lr_mult: 1.0
    decay_mult: 1.0
  }
  param {
    name: "conv8_2_cb"
    lr_mult: 2.0
    decay_mult: 0.0
  }
  convolution_param {
    num_output: 256
    kernel_size: 1
    stride: 1
    weight_filler {
      type: "xavier"
    }
    bias_filler {
      type: "constant"
      value: 0.0
    }
  }
}
layer {
  name: "relu_conv8_2_5"
  type: "ReLU"
  bottom: "conv8_2_5"
  top: "conv8_2_5"
}
layer {
  name: "conv4_3r_5_mbox_loc50"
  type: "Convolution"
  bottom: "conv4_3r_5"
  top: "conv4_3r_5_mbox_loc50"
  param {
    name: "conv4_3r_loc0_w"
    lr_mult: 1.0
    decay_mult: 1.0
  }
  param {
    name: "conv4_3r_loc0_b"
    lr_mult: 2.0
    decay_mult: 0.0
  }
  convolution_param {
    num_output: 12
    pad: 1
    kernel_size: 3
    stride: 1
    weight_filler {
      type: "xavier"
    }
    bias_filler {
      type: "constant"
      value: 0.0
    }
  }
}
layer {
  name: "conv4_3r_5_mbox_loc50_perm"
  type: "Permute"
  bottom: "conv4_3r_5_mbox_loc50"
  top: "conv4_3r_5_mbox_loc50_perm"
  permute_param {
    order: 0
    order: 2
    order: 3
    order: 1
  }
}
layer {
  name: "conv4_3r_5_mbox_loc50_flat"
  type: "Flatten"
  bottom: "conv4_3r_5_mbox_loc50_perm"
  top: "conv4_3r_5_mbox_loc50_flat"
  flatten_param {
    axis: 1
  }
}
layer {
  name: "conv4_3r_5_mbox_conf50"
  type: "Convolution"
  bottom: "conv4_3r_5"
  top: "conv4_3r_5_mbox_conf50"
  param {
    name: "conv4_3r_conf0_w"
    lr_mult: 1.0
    decay_mult: 1.0
  }
  param {
    name: "conv4_3r_conf0_b"
    lr_mult: 2.0
    decay_mult: 0.0
  }
  convolution_param {
    num_output: 6
    pad: 1
    kernel_size: 3
    stride: 1
    weight_filler {
      type: "xavier"
    }
    bias_filler {
      type: "constant"
      value: 0.0
    }
  }
}
layer {
  name: "conv4_3r_5_mbox_conf50_perm"
  type: "Permute"
  bottom: "conv4_3r_5_mbox_conf50"
  top: "conv4_3r_5_mbox_conf50_perm"
  permute_param {
    order: 0
    order: 2
    order: 3
    order: 1
  }
}
layer {
  name: "conv4_3r_5_mbox_conf50_flat"
  type: "Flatten"
  bottom: "conv4_3r_5_mbox_conf50_perm"
  top: "conv4_3r_5_mbox_conf50_flat"
  flatten_param {
    axis: 1
  }
}
layer {
  name: "conv4_3r_5_mbox_loc51"
  type: "Convolution"
  bottom: "conv4_3r_5"
  top: "conv4_3r_5_mbox_loc51"
  param {
    name: "conv4_3r_loc1_w"
    lr_mult: 1.0
    decay_mult: 1.0
  }
  param {
    name: "conv4_3r_loc1_b"
    lr_mult: 2.0
    decay_mult: 0.0
  }
  convolution_param {
    num_output: 12
    pad: 1
    kernel_size: 3
    stride: 1
    weight_filler {
      type: "xavier"
    }
    bias_filler {
      type: "constant"
      value: 0.0
    }
  }
}
layer {
  name: "conv4_3r_5_mbox_loc51_perm"
  type: "Permute"
  bottom: "conv4_3r_5_mbox_loc51"
  top: "conv4_3r_5_mbox_loc51_perm"
  permute_param {
    order: 0
    order: 2
    order: 3
    order: 1
  }
}
layer {
  name: "conv4_3r_5_mbox_loc51_flat"
  type: "Flatten"
  bottom: "conv4_3r_5_mbox_loc51_perm"
  top: "conv4_3r_5_mbox_loc51_flat"
  flatten_param {
    axis: 1
  }
}
layer {
  name: "conv4_3r_5_mbox_conf51"
  type: "Convolution"
  bottom: "conv4_3r_5"
  top: "conv4_3r_5_mbox_conf51"
  param {
    name: "conv4_3r_conf1_w"
    lr_mult: 1.0
    decay_mult: 1.0
  }
  param {
    name: "conv4_3r_conf1_b"
    lr_mult: 2.0
    decay_mult: 0.0
  }
  convolution_param {
    num_output: 6
    pad: 1
    kernel_size: 3
    stride: 1
    weight_filler {
      type: "xavier"
    }
    bias_filler {
      type: "constant"
      value: 0.0
    }
  }
}
layer {
  name: "conv4_3r_5_mbox_conf51_perm"
  type: "Permute"
  bottom: "conv4_3r_5_mbox_conf51"
  top: "conv4_3r_5_mbox_conf51_perm"
  permute_param {
    order: 0
    order: 2
    order: 3
    order: 1
  }
}
layer {
  name: "conv4_3r_5_mbox_conf51_flat"
  type: "Flatten"
  bottom: "conv4_3r_5_mbox_conf51_perm"
  top: "conv4_3r_5_mbox_conf51_flat"
  flatten_param {
    axis: 1
  }
}
layer {
  name: "conv4_3r_5_mbox_loc52"
  type: "Convolution"
  bottom: "conv4_3r_5"
  top: "conv4_3r_5_mbox_loc52"
  param {
    name: "conv4_3r_loc2_w"
    lr_mult: 1.0
    decay_mult: 1.0
  }
  param {
    name: "conv4_3r_loc2_b"
    lr_mult: 2.0
    decay_mult: 0.0
  }
  convolution_param {
    num_output: 12
    pad: 1
    kernel_size: 3
    stride: 1
    weight_filler {
      type: "xavier"
    }
    bias_filler {
      type: "constant"
      value: 0.0
    }
  }
}
layer {
  name: "conv4_3r_5_mbox_loc52_perm"
  type: "Permute"
  bottom: "conv4_3r_5_mbox_loc52"
  top: "conv4_3r_5_mbox_loc52_perm"
  permute_param {
    order: 0
    order: 2
    order: 3
    order: 1
  }
}
layer {
  name: "conv4_3r_5_mbox_loc52_flat"
  type: "Flatten"
  bottom: "conv4_3r_5_mbox_loc52_perm"
  top: "conv4_3r_5_mbox_loc52_flat"
  flatten_param {
    axis: 1
  }
}
layer {
  name: "conv4_3r_5_mbox_conf52"
  type: "Convolution"
  bottom: "conv4_3r_5"
  top: "conv4_3r_5_mbox_conf52"
  param {
    name: "conv4_3r_conf2_w"
    lr_mult: 1.0
    decay_mult: 1.0
  }
  param {
    name: "conv4_3r_conf2_b"
    lr_mult: 2.0
    decay_mult: 0.0
  }
  convolution_param {
    num_output: 6
    pad: 1
    kernel_size: 3
    stride: 1
    weight_filler {
      type: "xavier"
    }
    bias_filler {
      type: "constant"
      value: 0.0
    }
  }
}
layer {
  name: "conv4_3r_5_mbox_conf52_perm"
  type: "Permute"
  bottom: "conv4_3r_5_mbox_conf52"
  top: "conv4_3r_5_mbox_conf52_perm"
  permute_param {
    order: 0
    order: 2
    order: 3
    order: 1
  }
}
layer {
  name: "conv4_3r_5_mbox_conf52_flat"
  type: "Flatten"
  bottom: "conv4_3r_5_mbox_conf52_perm"
  top: "conv4_3r_5_mbox_conf52_flat"
  flatten_param {
    axis: 1
  }
}
layer {
  name: "conv4_3r_5_mbox_loc53"
  type: "Convolution"
  bottom: "conv4_3r_5"
  top: "conv4_3r_5_mbox_loc53"
  param {
    name: "conv4_3r_loc3_w"
    lr_mult: 1.0
    decay_mult: 1.0
  }
  param {
    name: "conv4_3r_loc3_b"
    lr_mult: 2.0
    decay_mult: 0.0
  }
  convolution_param {
    num_output: 12
    pad: 1
    kernel_size: 3
    stride: 1
    weight_filler {
      type: "xavier"
    }
    bias_filler {
      type: "constant"
      value: 0.0
    }
  }
}
layer {
  name: "conv4_3r_5_mbox_loc53_perm"
  type: "Permute"
  bottom: "conv4_3r_5_mbox_loc53"
  top: "conv4_3r_5_mbox_loc53_perm"
  permute_param {
    order: 0
    order: 2
    order: 3
    order: 1
  }
}
layer {
  name: "conv4_3r_5_mbox_loc53_flat"
  type: "Flatten"
  bottom: "conv4_3r_5_mbox_loc53_perm"
  top: "conv4_3r_5_mbox_loc53_flat"
  flatten_param {
    axis: 1
  }
}
layer {
  name: "conv4_3r_5_mbox_conf53"
  type: "Convolution"
  bottom: "conv4_3r_5"
  top: "conv4_3r_5_mbox_conf53"
  param {
    name: "conv4_3r_conf3_w"
    lr_mult: 1.0
    decay_mult: 1.0
  }
  param {
    name: "conv4_3r_conf3_b"
    lr_mult: 2.0
    decay_mult: 0.0
  }
  convolution_param {
    num_output: 6
    pad: 1
    kernel_size: 3
    stride: 1
    weight_filler {
      type: "xavier"
    }
    bias_filler {
      type: "constant"
      value: 0.0
    }
  }
}
layer {
  name: "conv4_3r_5_mbox_conf53_perm"
  type: "Permute"
  bottom: "conv4_3r_5_mbox_conf53"
  top: "conv4_3r_5_mbox_conf53_perm"
  permute_param {
    order: 0
    order: 2
    order: 3
    order: 1
  }
}
layer {
  name: "conv4_3r_5_mbox_conf53_flat"
  type: "Flatten"
  bottom: "conv4_3r_5_mbox_conf53_perm"
  top: "conv4_3r_5_mbox_conf53_flat"
  flatten_param {
    axis: 1
  }
}
layer {
  name: "fc7r_5_mbox_loc50"
  type: "Convolution"
  bottom: "fc7r_5"
  top: "fc7r_5_mbox_loc50"
  param {
    name: "fc7r_loc0_w"
    lr_mult: 1.0
    decay_mult: 1.0
  }
  param {
    name: "fc7r_loc0_b"
    lr_mult: 2.0
    decay_mult: 0.0
  }
  convolution_param {
    num_output: 24
    pad: 1
    kernel_size: 3
    stride: 1
    weight_filler {
      type: "xavier"
    }
    bias_filler {
      type: "constant"
      value: 0.0
    }
  }
}
layer {
  name: "fc7r_5_mbox_loc50_perm"
  type: "Permute"
  bottom: "fc7r_5_mbox_loc50"
  top: "fc7r_5_mbox_loc50_perm"
  permute_param {
    order: 0
    order: 2
    order: 3
    order: 1
  }
}
layer {
  name: "fc7r_5_mbox_loc50_flat"
  type: "Flatten"
  bottom: "fc7r_5_mbox_loc50_perm"
  top: "fc7r_5_mbox_loc50_flat"
  flatten_param {
    axis: 1
  }
}
layer {
  name: "fc7r_5_mbox_conf50"
  type: "Convolution"
  bottom: "fc7r_5"
  top: "fc7r_5_mbox_conf50"
  param {
    name: "fc7r_conf0_w"
    lr_mult: 1.0
    decay_mult: 1.0
  }
  param {
    name: "fc7r_conf0_b"
    lr_mult: 2.0
    decay_mult: 0.0
  }
  convolution_param {
    num_output: 12
    pad: 1
    kernel_size: 3
    stride: 1
    weight_filler {
      type: "xavier"
    }
    bias_filler {
      type: "constant"
      value: 0.0
    }
  }
}
layer {
  name: "fc7r_5_mbox_conf50_perm"
  type: "Permute"
  bottom: "fc7r_5_mbox_conf50"
  top: "fc7r_5_mbox_conf50_perm"
  permute_param {
    order: 0
    order: 2
    order: 3
    order: 1
  }
}
layer {
  name: "fc7r_5_mbox_conf50_flat"
  type: "Flatten"
  bottom: "fc7r_5_mbox_conf50_perm"
  top: "fc7r_5_mbox_conf50_flat"
  flatten_param {
    axis: 1
  }
}
layer {
  name: "fc7r_5_mbox_loc51"
  type: "Convolution"
  bottom: "fc7r_5"
  top: "fc7r_5_mbox_loc51"
  param {
    name: "fc7r_loc1_w"
    lr_mult: 1.0
    decay_mult: 1.0
  }
  param {
    name: "fc7r_loc1_b"
    lr_mult: 2.0
    decay_mult: 0.0
  }
  convolution_param {
    num_output: 24
    pad: 1
    kernel_size: 3
    stride: 1
    weight_filler {
      type: "xavier"
    }
    bias_filler {
      type: "constant"
      value: 0.0
    }
  }
}
layer {
  name: "fc7r_5_mbox_loc51_perm"
  type: "Permute"
  bottom: "fc7r_5_mbox_loc51"
  top: "fc7r_5_mbox_loc51_perm"
  permute_param {
    order: 0
    order: 2
    order: 3
    order: 1
  }
}
layer {
  name: "fc7r_5_mbox_loc51_flat"
  type: "Flatten"
  bottom: "fc7r_5_mbox_loc51_perm"
  top: "fc7r_5_mbox_loc51_flat"
  flatten_param {
    axis: 1
  }
}
layer {
  name: "fc7r_5_mbox_conf51"
  type: "Convolution"
  bottom: "fc7r_5"
  top: "fc7r_5_mbox_conf51"
  param {
    name: "fc7r_conf1_w"
    lr_mult: 1.0
    decay_mult: 1.0
  }
  param {
    name: "fc7r_conf1_b"
    lr_mult: 2.0
    decay_mult: 0.0
  }
  convolution_param {
    num_output: 12
    pad: 1
    kernel_size: 3
    stride: 1
    weight_filler {
      type: "xavier"
    }
    bias_filler {
      type: "constant"
      value: 0.0
    }
  }
}
layer {
  name: "fc7r_5_mbox_conf51_perm"
  type: "Permute"
  bottom: "fc7r_5_mbox_conf51"
  top: "fc7r_5_mbox_conf51_perm"
  permute_param {
    order: 0
    order: 2
    order: 3
    order: 1
  }
}
layer {
  name: "fc7r_5_mbox_conf51_flat"
  type: "Flatten"
  bottom: "fc7r_5_mbox_conf51_perm"
  top: "fc7r_5_mbox_conf51_flat"
  flatten_param {
    axis: 1
  }
}
layer {
  name: "fc7r_5_mbox_loc52"
  type: "Convolution"
  bottom: "fc7r_5"
  top: "fc7r_5_mbox_loc52"
  param {
    name: "fc7r_loc2_w"
    lr_mult: 1.0
    decay_mult: 1.0
  }
  param {
    name: "fc7r_loc2_b"
    lr_mult: 2.0
    decay_mult: 0.0
  }
  convolution_param {
    num_output: 24
    pad: 1
    kernel_size: 3
    stride: 1
    weight_filler {
      type: "xavier"
    }
    bias_filler {
      type: "constant"
      value: 0.0
    }
  }
}
layer {
  name: "fc7r_5_mbox_loc52_perm"
  type: "Permute"
  bottom: "fc7r_5_mbox_loc52"
  top: "fc7r_5_mbox_loc52_perm"
  permute_param {
    order: 0
    order: 2
    order: 3
    order: 1
  }
}
layer {
  name: "fc7r_5_mbox_loc52_flat"
  type: "Flatten"
  bottom: "fc7r_5_mbox_loc52_perm"
  top: "fc7r_5_mbox_loc52_flat"
  flatten_param {
    axis: 1
  }
}
layer {
  name: "fc7r_5_mbox_conf52"
  type: "Convolution"
  bottom: "fc7r_5"
  top: "fc7r_5_mbox_conf52"
  param {
    name: "fc7r_conf2_w"
    lr_mult: 1.0
    decay_mult: 1.0
  }
  param {
    name: "fc7r_conf2_b"
    lr_mult: 2.0
    decay_mult: 0.0
  }
  convolution_param {
    num_output: 12
    pad: 1
    kernel_size: 3
    stride: 1
    weight_filler {
      type: "xavier"
    }
    bias_filler {
      type: "constant"
      value: 0.0
    }
  }
}
layer {
  name: "fc7r_5_mbox_conf52_perm"
  type: "Permute"
  bottom: "fc7r_5_mbox_conf52"
  top: "fc7r_5_mbox_conf52_perm"
  permute_param {
    order: 0
    order: 2
    order: 3
    order: 1
  }
}
layer {
  name: "fc7r_5_mbox_conf52_flat"
  type: "Flatten"
  bottom: "fc7r_5_mbox_conf52_perm"
  top: "fc7r_5_mbox_conf52_flat"
  flatten_param {
    axis: 1
  }
}
layer {
  name: "fc7r_5_mbox_loc53"
  type: "Convolution"
  bottom: "fc7r_5"
  top: "fc7r_5_mbox_loc53"
  param {
    name: "fc7r_loc3_w"
    lr_mult: 1.0
    decay_mult: 1.0
  }
  param {
    name: "fc7r_loc3_b"
    lr_mult: 2.0
    decay_mult: 0.0
  }
  convolution_param {
    num_output: 24
    pad: 1
    kernel_size: 3
    stride: 1
    weight_filler {
      type: "xavier"
    }
    bias_filler {
      type: "constant"
      value: 0.0
    }
  }
}
layer {
  name: "fc7r_5_mbox_loc53_perm"
  type: "Permute"
  bottom: "fc7r_5_mbox_loc53"
  top: "fc7r_5_mbox_loc53_perm"
  permute_param {
    order: 0
    order: 2
    order: 3
    order: 1
  }
}
layer {
  name: "fc7r_5_mbox_loc53_flat"
  type: "Flatten"
  bottom: "fc7r_5_mbox_loc53_perm"
  top: "fc7r_5_mbox_loc53_flat"
  flatten_param {
    axis: 1
  }
}
layer {
  name: "fc7r_5_mbox_conf53"
  type: "Convolution"
  bottom: "fc7r_5"
  top: "fc7r_5_mbox_conf53"
  param {
    name: "fc7r_conf3_w"
    lr_mult: 1.0
    decay_mult: 1.0
  }
  param {
    name: "fc7r_conf3_b"
    lr_mult: 2.0
    decay_mult: 0.0
  }
  convolution_param {
    num_output: 12
    pad: 1
    kernel_size: 3
    stride: 1
    weight_filler {
      type: "xavier"
    }
    bias_filler {
      type: "constant"
      value: 0.0
    }
  }
}
layer {
  name: "fc7r_5_mbox_conf53_perm"
  type: "Permute"
  bottom: "fc7r_5_mbox_conf53"
  top: "fc7r_5_mbox_conf53_perm"
  permute_param {
    order: 0
    order: 2
    order: 3
    order: 1
  }
}
layer {
  name: "fc7r_5_mbox_conf53_flat"
  type: "Flatten"
  bottom: "fc7r_5_mbox_conf53_perm"
  top: "fc7r_5_mbox_conf53_flat"
  flatten_param {
    axis: 1
  }
}
layer {
  name: "conv6_2_5_mbox_loc50"
  type: "Convolution"
  bottom: "conv6_2_5"
  top: "conv6_2_5_mbox_loc50"
  param {
    name: "conv6_2_loc0_w"
    lr_mult: 1.0
    decay_mult: 1.0
  }
  param {
    name: "conv6_2_loc0_b"
    lr_mult: 2.0
    decay_mult: 0.0
  }
  convolution_param {
    num_output: 24
    pad: 1
    kernel_size: 3
    stride: 1
    weight_filler {
      type: "xavier"
    }
    bias_filler {
      type: "constant"
      value: 0.0
    }
  }
}
layer {
  name: "conv6_2_5_mbox_loc50_perm"
  type: "Permute"
  bottom: "conv6_2_5_mbox_loc50"
  top: "conv6_2_5_mbox_loc50_perm"
  permute_param {
    order: 0
    order: 2
    order: 3
    order: 1
  }
}
layer {
  name: "conv6_2_5_mbox_loc50_flat"
  type: "Flatten"
  bottom: "conv6_2_5_mbox_loc50_perm"
  top: "conv6_2_5_mbox_loc50_flat"
  flatten_param {
    axis: 1
  }
}
layer {
  name: "conv6_2_5_mbox_conf50"
  type: "Convolution"
  bottom: "conv6_2_5"
  top: "conv6_2_5_mbox_conf50"
  param {
    name: "conv6_2_conf0_w"
    lr_mult: 1.0
    decay_mult: 1.0
  }
  param {
    name: "conv6_2_conf0_b"
    lr_mult: 2.0
    decay_mult: 0.0
  }
  convolution_param {
    num_output: 12
    pad: 1
    kernel_size: 3
    stride: 1
    weight_filler {
      type: "xavier"
    }
    bias_filler {
      type: "constant"
      value: 0.0
    }
  }
}
layer {
  name: "conv6_2_5_mbox_conf50_perm"
  type: "Permute"
  bottom: "conv6_2_5_mbox_conf50"
  top: "conv6_2_5_mbox_conf50_perm"
  permute_param {
    order: 0
    order: 2
    order: 3
    order: 1
  }
}
layer {
  name: "conv6_2_5_mbox_conf50_flat"
  type: "Flatten"
  bottom: "conv6_2_5_mbox_conf50_perm"
  top: "conv6_2_5_mbox_conf50_flat"
  flatten_param {
    axis: 1
  }
}
layer {
  name: "conv6_2_5_mbox_loc51"
  type: "Convolution"
  bottom: "conv6_2_5"
  top: "conv6_2_5_mbox_loc51"
  param {
    name: "conv6_2_loc1_w"
    lr_mult: 1.0
    decay_mult: 1.0
  }
  param {
    name: "conv6_2_loc1_b"
    lr_mult: 2.0
    decay_mult: 0.0
  }
  convolution_param {
    num_output: 24
    pad: 1
    kernel_size: 3
    stride: 1
    weight_filler {
      type: "xavier"
    }
    bias_filler {
      type: "constant"
      value: 0.0
    }
  }
}
layer {
  name: "conv6_2_5_mbox_loc51_perm"
  type: "Permute"
  bottom: "conv6_2_5_mbox_loc51"
  top: "conv6_2_5_mbox_loc51_perm"
  permute_param {
    order: 0
    order: 2
    order: 3
    order: 1
  }
}
layer {
  name: "conv6_2_5_mbox_loc51_flat"
  type: "Flatten"
  bottom: "conv6_2_5_mbox_loc51_perm"
  top: "conv6_2_5_mbox_loc51_flat"
  flatten_param {
    axis: 1
  }
}
layer {
  name: "conv6_2_5_mbox_conf51"
  type: "Convolution"
  bottom: "conv6_2_5"
  top: "conv6_2_5_mbox_conf51"
  param {
    name: "conv6_2_conf1_w"
    lr_mult: 1.0
    decay_mult: 1.0
  }
  param {
    name: "conv6_2_conf1_b"
    lr_mult: 2.0
    decay_mult: 0.0
  }
  convolution_param {
    num_output: 12
    pad: 1
    kernel_size: 3
    stride: 1
    weight_filler {
      type: "xavier"
    }
    bias_filler {
      type: "constant"
      value: 0.0
    }
  }
}
layer {
  name: "conv6_2_5_mbox_conf51_perm"
  type: "Permute"
  bottom: "conv6_2_5_mbox_conf51"
  top: "conv6_2_5_mbox_conf51_perm"
  permute_param {
    order: 0
    order: 2
    order: 3
    order: 1
  }
}
layer {
  name: "conv6_2_5_mbox_conf51_flat"
  type: "Flatten"
  bottom: "conv6_2_5_mbox_conf51_perm"
  top: "conv6_2_5_mbox_conf51_flat"
  flatten_param {
    axis: 1
  }
}
layer {
  name: "conv6_2_5_mbox_loc52"
  type: "Convolution"
  bottom: "conv6_2_5"
  top: "conv6_2_5_mbox_loc52"
  param {
    name: "conv6_2_loc2_w"
    lr_mult: 1.0
    decay_mult: 1.0
  }
  param {
    name: "conv6_2_loc2_b"
    lr_mult: 2.0
    decay_mult: 0.0
  }
  convolution_param {
    num_output: 24
    pad: 1
    kernel_size: 3
    stride: 1
    weight_filler {
      type: "xavier"
    }
    bias_filler {
      type: "constant"
      value: 0.0
    }
  }
}
layer {
  name: "conv6_2_5_mbox_loc52_perm"
  type: "Permute"
  bottom: "conv6_2_5_mbox_loc52"
  top: "conv6_2_5_mbox_loc52_perm"
  permute_param {
    order: 0
    order: 2
    order: 3
    order: 1
  }
}
layer {
  name: "conv6_2_5_mbox_loc52_flat"
  type: "Flatten"
  bottom: "conv6_2_5_mbox_loc52_perm"
  top: "conv6_2_5_mbox_loc52_flat"
  flatten_param {
    axis: 1
  }
}
layer {
  name: "conv6_2_5_mbox_conf52"
  type: "Convolution"
  bottom: "conv6_2_5"
  top: "conv6_2_5_mbox_conf52"
  param {
    name: "conv6_2_conf2_w"
    lr_mult: 1.0
    decay_mult: 1.0
  }
  param {
    name: "conv6_2_conf2_b"
    lr_mult: 2.0
    decay_mult: 0.0
  }
  convolution_param {
    num_output: 12
    pad: 1
    kernel_size: 3
    stride: 1
    weight_filler {
      type: "xavier"
    }
    bias_filler {
      type: "constant"
      value: 0.0
    }
  }
}
layer {
  name: "conv6_2_5_mbox_conf52_perm"
  type: "Permute"
  bottom: "conv6_2_5_mbox_conf52"
  top: "conv6_2_5_mbox_conf52_perm"
  permute_param {
    order: 0
    order: 2
    order: 3
    order: 1
  }
}
layer {
  name: "conv6_2_5_mbox_conf52_flat"
  type: "Flatten"
  bottom: "conv6_2_5_mbox_conf52_perm"
  top: "conv6_2_5_mbox_conf52_flat"
  flatten_param {
    axis: 1
  }
}
layer {
  name: "conv6_2_5_mbox_loc53"
  type: "Convolution"
  bottom: "conv6_2_5"
  top: "conv6_2_5_mbox_loc53"
  param {
    name: "conv6_2_loc3_w"
    lr_mult: 1.0
    decay_mult: 1.0
  }
  param {
    name: "conv6_2_loc3_b"
    lr_mult: 2.0
    decay_mult: 0.0
  }
  convolution_param {
    num_output: 24
    pad: 1
    kernel_size: 3
    stride: 1
    weight_filler {
      type: "xavier"
    }
    bias_filler {
      type: "constant"
      value: 0.0
    }
  }
}
layer {
  name: "conv6_2_5_mbox_loc53_perm"
  type: "Permute"
  bottom: "conv6_2_5_mbox_loc53"
  top: "conv6_2_5_mbox_loc53_perm"
  permute_param {
    order: 0
    order: 2
    order: 3
    order: 1
  }
}
layer {
  name: "conv6_2_5_mbox_loc53_flat"
  type: "Flatten"
  bottom: "conv6_2_5_mbox_loc53_perm"
  top: "conv6_2_5_mbox_loc53_flat"
  flatten_param {
    axis: 1
  }
}
layer {
  name: "conv6_2_5_mbox_conf53"
  type: "Convolution"
  bottom: "conv6_2_5"
  top: "conv6_2_5_mbox_conf53"
  param {
    name: "conv6_2_conf3_w"
    lr_mult: 1.0
    decay_mult: 1.0
  }
  param {
    name: "conv6_2_conf3_b"
    lr_mult: 2.0
    decay_mult: 0.0
  }
  convolution_param {
    num_output: 12
    pad: 1
    kernel_size: 3
    stride: 1
    weight_filler {
      type: "xavier"
    }
    bias_filler {
      type: "constant"
      value: 0.0
    }
  }
}
layer {
  name: "conv6_2_5_mbox_conf53_perm"
  type: "Permute"
  bottom: "conv6_2_5_mbox_conf53"
  top: "conv6_2_5_mbox_conf53_perm"
  permute_param {
    order: 0
    order: 2
    order: 3
    order: 1
  }
}
layer {
  name: "conv6_2_5_mbox_conf53_flat"
  type: "Flatten"
  bottom: "conv6_2_5_mbox_conf53_perm"
  top: "conv6_2_5_mbox_conf53_flat"
  flatten_param {
    axis: 1
  }
}
layer {
  name: "conv7_2_5_mbox_loc50"
  type: "Convolution"
  bottom: "conv7_2_5"
  top: "conv7_2_5_mbox_loc50"
  param {
    name: "conv7_2_loc0_w"
    lr_mult: 1.0
    decay_mult: 1.0
  }
  param {
    name: "conv7_2_loc0_b"
    lr_mult: 2.0
    decay_mult: 0.0
  }
  convolution_param {
    num_output: 24
    pad: 1
    kernel_size: 3
    stride: 1
    weight_filler {
      type: "xavier"
    }
    bias_filler {
      type: "constant"
      value: 0.0
    }
  }
}
layer {
  name: "conv7_2_5_mbox_loc50_perm"
  type: "Permute"
  bottom: "conv7_2_5_mbox_loc50"
  top: "conv7_2_5_mbox_loc50_perm"
  permute_param {
    order: 0
    order: 2
    order: 3
    order: 1
  }
}
layer {
  name: "conv7_2_5_mbox_loc50_flat"
  type: "Flatten"
  bottom: "conv7_2_5_mbox_loc50_perm"
  top: "conv7_2_5_mbox_loc50_flat"
  flatten_param {
    axis: 1
  }
}
layer {
  name: "conv7_2_5_mbox_conf50"
  type: "Convolution"
  bottom: "conv7_2_5"
  top: "conv7_2_5_mbox_conf50"
  param {
    name: "conv7_2_conf0_w"
    lr_mult: 1.0
    decay_mult: 1.0
  }
  param {
    name: "conv7_2_conf0_b"
    lr_mult: 2.0
    decay_mult: 0.0
  }
  convolution_param {
    num_output: 12
    pad: 1
    kernel_size: 3
    stride: 1
    weight_filler {
      type: "xavier"
    }
    bias_filler {
      type: "constant"
      value: 0.0
    }
  }
}
layer {
  name: "conv7_2_5_mbox_conf50_perm"
  type: "Permute"
  bottom: "conv7_2_5_mbox_conf50"
  top: "conv7_2_5_mbox_conf50_perm"
  permute_param {
    order: 0
    order: 2
    order: 3
    order: 1
  }
}
layer {
  name: "conv7_2_5_mbox_conf50_flat"
  type: "Flatten"
  bottom: "conv7_2_5_mbox_conf50_perm"
  top: "conv7_2_5_mbox_conf50_flat"
  flatten_param {
    axis: 1
  }
}
layer {
  name: "conv7_2_5_mbox_loc51"
  type: "Convolution"
  bottom: "conv7_2_5"
  top: "conv7_2_5_mbox_loc51"
  param {
    name: "conv7_2_loc1_w"
    lr_mult: 1.0
    decay_mult: 1.0
  }
  param {
    name: "conv7_2_loc1_b"
    lr_mult: 2.0
    decay_mult: 0.0
  }
  convolution_param {
    num_output: 24
    pad: 1
    kernel_size: 3
    stride: 1
    weight_filler {
      type: "xavier"
    }
    bias_filler {
      type: "constant"
      value: 0.0
    }
  }
}
layer {
  name: "conv7_2_5_mbox_loc51_perm"
  type: "Permute"
  bottom: "conv7_2_5_mbox_loc51"
  top: "conv7_2_5_mbox_loc51_perm"
  permute_param {
    order: 0
    order: 2
    order: 3
    order: 1
  }
}
layer {
  name: "conv7_2_5_mbox_loc51_flat"
  type: "Flatten"
  bottom: "conv7_2_5_mbox_loc51_perm"
  top: "conv7_2_5_mbox_loc51_flat"
  flatten_param {
    axis: 1
  }
}
layer {
  name: "conv7_2_5_mbox_conf51"
  type: "Convolution"
  bottom: "conv7_2_5"
  top: "conv7_2_5_mbox_conf51"
  param {
    name: "conv7_2_conf1_w"
    lr_mult: 1.0
    decay_mult: 1.0
  }
  param {
    name: "conv7_2_conf1_b"
    lr_mult: 2.0
    decay_mult: 0.0
  }
  convolution_param {
    num_output: 12
    pad: 1
    kernel_size: 3
    stride: 1
    weight_filler {
      type: "xavier"
    }
    bias_filler {
      type: "constant"
      value: 0.0
    }
  }
}
layer {
  name: "conv7_2_5_mbox_conf51_perm"
  type: "Permute"
  bottom: "conv7_2_5_mbox_conf51"
  top: "conv7_2_5_mbox_conf51_perm"
  permute_param {
    order: 0
    order: 2
    order: 3
    order: 1
  }
}
layer {
  name: "conv7_2_5_mbox_conf51_flat"
  type: "Flatten"
  bottom: "conv7_2_5_mbox_conf51_perm"
  top: "conv7_2_5_mbox_conf51_flat"
  flatten_param {
    axis: 1
  }
}
layer {
  name: "conv7_2_5_mbox_loc52"
  type: "Convolution"
  bottom: "conv7_2_5"
  top: "conv7_2_5_mbox_loc52"
  param {
    name: "conv7_2_loc2_w"
    lr_mult: 1.0
    decay_mult: 1.0
  }
  param {
    name: "conv7_2_loc2_b"
    lr_mult: 2.0
    decay_mult: 0.0
  }
  convolution_param {
    num_output: 24
    pad: 1
    kernel_size: 3
    stride: 1
    weight_filler {
      type: "xavier"
    }
    bias_filler {
      type: "constant"
      value: 0.0
    }
  }
}
layer {
  name: "conv7_2_5_mbox_loc52_perm"
  type: "Permute"
  bottom: "conv7_2_5_mbox_loc52"
  top: "conv7_2_5_mbox_loc52_perm"
  permute_param {
    order: 0
    order: 2
    order: 3
    order: 1
  }
}
layer {
  name: "conv7_2_5_mbox_loc52_flat"
  type: "Flatten"
  bottom: "conv7_2_5_mbox_loc52_perm"
  top: "conv7_2_5_mbox_loc52_flat"
  flatten_param {
    axis: 1
  }
}
layer {
  name: "conv7_2_5_mbox_conf52"
  type: "Convolution"
  bottom: "conv7_2_5"
  top: "conv7_2_5_mbox_conf52"
  param {
    name: "conv7_2_conf2_w"
    lr_mult: 1.0
    decay_mult: 1.0
  }
  param {
    name: "conv7_2_conf2_b"
    lr_mult: 2.0
    decay_mult: 0.0
  }
  convolution_param {
    num_output: 12
    pad: 1
    kernel_size: 3
    stride: 1
    weight_filler {
      type: "xavier"
    }
    bias_filler {
      type: "constant"
      value: 0.0
    }
  }
}
layer {
  name: "conv7_2_5_mbox_conf52_perm"
  type: "Permute"
  bottom: "conv7_2_5_mbox_conf52"
  top: "conv7_2_5_mbox_conf52_perm"
  permute_param {
    order: 0
    order: 2
    order: 3
    order: 1
  }
}
layer {
  name: "conv7_2_5_mbox_conf52_flat"
  type: "Flatten"
  bottom: "conv7_2_5_mbox_conf52_perm"
  top: "conv7_2_5_mbox_conf52_flat"
  flatten_param {
    axis: 1
  }
}
layer {
  name: "conv7_2_5_mbox_loc53"
  type: "Convolution"
  bottom: "conv7_2_5"
  top: "conv7_2_5_mbox_loc53"
  param {
    name: "conv7_2_loc3_w"
    lr_mult: 1.0
    decay_mult: 1.0
  }
  param {
    name: "conv7_2_loc3_b"
    lr_mult: 2.0
    decay_mult: 0.0
  }
  convolution_param {
    num_output: 24
    pad: 1
    kernel_size: 3
    stride: 1
    weight_filler {
      type: "xavier"
    }
    bias_filler {
      type: "constant"
      value: 0.0
    }
  }
}
layer {
  name: "conv7_2_5_mbox_loc53_perm"
  type: "Permute"
  bottom: "conv7_2_5_mbox_loc53"
  top: "conv7_2_5_mbox_loc53_perm"
  permute_param {
    order: 0
    order: 2
    order: 3
    order: 1
  }
}
layer {
  name: "conv7_2_5_mbox_loc53_flat"
  type: "Flatten"
  bottom: "conv7_2_5_mbox_loc53_perm"
  top: "conv7_2_5_mbox_loc53_flat"
  flatten_param {
    axis: 1
  }
}
layer {
  name: "conv7_2_5_mbox_conf53"
  type: "Convolution"
  bottom: "conv7_2_5"
  top: "conv7_2_5_mbox_conf53"
  param {
    name: "conv7_2_conf3_w"
    lr_mult: 1.0
    decay_mult: 1.0
  }
  param {
    name: "conv7_2_conf3_b"
    lr_mult: 2.0
    decay_mult: 0.0
  }
  convolution_param {
    num_output: 12
    pad: 1
    kernel_size: 3
    stride: 1
    weight_filler {
      type: "xavier"
    }
    bias_filler {
      type: "constant"
      value: 0.0
    }
  }
}
layer {
  name: "conv7_2_5_mbox_conf53_perm"
  type: "Permute"
  bottom: "conv7_2_5_mbox_conf53"
  top: "conv7_2_5_mbox_conf53_perm"
  permute_param {
    order: 0
    order: 2
    order: 3
    order: 1
  }
}
layer {
  name: "conv7_2_5_mbox_conf53_flat"
  type: "Flatten"
  bottom: "conv7_2_5_mbox_conf53_perm"
  top: "conv7_2_5_mbox_conf53_flat"
  flatten_param {
    axis: 1
  }
}
layer {
  name: "conv8_2_5_mbox_loc50"
  type: "Convolution"
  bottom: "conv8_2_5"
  top: "conv8_2_5_mbox_loc50"
  param {
    name: "conv8_2_loc0_w"
    lr_mult: 1.0
    decay_mult: 1.0
  }
  param {
    name: "conv8_2_loc0_b"
    lr_mult: 2.0
    decay_mult: 0.0
  }
  convolution_param {
    num_output: 24
    pad: 1
    kernel_size: 3
    stride: 1
    weight_filler {
      type: "xavier"
    }
    bias_filler {
      type: "constant"
      value: 0.0
    }
  }
}
layer {
  name: "conv8_2_5_mbox_loc50_perm"
  type: "Permute"
  bottom: "conv8_2_5_mbox_loc50"
  top: "conv8_2_5_mbox_loc50_perm"
  permute_param {
    order: 0
    order: 2
    order: 3
    order: 1
  }
}
layer {
  name: "conv8_2_5_mbox_loc50_flat"
  type: "Flatten"
  bottom: "conv8_2_5_mbox_loc50_perm"
  top: "conv8_2_5_mbox_loc50_flat"
  flatten_param {
    axis: 1
  }
}
layer {
  name: "conv8_2_5_mbox_conf50"
  type: "Convolution"
  bottom: "conv8_2_5"
  top: "conv8_2_5_mbox_conf50"
  param {
    name: "conv8_2_conf0_w"
    lr_mult: 1.0
    decay_mult: 1.0
  }
  param {
    name: "conv8_2_conf0_b"
    lr_mult: 2.0
    decay_mult: 0.0
  }
  convolution_param {
    num_output: 12
    pad: 1
    kernel_size: 3
    stride: 1
    weight_filler {
      type: "xavier"
    }
    bias_filler {
      type: "constant"
      value: 0.0
    }
  }
}
layer {
  name: "conv8_2_5_mbox_conf50_perm"
  type: "Permute"
  bottom: "conv8_2_5_mbox_conf50"
  top: "conv8_2_5_mbox_conf50_perm"
  permute_param {
    order: 0
    order: 2
    order: 3
    order: 1
  }
}
layer {
  name: "conv8_2_5_mbox_conf50_flat"
  type: "Flatten"
  bottom: "conv8_2_5_mbox_conf50_perm"
  top: "conv8_2_5_mbox_conf50_flat"
  flatten_param {
    axis: 1
  }
}
layer {
  name: "mbox_loc5"
  type: "Concat"
  bottom: "conv4_3r_5_mbox_loc50_flat"
  bottom: "conv4_3r_5_mbox_loc51_flat"
  bottom: "conv4_3r_5_mbox_loc52_flat"
  bottom: "conv4_3r_5_mbox_loc53_flat"
  bottom: "fc7r_5_mbox_loc50_flat"
  bottom: "fc7r_5_mbox_loc51_flat"
  bottom: "fc7r_5_mbox_loc52_flat"
  bottom: "fc7r_5_mbox_loc53_flat"
  bottom: "conv6_2_5_mbox_loc50_flat"
  bottom: "conv6_2_5_mbox_loc51_flat"
  bottom: "conv6_2_5_mbox_loc52_flat"
  bottom: "conv6_2_5_mbox_loc53_flat"
  bottom: "conv7_2_5_mbox_loc50_flat"
  bottom: "conv7_2_5_mbox_loc51_flat"
  bottom: "conv7_2_5_mbox_loc52_flat"
  bottom: "conv7_2_5_mbox_loc53_flat"
  bottom: "conv8_2_5_mbox_loc50_flat"
  top: "mbox_loc5"
  concat_param {
    axis: 1
  }
}
layer {
  name: "mbox_conf5"
  type: "Concat"
  bottom: "conv4_3r_5_mbox_conf50_flat"
  bottom: "conv4_3r_5_mbox_conf51_flat"
  bottom: "conv4_3r_5_mbox_conf52_flat"
  bottom: "conv4_3r_5_mbox_conf53_flat"
  bottom: "fc7r_5_mbox_conf50_flat"
  bottom: "fc7r_5_mbox_conf51_flat"
  bottom: "fc7r_5_mbox_conf52_flat"
  bottom: "fc7r_5_mbox_conf53_flat"
  bottom: "conv6_2_5_mbox_conf50_flat"
  bottom: "conv6_2_5_mbox_conf51_flat"
  bottom: "conv6_2_5_mbox_conf52_flat"
  bottom: "conv6_2_5_mbox_conf53_flat"
  bottom: "conv7_2_5_mbox_conf50_flat"
  bottom: "conv7_2_5_mbox_conf51_flat"
  bottom: "conv7_2_5_mbox_conf52_flat"
  bottom: "conv7_2_5_mbox_conf53_flat"
  bottom: "conv8_2_5_mbox_conf50_flat"
  top: "mbox_conf5"
  concat_param {
    axis: 1
  }
}
layer {
  name: "mbox_loss5"
  type: "MultiBoxLoss"
  bottom: "mbox_loc5"
  bottom: "mbox_conf5"
  bottom: "mbox_priorbox"
  bottom: "label"
  top: "mbox_loss5"
  include {
    phase: TRAIN
  }
  propagate_down: true
  propagate_down: true
  propagate_down: false
  propagate_down: false
  loss_param {
    normalization: VALID
  }
  multibox_loss_param {
    loc_loss_type: SMOOTH_L1
    conf_loss_type: SOFTMAX
    loc_weight: 2.0
    num_classes: 2
    share_location: true
    match_type: PER_PREDICTION
    overlap_threshold: 0.699999988079071
    use_prior_for_matching: true
    background_label_id: 0
    use_difficult_gt: true
    do_neg_mining: true
    neg_pos_ratio: 3.0
    neg_overlap: 0.5
    code_type: CENTER_SIZE
  }
}

